A2S2KResNet/models/S3KAIResNetpatch_7_SV_split_0.9_lr_0.001adam_kernel_240.998.pt (torch, 383500 bytes, 94 tensors)

conv1x1.weight f4 [24, 1, 1, 1, 7]
0	0xbecfa42d	-0.40554944
1	0x3e0f9a18	0.14023626
2	0x3da9ece1	0.08297134
3	0x3ea97ebb	0.331045
4	0xbd324e64	-0.04353179
5	0x3d5c0cd9	0.05372319
6	0xbf03bec8	-0.51462984
7	0xbef1d09b	-0.47229466
8	0xbe9bd47e	-0.30435556
9	0x3c4cf4aa	0.012509504
10	0x3e0c7e02	0.13719943
11	0x3d6275d2	0.055288143
12	0x3e540cbd	0.20707984
13	0xbebd1c20	-0.3693552
14	0x3e0e969d	0.13924642
15	0xbd89aa82	-0.06721975
16	0xbe14d9b4	-0.14536172
17	0x3ee5b8d8	0.44867587
18	0xbe96112d	-0.2930998
19	0xbe700fb3	-0.23443489
20	0x3e65a20e	0.224251
21	0xbdc8a32e	-0.09796749
22	0xbe13ccfe	-0.14433667
23	0x3c8d8c9c	0.017278962
24	0x3e5858cd	0.21127625
25	0xbc99e78a	-0.018787164
26	0x3e89e019	0.26928785
27	0x3ea92575	0.3303639
28	0x3e98db68	0.29854894
29	0x3e0001a8	0.12500632
30	0xbd222901	-0.039589886
31	0xbebf34bb	-0.37344918
32	0xbe40b61f	-0.18819474
33	0x3e8083e2	0.2510062
34	0x3eed2f95	0.46325365
35	0xbd084d2c	-0.03327672
36	0xbeb1fe3a	-0.34764272
37	0x3eed4f4f	0.4634957
38	0x3dc22a71	0.09480751
39	0x3e5cf17b	0.21576492
40	0x3e63d5fd	0.22249599
41	0x3e190c86	0.14946184
42	0x3bf2e28b	0.00741226
43	0x3e3fd5c2	0.18733886
44	0xbdbc0cd5	-0.09182135
45	0x3d2df863	0.04247321
46	0x3daa871e	0.08326553
47	0x3e161889	0.14657797
48	0x3f0342cc	0.512738
49	0x3e9ec3a9	0.31008652
50	0xbe1cac2a	-0.1530005
51	0x3d86f195	0.06589047
52	0x3cd1e352	0.02562109
53	0xbe5fd892	-0.21859959
54	0x3e818bd2	0.25301987
55	0xbd526bf8	-0.0513725
56	0xbd92bc74	-0.07164851
57	0x3e8592cc	0.2608856
58	0xbc86f21c	-0.016472869
59	0x3eadf7a1	0.33977988
60	0xbe165358	-0.1468023
61	0xbebba094	-0.3664595
62	0xbdd40616	-0.10352723
63	0xbc72b7b4	-0.014814306
64	0xbebb958b	-0.3663753
65	0x3e0839b7	0.13303266
66	0x3e178fcc	0.14800948
67	0x3e9ff61b	0.3124245
68	0x3e8807af	0.26568362
69	0x3e6bcd3b	0.23027508
70	0xbdaa9819	-0.083297916
71	0xbe272dca	-0.16326061
72	0x3e5d20e6	0.21594581
73	0x3f00d6f7	0.5032801
74	0xbe81aec1	-0.2532864
75	0x3e327abb	0.1742963
76	0xbe2115f2	-0.15731028
77	0xbe893acd	-0.26802674
78	0xbe98e7ed	-0.29864445
79	0xbe006dae	-0.1254184
80	0xbe59ff74	-0.21288854
81	0xbd59cfb7	-0.053176608
82	0xbee84774	-0.45367014
83	0xbd8b6f70	-0.068083644
84	0xbea88b4a	-0.3291877
85	0xbd66602c	-0.05624406
86	0x3e93476e	0.28765434
87	0x3e1ae08d	0.15124722
88	0xbec4125c	-0.38295257
89	0x3e5d7e9d	0.2163033
90	0x3e827507	0.2547991
91	0xbec8cd57	-0.39219162
92	0xbe8f7bb1	-0.28024057
93	0xbedebbce	-0.4350266
94	0x3e67c58b	0.2263395
95	0x3e10fa7e	0.14158055
96	0x3e83a09d	0.25708476
97	0x3db96158	0.0905177
98	0x3ed90976	0.4239003
99	0xbdb0c985	-0.08632187
100	0xbe5ba19e	-0.21448371
101	0xbc963489	-0.018335598
102	0x3df501d8	0.11963242
103	0x3e9ad1e9	0.30238274
104	0xbd51a75b	-0.051184993
105	0x3e3ae399	0.18250884
106	0xbd846a0d	-0.0646554
107	0x3e6e1cfe	0.23253247
108	0x3e79d781	0.24398614
109	0xbee5f048	-0.44909883
110	0xbe392231	-0.18079449
111	0x3e45a757	0.19302116
112	0x3e67d307	0.22639094
113	0xbef2f8dd	-0.47455493
114	0x3e1e583a	0.15463343
115	0x3e3c27b6	0.18374524
116	0xbe2f2dad	-0.17107268
117	0x3c7cf106	0.015438324
118	0xbd0d21e5	-0.034456152
119	0x3ccc0f2c	0.024909578
120	0x3d41393a	0.047173716
121	0xbe889948	-0.26679444
122	0xbea3dfbc	-0.32006633
123	0x3eb769a8	0.35822797
124	0xbeb877a8	-0.3602879
125	0xbe39fe10	-0.18163323
126	0xbe861d0b	-0.26194033
127	0x3e8549ba	0.2603281
128	0x3e1f7abc	0.15574163
129	0x3e3857d8	0.1800226
130	0xbef8e388	-0.48611093
131	0x3ea4ce22	0.32188517
132	0x3d1cfcdd	0.038327087
133	0x3e9439fe	0.28950495
134	0x3c74168a	0.014897952
135	0xbed5d0f1	-0.41760972
136	0x3e313fca	0.1730949
137	0xbd5c2803	-0.053749096
138	0x3e805aba	0.2506922
139	0xba232e82	-0.0006224887
140	0x3db5f517	0.08884638
141	0xbf051ba9	-0.5199533
142	0x3da6c225	0.08142499
143	0xbd1b6e11	-0.037946764
144	0x3e16c1e2	0.14722398
145	0xbe18331d	-0.14863248
146	0xbe063b52	-0.13108566
147	0xbe18c145	-0.14917476
148	0xbe893474	-0.2679783
149	0xbd938cf2	-0.072046176
150	0x3ee7c13f	0.45264623
151	0x3e28bb20	0.16477633
152	0x3d9dfd0c	0.077142805
153	0x3c708746	0.014680689
154	0x3d662853	0.0561908
155	0xbeaf0fae	-0.3419165
156	0x3c3000c4	0.01074237
157	0x3d1e306e	0.038620405
158	0xbedaf3e9	-0.42764214
159	0x3ed8d70d	0.4235157
160	0x3e83d847	0.25750944
161	0xbc0abce5	-0.0084678875
162	0x3dd9747c	0.10617921
163	0xbe279847	-0.16366683
164	0x3e2e0f7b	0.16998093
165	0xbe4e13d0	-0.20124745
166	0xbee1b886	-0.44086093
167	0x3ea8dd17	0.32981178

conv1x1.bias f4 [24]
0	0xbdcf769d	-0.101300456
1	0xbeb02c7f	-0.34408948
2	0xbe143b81	-0.14475824
3	0xbeb77f13	-0.35839137
4	0xbeb0fcd8	-0.34567904
5	0x3da4b768	0.080427945
6	0xbe452a14	-0.19254333
7	0xbe14bbc2	-0.14524749
8	0xbdf0a2ba	-0.11749788
9	0xbe4d9988	-0.20078099
10	0xbb8a81a9	-0.0042268825
11	0xbdb98b31	-0.09059752
12	0xbebe0fbd	-0.37121382
13	0xbbf9b79a	-0.007620764
14	0xbdadae3f	-0.084805004
15	0xbdeba6c5	-0.11506418
16	0x3ea0efd9	0.3143299
17	0x3e8d276c	0.2756914
18	0x3e47288f	0.19449066
19	0x3dec8d4c	0.11550388
20	0x3dca84f8	0.09888643
21	0xbeb16a34	-0.3465134
22	0xbe46fb3a	-0.19431773
23	0xbd7584bb	-0.059941035

conv3x3.weight f4 [24, 1, 3, 3, 7]
0	0x3d89d675	0.067303576
1	0xbe1b14eb	-0.15144698
2	0x3cd5d099	0.026100444
3	0xbe40311a	-0.18768731
4	0xbcdf92e1	-0.027291717
5	0xbdf36985	-0.11885361
6	0x3ec37965	0.38178554
7	0xbb21172c	-0.0024580462
8	0xbc9cd8ce	-0.01914635
9	0xbd29b482	-0.04143191
10	0xbe07b665	-0.13253172
11	0xbda167dc	-0.07881138
12	0x3c492f8b	0.0122794015
13	0x3ede1a07	0.43379232
14	0xbe311628	-0.17293608
15	0x3e495881	0.19662668
16	0x3dbd89cb	0.092547975
17	0xbde8eae9	-0.113729306
18	0xbd9f258d	-0.07770834
19	0xbcba9c1a	-0.022779513
20	0xbce68416	-0.028139155
21	0xbdbcd84c	-0.09220943
22	0x3cb279a7	0.021786524
23	0x3cbf293b	0.02333509
24	0xbe7f9bce	-0.24961779
25	0x3d7cb9ee	0.061700754
26	0xbbc4340b	-0.0059876493
27	0x3de3e3be	0.11127423
28	0xbdd2b28a	-0.1028796
29	0xbceefd9c	-0.029173665
30	0xbb1a5808	-0.0023551006
31	0xbe635aab	-0.22202556
32	0xbb769b18	-0.0037629064
33	0xbdede4a7	-0.116158776
34	0x3c62acfb	0.013835187
35	0xbe6db767	-0.23214494
36	0xbd8928eb	-0.066972576
37	0x3d02e4b5	0.031956393
38	0xbc1c2d22	-0.009532245
39	0x3c88aa07	0.016682638
40	0x3d2776ad	0.040884662
41	0xbdf45370	-0.11929977
42	0xbcdfb97d	-0.027310127
43	0x3c590aef	0.013247236
44	0x3dce6099	0.10077018
45	0xbe371e49	-0.17882647
46	0x3d0a73a3	0.033801686
47	0xbe2e5e5e	-0.17028186
48	0xbe57e7f7	-0.21084581
49	0xbe4630ca	-0.19354549
50	0x3d84389c	0.0645611
51	0x3e0d4d37	0.13798986
52	0xbcd3b63e	-0.025843736
53	0x3d4570cf	0.048203286
54	0x3e430f46	0.19048795
55	0x3b074a4a	0.0020643645
56	0x3d1b6817	0.037941065
57	0x3d9ba08d	0.07598982
58	0xbe335449	-0.17512621
59	0xbe29563d	-0.16536804
60	0x3e0b9495	0.13630898
61	0x3dbb6e4a	0.09151895
62	0x3dd75287	0.10513788
63	0xbd3af525	-0.045643944
64	0xbb812e53	-0.00394229
65	0xbe1f741c	-0.15571636
66	0xbeeadcab	-0.4587148
67	0xbce249e2	-0.02762312
68	0xbca2ccdb	-0.019873073
69	0x3ed9c177	0.42530414
70	0xba5b3260	-0.00083616935
71	0x3d1d8b10	0.0384627
72	0x3d4391cd	0.04774647
73	0xbe5b3be3	-0.21409564
74	0x3d47f67d	0.048819054
75	0xbdce7479	-0.10080809
76	0x3e8533c0	0.26016045
77	0x3d1ca7cc	0.03824596
78	0x3c46da2b	0.012136976
79	0x3de43469	0.11142809
80	0xbe3a4f65	-0.18194349
81	0xbdce175e	-0.10063051
82	0xbcdd8452	-0.027040634
83	0x3e18318c	0.1486265
84	0xbcd2361d	-0.025660569
85	0x3d900d34	0.07033768
86	0x3d4cc718	0.049994558
87	0xbe6b622c	-0.22986668
88	0x3da0f815	0.07859818
89	0xbc7d8d55	-0.015475591
90	0x3e2b91a5	0.16754778
91	0xbdb73b64	-0.08946875
92	0xbcac3734	-0.021022417
93	0x3d4cf6a3	0.0500399
94	0xbe195092	-0.14972141
95	0xbdac7765	-0.0842121
96	0xbe21d417	-0.15803562
97	0x3dd46506	0.10370831
98	0xbda922de	-0.082586035
99	0x3cd9d695	0.026591578
100	0x3cfbfb36	0.030759435
101	0xbe6ca7c3	-0.23110871
102	0xbb8c9b08	-0.004290942
103	0xbd1c29f8	-0.038125962
104	0x3c7a4802	0.015275957
105	0xbbe58f4c	-0.0070056077
106	0xbca47567	-0.020075513
107	0x3db7d588	0.08976275
108	0xbea38739	-0.31939104
109	0xbda4677f	-0.08027553
110	0x3d768240	0.06018281
111	0x3d22f985	0.03978874
112	0xbd5e93df	-0.05434024
113	0x3d04b46a	0.03239862
114	0xbde129d6	-0.10994308
115	0xbe6c6faa	-0.23089471
116	0x3d154cf4	0.03645034
117	0x3d5a7260	0.053331733
118	0x3d9f2f4a	0.077726915
119	0x3a073a13	0.0005158495
120	0xbd55c207	-0.052186992
121	0xbda8cd35	-0.08242265
122	0xbecf3ab1	-0.40474465
123	0xbd0ddb24	-0.034632817
124	0x3e47bd6b	0.19505851
125	0xbd18f6fe	-0.037344925
126	0x3e1b6881	0.15176584
127	0xbe96f5d3	-0.29484424
128	0x3e225250	0.15851712
129	0xbe425f9f	-0.18981789
130	0xbdb4ca37	-0.08827632
131	0xbe407b1e	-0.18796965
132	0xbddb5029	-0.10708649
133	0xbbcf000d	-0.0063171447
134	0xbdf5c2d4	-0.12000051
135	0x3cc233ec	0.023706399
136	0xbe1d2fe3	-0.15350299
137	0x3c0abff5	0.008468618
138	0xbd639815	-0.05556496
139	0xbcea2e4c	-0.02858653
140	0x3c18578d	0.0092982175
141	0xbdd53391	-0.10410226
142	0x3da5341e	0.08066581
143	0xbe6cfa51	-0.23142363
144	0xbd340bd3	-0.04395659
145	0x3d52ec0c	0.051494643
146	0x3cdef434	0.027216054
147	0xbd5f7148	-0.054551393
148	0xbe30d24b	-0.1726772
149	0x3dbb9d85	0.09160904
150	0xbe95f7fa	-0.29290754
151	0x3e9ee15e	0.31031317
152	0xbe23e2ba	-0.16004458
153	0xba8bf56d	-0.0010678001
154	0xbdfc3aa8	-0.12315875
155	0x3bac0162	0.0052491883
156	0x3cf22363	0.02955789
157	0xbe1fdd13	-0.15611677
158	0x3dc36882	0.09541418
159	0xbd7c1e1d	-0.061552156
160	0x3e3378d3	0.1752656
161	0x3baf7c71	0.0053554107
162	0xbd55ae80	-0.05216837
163	0x3e21db30	0.1580627
164	0x3d1d5931	0.038415138
165	0x3e42377f	0.18966483
166	0x3d23aa92	0.03995759
167	0xbd8925f1	-0.0669669
168	0xbd94ad10	-0.072595716
169	0xbd26e2ff	-0.040743824
170	0x3c99a440	0.018755078
171	0xbe45f39f	-0.19331215
172	0xbd813f29	-0.06310875
173	0x3df40967	0.11915856
174	0xbd85febe	-0.06542729
175	0x3c050aae	0.008120222
176	0xbd5a25fe	-0.05325889
177	0x3e07fa8d	0.13279171
178	0xbe65ca47	-0.22440444
179	0xbe028a01	-0.12747957
180	0x3e9afd93	0.30271587
181	0xbdb51f31	-0.0884384
182	0x3d4854ed	0.048909117
183	0x3d8c2a28	0.06843978
184	0x3e0df2d2	0.1386216
185	0x3e0ce2eb	0.13758437
186	0xbd208494	-0.039188936
187	0x3dce7d42	0.10082485
188	0xbe2bcd82	-0.16777614
189	0x3d16a2a1	0.03677619
190	0x3d2a1e52	0.041532822
191	0x3c151746	0.009099787
192	0x3d5c9aaa	0.053858437
193	0xbdf6324e	-0.120213136
194	0xbdd9d569	-0.10636408
195	0xbc075139	-0.008259111
196	0x3dbfc958	0.09364575
197	0xbddf82a2	-0.10913588
198	0x3b59f607	0.0033258216
199	0x3e19f84a	0.15036121
200	0xbd33c7f8	-0.043891877
201	0x3de2add4	0.11068311
202	0x3d911b44	0.07085279
203	0x3d75a0d6	0.05996784
204	0xbe3fa99b	-0.18717043
205	0x3e09bc8d	0.13450833
206	0x3e0ad6ae	0.13558456
207	0x3eaceeeb	0.3377603
208	0x3ea41e94	0.3205458
209	0x3e1e620d	0.15467091
210	0x3c3f4e03	0.011676314
211	0xbd97b981	-0.07408429
212	0x3ceba0a9	0.028763132
213	0x3d335cdc	0.04378973
214	0xbda1db3f	-0.07903146
215	0x3b849b5c	0.0040468406
216	0xbd0a3321	-0.033740167
217	0x3b05ed17	0.0020435506
218	0xbde9c482	-0.11414434
219	0xbd511d69	-0.05105344
220	0x3c51304c	0.0127678625
221	0x3db92bf0	0.090415835
222	0x3d8704fd	0.06592748
223	0x3df3a7f5	0.1189727
224	0xbe33a955	-0.17545064
225	0xbddbf6f5	-0.10740463
226	0x3d901966	0.07036094
227	0xbce629d1	-0.028096111
228	0x3e875d4c	0.26438367
229	0x3e3581ec	0.17725343
230	0x3e671cc6	0.2256957
231	0xbd291bc8	-0.04128626
232	0x3cdcbb90	0.026944906
233	0x3d6f0e3c	0.058363184
234	0x3d9d27e5	0.07673625
235	0x3d931882	0.07182409
236	0x3d8c7276	0.06857769
237	0xbdc6e7ac	-0.09712157
238	0xbbe94cac	-0.0071197357
239	0x3d514b46	0.051097177
240	0x3e084210	0.13306451
241	0xbd94232a	-0.072332695
242	0x3b375f05	0.002798022
243	0x3d4619e5	0.04836454
244	0xbdfa30d5	-0.12216345
245	0xbe26729c	-0.16254658
246	0xbdce1a2f	-0.10063588
247	0x3dfd40c0	0.12365866
248	0x3e52ddba	0.20592394
249	0x3e988f62	0.29796892
250	0xbcabdbbc	-0.020978801
251	0x3c26698a	0.010156998
252	0xbd8c6d91	-0.06856836
253	0xbcb0c072	-0.02157614
254	0x3d5912ac	0.052996323
255	0x3e8069fb	0.25080857

conv3x3.bias f4 [24]
0	0x3db0814c	0.086184114
1	0x3dd71832	0.10502662
2	0x3dd3b864	0.10337904
3	0xbc828677	-0.015933258
4	0x3d90a8bd	0.07063434
5	0x3d77de88	0.060514957
6	0xbdbd4e35	-0.092434324
7	0xbd8d9de2	-0.069148794
8	0xbdd4f0e8	-0.10397512
9	0x3b38db86	0.0028207018
10	0xbde1e29d	-0.11029551
11	0xbe028156	-0.1274465
12	0xbe153909	-0.14572538
13	0x3d89d5d3	0.06730237
14	0x3da6d1d5	0.08145491
15	0x3da13ce9	0.07872946
16	0xbe0a35e5	-0.13497122
17	0xbd32336a	-0.043506064
18	0xbd888a97	-0.06667059
19	0xbdda6c2e	-0.10665165
20	0xbc81beee	-0.015838113
21	0xbd68571a	-0.05672369
22	0xbcced4f4	-0.025248028
23	0xbd8c3545	-0.06846098

batch_norm1x1.0.weight f4 [24]
0	0x3f867763	1.0505184
1	0x3f8dc2cc	1.1075072
2	0x3f86a40a	1.0518811
3	0x3f8ca1dd	1.0986897
4	0x3f5a3bb0	0.85247326
5	0x3f900fc9	1.1254817
6	0x3f7c383d	0.9852331
7	0x3f881df4	1.0634141
8	0x3f7e23c8	0.9927335
9	0x3f8bfb3e	1.0936048
10	0x3f86be6d	1.0526863
11	0x3f84a78f	1.0363635
12	0x3f875b1f	1.0574683
13	0x3f8b34cf	1.0875491
14	0x3f8eb201	1.1148072
15	0x3f7d03e4	0.9883406
16	0x3f8f83ed	1.1212136
17	0x3f8434c5	1.0328604
18	0x3fa34248	1.2754602
19	0x3f908629	1.1290942
20	0x3f86b0a0	1.0522652
21	0x3f8974f3	1.0738815
22	0x3f839970	1.02812
23	0x3f72ceef	0.94847006

batch_norm1x1.0.bias f4 [24]
0	0x3d7ca612	0.061681814
1	0xbd935817	-0.07194536
2	0xbe35868c	-0.17727107
3	0xbe071c72	-0.13194445
4	0xbe49c034	-0.19702226
5	0xbdaff4fa	-0.085916474
6	0xbd5baea2	-0.05363334
7	0x3d77f778	0.06053874
8	0x3d042d65	0.032269854
9	0x3be05063	0.0068455203
10	0xbe0f56fe	-0.13998029
11	0xbb6d846a	-0.0036242255
12	0xbdf7e645	-0.12104467
13	0xbe27c20d	-0.16382618
14	0xbcc269f1	-0.023732157
15	0xbe59d700	-0.21273422
16	0xbd84f277	-0.06491559
17	0xbe4734ce	-0.19453737
18	0x3db4b3f1	0.088233836
19	0xbb8fc6a5	-0.004387694
20	0xbe477239	-0.19477166
21	0xbe03996b	-0.12851493
22	0xbe1bedcd	-0.15227433
23	0xbde0e803	-0.10981753

batch_norm1x1.0.running_mean f4 [24]
0	0xbe238166	-0.1596733
1	0xbeb2ded7	-0.34935638
2	0xbe26f795	-0.16305383
3	0xbeb3395c	-0.350047
4	0xbea779b8	-0.32710052
5	0x3df16ac7	0.11787944
6	0xbe417398	-0.18891752
7	0xbe0a1954	-0.13486224
8	0xbe2d35ac	-0.16915005
9	0xbe1a6e3f	-0.15081118
10	0xbd1068a4	-0.035256043
11	0xbd9aaae2	-0.075521246
12	0xbed00917	-0.40631935
13	0x3c00b8fa	0.007856602
14	0xbd460c0c	-0.048351333
15	0xbe0de6cd	-0.13857575
16	0x3eaf8116	0.34278172
17	0x3e9bc566	0.3042404
18	0x3dffa587	0.12482744
19	0x3dfb5005	0.12271122
20	0x3e1b0fbd	0.15142722
21	0xbeabfa5c	-0.33589447
22	0xbe3bd814	-0.18344146
23	0xbda50947	-0.0805841

batch_norm1x1.0.running_var f4 [24]
0	0x3f01d335	0.507129
1	0x3f0206de	0.5079173
2	0x3eac1739	0.33611467
3	0x3e568ae0	0.20951414
4	0x3f0d9a03	0.5531313
5	0x3eb5fc66	0.35544127
6	0x3e9819bd	0.29707137
7	0x3e66baf4	0.22532254
8	0x3e90212b	0.28150305
9	0x3e9e6244	0.30934346
10	0x3ed29f70	0.41137266
11	0x3ea9a5ea	0.33134395
12	0x3ecae00f	0.39624068
13	0x3f096949	0.5367628
14	0x3e9cb0ba	0.30603582
15	0x3eaa5861	0.33270553
16	0x3eb21115	0.34778658
17	0x3ec25530	0.37955618
18	0x3edd376e	0.43206352
19	0x3e9dfe5f	0.30858132
20	0x3e9e8425	0.30960193
21	0x3ea4f6e7	0.32219622
22	0x3f069cff	0.5258331
23	0x3ea3814a	0.31934577

batch_norm3x3.0.weight f4 [24]
0	0x3f97c9d1	1.1858464
1	0x3f9bef78	1.2182455
2	0x3f87d4c1	1.0611802
3	0x3f8622a1	1.0479318
4	0x3fa359b2	1.2761748
5	0x3f8e901d	1.113773
6	0x3f78e784	0.97228265
7	0x3f821402	1.0162356
8	0x3f67078c	0.9024589
9	0x3f77371f	0.96568483
10	0x3f8d10b4	1.1020722
11	0x3f71a793	0.9439632
12	0x3f80b94d	1.0056549
13	0x3f7da237	0.99075645
14	0x3f929a9d	1.1453434
15	0x3f7e969b	0.99448556
16	0x3f8131e1	1.0093347
17	0x3f8a873c	1.082252
18	0x3f7003f0	0.9375601
19	0x3f8dfd00	1.1092834
20	0x3f80db08	1.0066843
21	0x3f760d5f	0.9611415
22	0x3f9103fc	1.1329341
23	0x3f8aa15b	1.0830492

batch_norm3x3.0.bias f4 [24]
0	0xbda54745	-0.08070234
1	0xbcd27d51	-0.025694521
2	0xbe152353	-0.14564256
3	0x3de289a2	0.110614076
4	0xbdaaee63	-0.0834625
5	0xbe1225a8	-0.14272177
6	0xbd6f2a12	-0.05838973
7	0xbe056e68	-0.13030398
8	0x3c19201b	0.009346033
9	0xbde0a66a	-0.10969241
10	0xbe2c984d	-0.16854973
11	0xbe18db2d	-0.14927359
12	0xbe1332cd	-0.14374848
13	0x3d250534	0.040288165
14	0xbe18fb3e	-0.14939591
15	0xbe1c40a3	-0.15259032
16	0xbe152d22	-0.14567998
17	0xbd31bffb	-0.043395977
18	0xbdeb6381	-0.11493588
19	0xbd1c4188	-0.038148433
20	0xbdeef375	-0.116675295
21	0xbe90282c	-0.2815565
22	0xbe00ea8e	-0.12589476
23	0xbe0ecabb	-0.13944523

batch_norm3x3.0.running_mean f4 [24]
0	0x3de0df7d	0.10980127
1	0x3e34506c	0.17608804
2	0x3e45078e	0.19241163
3	0x3d42b38b	0.047534507
4	0xbd092af1	-0.033488218
5	0x3d7c5a8e	0.061609797
6	0xbe08a2a5	-0.13343294
7	0xbd434ba5	-0.047679562
8	0xbe859a84	-0.2609445
9	0x3cb4bba2	0.022062127
10	0xbe20404c	-0.15649527
11	0xbdaf5f5e	-0.08563112
12	0xbe4846a1	-0.19558193
13	0x3ce82330	0.028337091
14	0x3c80a81e	0.015705165
15	0x3dba24ee	0.09089075
16	0xbe603601	-0.21895601
17	0xbd5bc3af	-0.053653415
18	0xbd1125cf	-0.035436448
19	0xbe5b3f47	-0.21410857
20	0x3dd1d9a5	0.102465905
21	0xbd10ecb0	-0.035381973
22	0x3d064967	0.032784846
23	0xbe0079f9	-0.12546529

batch_norm3x3.0.running_var f4 [24]
0	0x3fd2dcfd	1.647369
1	0x407656e8	3.8490543
2	0x3fc91319	1.5708953
3	0x3f8f943a	1.121711
4	0x405d2591	3.4554179
5	0x3f98d00a	1.1938488
6	0x3f805288	1.0025187
7	0x3ff410a5	1.906758
8	0x3fd43513	1.6578697
9	0x3f90b283	1.1304477
10	0x3f5c163f	0.85971445
11	0x3f4b7a2b	0.7948329
12	0x3fb44d5a	1.4086106
13	0x3fb54117	1.4160489
14	0x403817b3	2.8764465
15	0x3f351a77	0.7074351
16	0x3fe9a3fe	1.8253171
17	0x3fbd547e	1.479141
18	0x3fa8d706	1.319062
19	0x403e804b	2.9765804
20	0x406f680d	3.7407258
21	0x3f3906b9	0.7227588
22	0x3fe010da	1.7505143
23	0x3f58ae97	0.846414

conv_se.0.weight f4 [7, 24, 1, 1, 1]
0	0xbe3d967a	-0.18514434
1	0xbe0ffce0	-0.14061308
2	0xbde45581	-0.11149121
3	0x3dca4b08	0.09877592
4	0x3b98a280	0.0046580434
5	0xbe357149	-0.17718996
6	0x3e3953ec	0.1809842
7	0xbde8e0aa	-0.11370976
8	0xbe265a66	-0.16245422
9	0xbddb627a	-0.10712142
10	0xbe38ce5c	-0.1804747
11	0x3d4e0c48	0.05030468
12	0xbdb74f30	-0.08950651
13	0xbe4a64fd	-0.19765086
14	0xbd5826b0	-0.05277127
15	0xbd4f9ef8	-0.050688714
16	0x3dce9318	0.1008665
17	0xbaa1c080	-0.0012340695
18	0x3df11fb8	0.11773628
19	0x3d4921b8	0.049104422
20	0x3d265cec	0.04061596
21	0xbde39fbb	-0.111144505
22	0xbe3fb53f	-0.18721484
23	0x3c378120	0.011200219
24	0x3e3ebd50	0.18626904
25	0xbca13b86	-0.019681703
26	0xbdb8bdd7	-0.09020584
27	0xbe5c7988	-0.21530735
28	0xbdf6a08e	-0.12042342
29	0x3c8c099e	0.01709443
30	0xbdd19dd1	-0.10235179
31	0x3d4654c3	0.04842068
32	0x3e13352a	0.14375749
33	0x3cee5868	0.02909489
34	0x3cf71705	0.030162344
35	0x3e262fbc	0.16229147
36	0xbdb47b4d	-0.0881258
37	0xbe243316	-0.16035113
38	0xbc89111b	-0.01673179
39	0xbd031fce	-0.032012753
40	0x3dfeb11c	0.12436125
41	0x3db2e3cb	0.08734854
42	0x3de97645	0.11399511
43	0xbd49eb35	-0.049296577
44	0x3d48a25e	0.04898297
45	0x3e44c215	0.19214661
46	0xbc374c6a	-0.011187652
47	0xbca6b1d9	-0.020348476
48	0xbc68e4e6	-0.01421473
49	0xbe3c2143	-0.18372063
50	0xbd527436	-0.05138036
51	0x3dfb1e5a	0.122616485
52	0x3e1d59b5	0.15366252
53	0xbe13e5a7	-0.14443074
54	0xbe413bef	-0.18870519
55	0xbd4d5961	-0.050134066
56	0xbd9c5cb2	-0.07634868
57	0x3e3711e4	0.17877918
58	0x3e28c904	0.16482931
59	0x3dffe601	0.12495042
60	0x3ded5612	0.11588682
61	0xbdd1ab23	-0.1023772
62	0xbc1e4817	-0.009660742
63	0x3dc5721a	0.09640904
64	0xbd87fee6	-0.06640415
65	0x3da5c6dc	0.0809457
66	0xbd2baa1d	-0.04191028
67	0xbdf64a65	-0.120259084
68	0x3e0e8be6	0.13920555
69	0xbe3f1762	-0.18661264
70	0xbe22da8b	-0.1590368
71	0xbe32a913	-0.17447309
72	0x3dde3152	0.10849251
73	0x3e5232cc	0.2052719
74	0x3e524f8d	0.20538159
75	0xbdf8fb60	-0.12157321
76	0x3c9b1786	0.018932115
77	0x3e2fea2a	0.1717917
78	0xbe1adc45	-0.15123089
79	0x3d4f6677	0.050634827
80	0x3d5929ba	0.05301831
81	0x3e4ee5cd	0.2020485
82	0x3d6f20bf	0.05838084
83	0x3e564c31	0.20927502
84	0xbc1fcfe8	-0.009754159
85	0xbdd96148	-0.10614258
86	0xbcf7ccc2	-0.030249003
87	0xbcf46c7d	-0.029836887
88	0x3e497690	0.19674134
89	0xbe2a31e3	-0.16620593
90	0x3e207935	0.15671237
91	0xbd3b6818	-0.04575357
92	0xbe012851	-0.12613036
93	0x3e298c1e	0.16557357
94	0x3d9a5ea7	0.07537585
95	0x3e04e956	0.12979636
96	0xbdfa7a25	-0.122303285
97	0xbe2f8677	-0.17141138
98	0xbca757ae	-0.020427551
99	0x3dad2cfb	0.08455845
100	0xbe01d813	-0.12680082
101	0x3e06e0a8	0.13171637
102	0xbe31fa99	-0.17380752
103	0x3d3f4d9e	0.04670488
104	0xbd133a38	-0.035944194
105	0x3c892368	0.016740516
106	0xbcb07ad6	-0.021542948
107	0xbd94b3a7	-0.072608285
108	0x3e2cb779	0.16866864
109	0x3de8169f	0.1133244
110	0xbadf35dd	-0.0017029602
111	0x3e274db9	0.16338243
112	0xbdd08e5d	-0.10183404
113	0x3dbc3539	0.09189839
114	0x3e239c62	0.15977624
115	0xbdf5d5c7	-0.120036654
116	0xbd1d6bb2	-0.038432784
117	0x3dd31f32	0.103086844
118	0x3def9d23	0.11699893
119	0x3da8fe9a	0.082516864
120	0xbe2dcad7	-0.16971909
121	0x3e15012b	0.14551227
122	0xbd3cc464	-0.04608573
123	0x3dba56c4	0.090985805
124	0x3ceea8fa	0.029133309
125	0xbe3ac029	-0.18237366
126	0xbdaab0a4	-0.08334473
127	0xbe1dea18	-0.15421331
128	0xbe0a41fc	-0.13501734
129	0xbdaa0a49	-0.08302743
130	0x3e3e508d	0.18585415
131	0xbd973945	-0.0738397
132	0x3de08aec	0.10963997
133	0x3e3df105	0.18548973
134	0xbb895690	-0.0041912273
135	0x3d9d279e	0.07673572
136	0xbd4edac9	-0.05050162
137	0xbd99b6eb	-0.07505592
138	0xbd7c6439	-0.061619017
139	0xbde5fcb0	-0.11229837
140	0xbe3c80fa	-0.18408576
141	0x3e45d2c0	0.19318676
142	0x3e0c3514	0.13692123
143	0x3d2b1185	0.041764755
144	0x3d987ca5	0.07445649
145	0xbe295bd9	-0.16538943
146	0xbd92a0f8	-0.071596086
147	0x3e2dfa6b	0.16990058
148	0xbe1d47a2	-0.15359357
149	0x3ba95400	0.0051674843
150	0x3e2e2900	0.17007828
151	0x3dbed917	0.0931875
152	0xbe174076	-0.14770684
153	0x3cf22806	0.0295601
154	0x3d96e627	0.07368117
155	0xbe348a79	-0.17630948
156	0x3e08a39e	0.13343665
157	0x3dd41e53	0.103573464
158	0x3e340bdb	0.17582648
159	0xbcb29b61	-0.021802606
160	0x3e03edca	0.12883678
161	0x3e4137a1	0.18868877
162	0x3d5d6e57	0.054060306
163	0xbd7261ca	-0.05917529
164	0x3e13ace3	0.1442142
165	0xbe1e2856	-0.15445074
166	0x3daaa0fe	0.08331488
167	0x3de1b9c2	0.110217586

conv_se.0.bias f4 [7]
0	0xbde3a12f	-0.11114728
1	0x3da97f99	0.082762904
2	0x3c968ca0	0.018377602
3	0xbc936336	-0.017991643
4	0x3da02bf6	0.07820885
5	0x3d488950	0.048959076
6	0x3e2536e0	0.16134214

conv_ex.weight f4 [24, 7, 1, 1, 1]
0	0x3eb1a815	0.3469855
1	0xbe7eae2c	-0.24871129
2	0x3eb255e9	0.3483117
3	0x3cbb191e	0.022839125
4	0xbe104bbd	-0.14091392
5	0x3d34a8a9	0.04410616
6	0x3e9b216b	0.30298933
7	0x3eabd80b	0.33563265
8	0x3d903d3b	0.07042929
9	0xbe159307	-0.14606868
10	0x3c210bbd	0.009829459
11	0x3e9e8946	0.30964106
12	0x3e621434	0.2207802
13	0xbd82041a	-0.063484386
14	0x3d58fae0	0.052973628
15	0xbe8bb0f3	-0.2728344
16	0xbeac747f	-0.3368263
17	0x3e81ac70	0.25326872
18	0x3e17b9ca	0.14816967
19	0xbdcd0dff	-0.10012435
20	0x3ddf237d	0.10895441
21	0xbe5e6787	-0.2171918
22	0xbea2ce69	-0.31798103
23	0x3e88ccd4	0.2671877
24	0x3e579884	0.21054274
25	0xbd22ada4	-0.039716378
26	0x3e8e8243	0.27833757
27	0xbe930a9a	-0.28719026
28	0xbe35afdf	-0.17742871
29	0x3db9f976	0.09080784
30	0x3e90df1c	0.2829522
31	0x3e9bc8eb	0.30426726
32	0xbdc3da18	-0.095630825
33	0xbe987d25	-0.29782978
34	0x3cfe4772	0.031039927
35	0x3e787bda	0.24265996
36	0xbd9d07a1	-0.07667471
37	0xbda8b05f	-0.08236765
38	0xbe3dd16f	-0.18536924
39	0xbe71ba62	-0.23606256
40	0xbeab3df1	-0.33445695
41	0x3e6d137a	0.23151961
42	0x3e17e86e	0.14834759
43	0x3e494266	0.19654235
44	0x3eaa099e	0.33210462
45	0xbcd2aed9	-0.02571814
46	0xbcf1115e	-0.029427227
47	0xbe849e88	-0.259022
48	0xbeacffde	-0.3378896
49	0xbd769778	-0.060203046
50	0x3e15647b	0.14589112
51	0x3e9cc9bc	0.3062266
52	0x3e4842e3	0.19556765
53	0xbc6b24c3	-0.014352026
54	0xbd0832e7	-0.03325167
55	0xbe2b79af	-0.16745637
56	0xbe130642	-0.14357856
57	0x3ebf2e2a	0.37339908
58	0xbe876599	-0.264447
59	0xbe33f6c3	-0.17574601
60	0xbeb62223	-0.3557292
61	0xbe0e45af	-0.1389377
62	0x3d1eb6e1	0.038748626
63	0xbd3a63f8	-0.045505494
64	0xbe7f9902	-0.24960712
65	0x3e7d67a7	0.24746571
66	0x3d0c0b27	0.034190323
67	0x3e9ad8c3	0.302435
68	0x3e766f99	0.24066009
69	0xbe021c4a	-0.12706104
70	0x3e321cda	0.17393818
71	0xbe93e769	-0.2888749
72	0xbe99e8d7	-0.30060455
73	0x3e29d3dc	0.16584724
74	0xbcad9ea4	-0.02119381
75	0xbe225bfd	-0.15855403
76	0xbd38c361	-0.045108203
77	0xbe9fc081	-0.31201556
78	0x3d4ecfb0	0.050491035
79	0xbea47a7e	-0.32124704
80	0x3ea9c550	0.3315835
81	0x3e89a189	0.26881054
82	0x3ea290c9	0.31751087
83	0xbda8237b	-0.08209892
84	0x3e8b8a0f	0.27253768
85	0xbd2a31a8	-0.041551262
86	0xbc120b13	-0.008913773
87	0x3eb5a1f7	0.35475132
88	0xbe36429c	-0.17798847
89	0xbea3c36a	-0.31985027
90	0xbe7c5070	-0.2464006
91	0x3e7ff0ba	0.24994174
92	0xbe34c7c0	-0.17654324
93	0x3ebb247b	0.3655127
94	0xbe9e3127	-0.30896875
95	0xbe3b2713	-0.18276624
96	0x3e30e124	0.17273384
97	0xbe01342f	-0.12617563
98	0x3ebb78cb	0.36615595
99	0xbc29988c	-0.010351311
100	0x3e050c6e	0.12993023
101	0x3eb3a8e2	0.35089785
102	0xbe299422	-0.16560414
103	0x3cf9d2a4	0.03049595
104	0x3e918ad7	0.2842624
105	0x3ebed3cb	0.3727096
106	0xbe294068	-0.16528475
107	0xbe194056	-0.14965948
108	0xbd8f9ca8	-0.07012302
109	0xbe3ca010	-0.18420434
110	0x3eb5df16	0.35521764
111	0x3e659808	0.22421277
112	0xbd99d120	-0.075105906
113	0xbda6325b	-0.08115073
114	0x3eb58821	0.3545542
115	0x3ea4d267	0.32191774
116	0xbd715ae3	-0.058924567
117	0xbbb3d4c4	-0.00548801
118	0x3e9d1049	0.30676487
119	0xbd60c710	-0.05487734
120	0xbdc442d8	-0.09583062
121	0x3e3c848a	0.18409935
122	0x3e605175	0.21906073
123	0x3e8ab964	0.27094567
124	0xbe923f8d	-0.2856411
125	0xbeabe17c	-0.33570468
126	0x3e7faa16	0.24967226
127	0xbea2b0ae	-0.3177542
128	0xbc67b474	-0.0141421445
129	0x3de1b9cf	0.11021768
130	0x3e8a08c0	0.269598
131	0xbe661b22	-0.22471288
132	0xbd9897ce	-0.074508294
133	0x3e8d45cf	0.27592322
134	0x3da2dec3	0.07952645
135	0xbe8ca977	-0.2747304
136	0x3e501ff7	0.20324694
137	0x3e98d868	0.29852605
138	0xbe88ec09	-0.2674258
139	0x3ea5f36d	0.32412282
140	0x3e31cebe	0.17364022
141	0xbea0658a	-0.31327468
142	0x3e94c184	0.2905389
143	0x3ea6d139	0.325815
144	0xbd87b730	-0.06626737
145	0xbea035b0	-0.3129096
146	0x3e0b4e51	0.13604094
147	0xbeb275b6	-0.3485543
148	0xbdcc4dde	-0.099757895
149	0xbd2ebece	-0.042662434
150	0x3d016a1b	0.03159533
151	0xbe54cd44	-0.20781428
152	0x3eae6cbf	0.34067342
153	0x3e4a8e71	0.197809
154	0xbd265548	-0.040608674
155	0xbeaf1e03	-0.34202585
156	0x3e77c871	0.24197556
157	0xbe45536a	-0.19270101
158	0xbea225d1	-0.31669477
159	0x3e7b9b12	0.24570873
160	0x3e1193ac	0.14216489
161	0xbe455d58	-0.19273889
162	0xbeaa39e6	-0.33247298
163	0xbcb3398c	-0.021878026
164	0xbe44e74b	-0.19228856
165	0xbe350b79	-0.17680158
166	0x3e74c081	0.2390156
167	0x3e7cba3f	0.24680422

conv_ex.bias f4 [24]
0	0xbeb4756e	-0.35245842
1	0xbdfbae76	-0.12289135
2	0xbec05427	-0.37564203
3	0x3e2f4064	0.17114407
4	0x3d996a53	0.07490983
5	0x3ec2bc8d	0.38034478
6	0x3deb4b20	0.11488938
7	0x3d27c167	0.040955927
8	0x3eae77c1	0.3407574
9	0x3e8f8080	0.28027725
10	0xbe986a80	-0.29768753
11	0xbd0ed85c	-0.034874305
12	0xbde1dd7f	-0.11028575
13	0x3eab587a	0.3346594
14	0x3da07054	0.07833925
15	0xbe9c2ff6	-0.3050534
16	0x3e2b414e	0.1672413
17	0xbe5f16c0	-0.21786022
18	0x3e9325dc	0.28739822
19	0x3e45e484	0.19325453
20	0xbeba8f5f	-0.36437508
21	0xbe6eab4a	-0.23307529
22	0xbea9d67c	-0.3317145
23	0x3e867e5b	0.26268277

res_net1.conv1.0.weight f4 [24, 24, 1, 1, 7]
0	0x3d37c9ba	0.044870116
1	0x3e05be30	0.13060832
2	0xbe5cc5a9	-0.21559776
3	0x3e382c11	0.1798556
4	0xbbb2533c	-0.005442051
5	0xbd6af02f	-0.057357963
6	0xbc59ce1e	-0.013293771
7	0xbdba4ada	-0.09096308
8	0x3e560d09	0.2090341
9	0xbe08ae2f	-0.13347696
10	0x3da8fa8f	0.08250915
11	0x3c52a006	0.012855535
12	0xbd9dd330	-0.077062964
13	0x3d8c44a3	0.06849029
14	0xbe05b24e	-0.13056299
15	0x3d4c2002	0.049835213
16	0x39a521fd	0.00031496576
17	0x3e000c3d	0.12504669
18	0xbd0218e2	-0.03176201
19	0x3da6e1c4	0.0814853
20	0x3e5ece4e	0.21758386
21	0xbe62c6e9	-0.2214619
22	0x3d0663a0	0.032809854
23	0x3d1728ed	0.036904264
24	0x3df900fb	0.1215839
25	0xbbc08684	-0.0058754105
26	0xba111631	-0.0005534618
27	0x3df8ea2d	0.121540405
28	0x3d211ace	0.039332204
29	0xbdf55828	-0.11979705
30	0xbcd18986	-0.025578272
31	0x3d6f5c94	0.0584379
32	0x3e415ee6	0.18883857
33	0xbc2071a0	-0.009792715
34	0xbe3f239a	-0.18665925
35	0xbe0726e1	-0.13198425
36	0x3d3154f7	0.04329392
37	0xbcddf562	-0.027094547
38	0xbdce4ed7	-0.10073631
39	0x3ddd8871	0.1081704
40	0x3e845f3d	0.2585391
41	0x3d9af374	0.07565966
42	0xbde19ee5	-0.11016635
43	0xbe00d639	-0.1258172
44	0x3cd6f2e2	0.026238862
45	0x3d44ce6f	0.048048433
46	0xbd979c5a	-0.074028686
47	0xbd4bbb64	-0.049739257
48	0xbdd89a8b	-0.10576352
49	0xbd14bb88	-0.036311656
50	0xbe3e1e54	-0.18566257
51	0xbdce5be2	-0.10076119
52	0x3d04edb6	0.03245326
53	0x3be775ce	0.007063604
54	0x3dc10014	0.09423843
55	0xbdfbf361	-0.1230228
56	0x3e4617fc	0.19345087
57	0xbd0465e8	-0.032323748
58	0x3d33b35f	0.043872233
59	0x3c896978	0.016773924
60	0x3da9f84a	0.082993105
61	0xbcb76c4c	-0.022390507
62	0xbd737c77	-0.05944487
63	0xbe1fa44b	-0.15590017
64	0xbe0adcd5	-0.13560803
65	0x3d0b7654	0.034048393
66	0x3bce96d5	0.0063046017
67	0x3e257113	0.16156416
68	0x3e014129	0.12622513
69	0x3c1aa37a	0.00943839
70	0x3c3ff1c6	0.011715358
71	0x3e066d0a	0.13127533
72	0xbe6a2ae7	-0.22867928
73	0x3be28980	0.006913364
74	0x3dbc95a7	0.092082314
75	0x3da931df	0.08261465
76	0xbd43eefe	-0.047835343
77	0xbdd0504e	-0.10171567
78	0x3c9dbf07	0.019256128
79	0xbd255add	-0.040369857
80	0x3dd99b07	0.10625272
81	0xbd8646a2	-0.06556441
82	0x3e6edc45	0.23326214
83	0xbd0e600c	-0.034759566
84	0xbd24c38c	-0.04022555
85	0x3b696376	0.0035612262
86	0xbd6c54e2	-0.057698138
87	0x3bf25a23	0.007395999
88	0xbd9876da	-0.07444544
89	0xbd468ee1	-0.048476104
90	0x3e02136a	0.12702718
91	0x3c92bd39	0.017912494
92	0x3ddea4be	0.10871266
93	0x3db21140	0.086946964
94	0x3d335eab	0.043791454
95	0x3d46d879	0.04854629
96	0xbe04181f	-0.12899826
97	0x3e1a8648	0.15090287
98	0xbd605ac1	-0.05477405
99	0xbe1701e7	-0.1474682
100	0xbe1939ab	-0.14963405
101	0xbdca5fd4	-0.09881559
102	0xbde1389b	-0.10997125
103	0x3dabfff0	0.083984256
104	0x3d7f281f	0.06229412
105	0xba14c5d9	-0.00056752336
106	0x3d4077b7	0.04698917
107	0xbe4c8cbb	-0.1997556
108	0xbca05b6b	-0.019574841
109	0x3e1e19de	0.15439555
110	0x3d8ed336	0.06973879
111	0xbdc2db3b	-0.09514471
112	0xbe136c79	-0.14396848
113	0x3c92a8ef	0.01790282
114	0xbe81b6eb	-0.25334868
115	0x3e1a7b00	0.15085983
116	0xbccc3b68	-0.02493067
117	0x3c389eae	0.011268301
118	0x3dd5ae6e	0.104336604
119	0xbdbe4bba	-0.092917874
120	0x3e22761a	0.15865365
121	0xbe80d6a7	-0.25163767
122	0x3b9c050b	0.0047613434
123	0x3e53ee5d	0.20696397
124	0x3d9da6cd	0.0769783
125	0x3e4678eb	0.19382064
126	0xbcc9460c	-0.024569534
127	0x3df99217	0.121860676
128	0xbe64e331	-0.22352292
129	0x3d53cb9e	0.051707856
130	0x3d0b4209	0.033998523
131	0x3da06514	0.07831779
132	0xbe396eed	-0.18108721
133	0x3d4fe040	0.05075097
134	0xbdb5f43d	-0.088844754
135	0x3d89c757	0.06727474
136	0xbdffb008	-0.12484747
137	0xbc03a573	-0.008035052
138	0x3dc3b097	0.09555166
139	0xbd07d885	-0.033165473
140	0xbc937c8a	-0.01800372
141	0x3d84a44b	0.06476649
142	0xbdac7d03	-0.084222816
143	0x3d394f81	0.045241836
144	0x3d6672da	0.056261875
145	0x3df5ce4d	0.120022394
146	0x3bb64470	0.0055623576
147	0xbd496784	-0.049170986
148	0x3c692af2	0.01423143
149	0x3c10fc1a	0.008849168
150	0xbdcdc565	-0.10047416
151	0x3cc07f3b	0.023498168
152	0xbe033590	-0.12813401
153	0x3d823c3b	0.06359144
154	0xbe12534f	-0.14289592
155	0x3dce4611	0.10071958
156	0x3d8636a1	0.065533884
157	0x3d2e7959	0.042596195
158	0xbd6c2984	-0.05765678
159	0xbc5b86f3	-0.013398874
160	0xbd41fc5e	-0.047359817
161	0x3c5595ab	0.013036172
162	0x3d43a5c7	0.04776552
163	0x3d4ddd05	0.05025961
164	0x3d1e207b	0.038605195
165	0xbe5ab5d8	-0.2135843
166	0x3ded3bf9	0.115837045
167	0x3dc4ed5a	0.09615584
168	0x3d47e586	0.048802875
169	0xbd8e33ce	-0.06943475
170	0xbd1cdf1e	-0.03829872
171	0x3ca83642	0.020533685
172	0x3b1ccc91	0.0023925642
173	0x3e23659a	0.15956727
174	0xbda8b78b	-0.08238133
175	0x3c96ef46	0.018424641
176	0xbc524438	-0.012833647
177	0xbdb28780	-0.08717251
178	0x3dd390bb	0.103303395
179	0x3cb98984	0.02264858
180	0x3e0a1f0f	0.1348841
181	0xbd562a95	-0.052286703
182	0x3d2e10d8	0.042496532
183	0x3e2d5c33	0.16929702
184	0xbcfc0bdc	-0.030767374
185	0x3dc64446	0.09680991
186	0xbd23f5d9	-0.04002938
187	0xbaf12c11	-0.0018399974
188	0xbdf99cc4	-0.12188104
189	0xbe6795f2	-0.22615793
190	0x3da31f5c	0.07964966
191	0xbd9ca571	-0.07648743
192	0x3e382edd	0.17986627
193	0xbc450f90	-0.012027636
194	0x3e46e0ca	0.19421688
195	0x3df491ef	0.11941897
196	0x3d77b6f0	0.060477197
197	0x3cc56b3f	0.02409899
198	0xbd9320cb	-0.07183989
199	0x3d8e0b5f	0.069357626
200	0x3b2d60cf	0.0026455407
201	0x3de25573	0.110514544
202	0xbdfd401b	-0.12365743
203	0xbea0e0d5	-0.31421533
204	0x3da8c49e	0.08240627
205	0xbd31f98d	-0.04345088
206	0xbd5826e2	-0.052771457
207	0x3dd430dc	0.10360882
208	0x3c18514a	0.009296725
209	0x3dd68d34	0.10476151
210	0xbc9a6ad7	-0.018849773
211	0x3d3246e9	0.043524656
212	0x3d9ab7d1	0.075545914
213	0xbdfe5747	-0.124189906
214	0x3c020f56	0.007938227
215	0x3d944925	0.07240514
216	0xbc456687	-0.01204837
217	0x3e16aa07	0.14713298
218	0x3ddbf8a0	0.10740781
219	0x3da9ba32	0.08287467
220	0xbdc4797a	-0.09593482
221	0x3e166813	0.14688139
222	0xbe1f6687	-0.15566455
223	0xbd636bee	-0.05552285
224	0xb911c9ba	-0.00013903427
225	0x3d36c973	0.04462571
226	0xbe07acb9	-0.13249482
227	0xbc5970a0	-0.013271481
228	0x3dd3d140	0.10342646
229	0x3bdb87c3	0.0066995337
230	0x3d6b92a1	0.057512883
231	0xbf0e5582	-0.55599225
232	0x3d01d792	0.031699724
233	0xbe6becb3	-0.23039512
234	0x3dc749a4	0.09730843
235	0x3cdb1efd	0.026748175
236	0x3e504cce	0.20341799
237	0x3d3123cf	0.04324704
238	0x3e2d5415	0.16926606
239	0x3bc0f517	0.005888592
240	0xbd38f591	-0.045156065
241	0x3d084fc6	0.033279203
242	0x3caa460c	0.020785354
243	0x3ded7a72	0.1159562
244	0xbc3a18b6	-0.011358431
245	0x3d401bc5	0.046901483
246	0xbdcb9a5e	-0.099415526
247	0x3d0bc218	0.03412065
248	0xbdc9efd6	-0.09860198
249	0xbcb2b928	-0.021816805
250	0xbe518ca0	-0.204638
251	0xbdb09484	-0.08622077
252	0x3d9443c1	0.072394855
253	0xbdb06311	-0.086126454
254	0xbe57d748	-0.21078217
255	0x3e19683f	0.14981173

res_net1.conv1.0.bias f4 [24]
0	0x3e29a5cb	0.16567151
1	0x3bb58284	0.0055392403
2	0x3cc23537	0.023707015
3	0x3b8ad23e	0.0042364886
4	0x3c952605	0.018206606
5	0x3e463df5	0.19359572
6	0xbd1b1868	-0.037865072
7	0x3dc703fe	0.09717558
8	0xbd3f6515	-0.04672726
9	0xbdd4f925	-0.10399083
10	0x3d35e605	0.044408817
11	0xbe227eaa	-0.15868631
12	0x3d92e24b	0.07172068
13	0xbdb93bd0	-0.090446115
14	0x3d56b5ff	0.05241966
15	0xbcc31049	-0.023811476
16	0x3d6a1ad4	0.05715449
17	0xbdb69611	-0.08915342
18	0x3c0048cc	0.007829856
19	0x3c94db65	0.018171022
20	0xbd16497a	-0.036691166
21	0xbd0a1f82	-0.033721454
22	0xbc9acac2	-0.01889551
23	0x3d91134e	0.0708376

res_net1.conv2.weight f4 [24, 24, 1, 1, 7]
0	0x3e039fed	0.12853976
1	0x3b743185	0.0037260961
2	0xbd82c5e3	-0.063854
3	0x3d8c8fca	0.06863363
4	0xbe2f3bb5	-0.1711262
5	0x3d00e4c4	0.031468168
6	0x3e1df653	0.15425996
7	0x3ceaf5d6	0.028681677
8	0x3df85be3	0.12126901
9	0x3b2a71cf	0.0026007777
10	0x37d765f2	2.567747e-05
11	0xbd68e068	-0.056854635
12	0x3b979182	0.0046255
13	0xbcbdc619	-0.02316575
14	0x3e2257c8	0.15853798
15	0x3d26b6b7	0.040701594
16	0x3db08597	0.0861923
17	0x3c162f10	0.009166494
18	0xbd8799a7	-0.06621104
19	0xbdb88cd5	-0.090112366
20	0xbd9c44b6	-0.07630293
21	0x3d02686d	0.03183787
22	0x3d9afd73	0.07567873
23	0xbd30b522	-0.04314149
24	0x3d05ea90	0.0326944
25	0xbe141db3	-0.14464454
26	0x3d0a975d	0.033835758
27	0xbe6129c2	-0.21988586
28	0x3c2f2086	0.010688907
29	0xbdf3ca97	-0.11903875
30	0x3de7ebef	0.11324298
31	0x3e0556cd	0.13021393
32	0x3c60db38	0.013724141
33	0xbd0ede05	-0.034879703
34	0xbe00af22	-0.12566808
35	0xbd5690ee	-0.05238431
36	0x3c572b59	0.0131328935
37	0x3de49e2b	0.11162981
38	0x3e46154b	0.1934406
39	0x3d968834	0.073501974
40	0xbdf15cda	-0.11785288
41	0xbcf2f4be	-0.029657718
42	0x3e5caaf0	0.21549582
43	0x3e4a056a	0.19728628
44	0x3d5992ef	0.053118642
45	0x3e210120	0.15723085
46	0xbcc1ad87	-0.023642315
47	0xbd4e29fa	-0.050333
48	0x3d9dcc13	0.0770494
49	0x3e23e234	0.16004258
50	0x3d242e81	0.040083412
51	0x3da175fa	0.0788383
52	0xbd16e862	-0.03684271
53	0xbd5d537e	-0.054034702
54	0xbd335b43	-0.043788206
55	0x3d882b7b	0.06648918
56	0x3e391e8e	0.18078062
57	0x3e35ab1e	0.17741057
58	0xbe0221c9	-0.127082
59	0x3dad2ab6	0.08455412
60	0xbd9d621c	-0.076847285
61	0x3e0ed026	0.1394659
62	0xbda32320	-0.07965684
63	0xbd4b8ad2	-0.049692936
64	0xbd2a8443	-0.04163004
65	0xbdcb99ae	-0.099414214
66	0x3e812a92	0.2522779
67	0xbdb28580	-0.08716869
68	0x3e3b0364	0.18263012
69	0xbdae27bb	-0.08503672
70	0xbd06f547	-0.03294876
71	0x3c79b8ef	0.0152418455
72	0x3cabc57a	0.020968188
73	0x3d8624ba	0.06549974
74	0xbdadbfe0	-0.08483863
75	0x3e133e64	0.14379269
76	0x3d6d3e88	0.057920963
77	0x3e75f15c	0.24017853
78	0x3cc68d3d	0.02423727
79	0x3dd127cf	0.10212671
80	0xbd47b7e9	-0.048759375
81	0x3e019110	0.12652993
82	0x3b39de56	0.0028361282
83	0x3cbbbc84	0.02291704
84	0x3e00a40d	0.1256258
85	0xbe42fabe	-0.19040963
86	0xbc8044f2	-0.015657876
87	0x3dbe444e	0.09290372
88	0xbce1b4d7	-0.027552051
89	0x3e513982	0.20432094
90	0xbe086cc9	-0.13322748
91	0xbd0bb0d6	-0.03410419
92	0xbd4812a5	-0.048845906
93	0x3e335c18	0.175156
94	0x3df29671	0.11845101
95	0x3e1c7fd7	0.15283142
96	0x3c87c8dd	0.016575271
97	0x3db2a531	0.08722914
98	0x3d9205fa	0.07130046
99	0x3dd8e3d1	0.105903275
100	0x3dee20cc	0.11627349
101	0x3e12029e	0.14258811
102	0xbe19e6d6	-0.15029463
103	0x3df862ec	0.12128243
104	0xbda73a05	-0.08165363
105	0x3e335e45	0.1751643
106	0x3d5442e8	0.05182162
107	0xbba180c6	-0.004928681
108	0x3d010da0	0.031507134
109	0x3d70fcbe	0.058834784
110	0xbca41ba1	-0.020032706
111	0x3b86890d	0.004105693
112	0x3d8ff49d	0.07029078
113	0x3e45b520	0.19307375
114	0xbd29a4d5	-0.04141696
115	0x3e36a1b1	0.17835118
116	0xbe3c08dc	-0.18362755
117	0x3c3cd1e6	0.011524653
118	0x3dd12537	0.10212176
119	0x3e194c17	0.14970432
120	0x3dec4fd4	0.115386635
121	0x3d941d75	0.07232181
122	0xbcaf4374	-0.021394469
123	0x3e32b0f9	0.17450322
124	0xbd42ead9	-0.04758725
125	0x3d8172b9	0.0632071
126	0x3b781060	0.0037851557
127	0xbd8a9b39	-0.067678876
128	0x3e0ea8ef	0.1393163
129	0xbd2ed67b	-0.042685013
130	0x3dc1f2c8	0.09470135
131	0xbdfcf766	-0.12351875
132	0xbe2489f1	-0.16068245
133	0x3eaefd91	0.3417783
134	0xbcfb4552	-0.030672703
135	0x3e4f742f	0.20259164
136	0xbd98a8bb	-0.07454058
137	0x3de5f411	0.112281926
138	0xbd3cef8b	-0.046126883
139	0x3da8eee7	0.08248692
140	0x3da80ead	0.08205924
141	0xbdd3f753	-0.10349908
142	0x3d01dfcd	0.031707574
143	0x3d9e23e1	0.07721687
144	0xbda9dc3c	-0.082939595
145	0xbd5853c3	-0.052814256
146	0xbca7e43f	-0.020494578
147	0xbc92c5d4	-0.017916597
148	0xbd78cce5	-0.060742278
149	0x3d1a8a82	0.037729748
150	0xbc9fb9e0	-0.019497812
151	0x3e90974d	0.28240433
152	0x3c254f3e	0.010089694
153	0xbce10961	-0.027470293
154	0xbda35527	-0.07975226
155	0xbd4ff7f2	-0.05077357
156	0xbddaa145	-0.10675291
157	0xbde65fa9	-0.112487145
158	0xbd9dfca3	-0.07714202
159	0xbe16e710	-0.14736581
160	0x3d89387a	0.06700225
161	0x3e258b02	0.16166309
162	0x3e1c3505	0.152546
163	0x3d2146f4	0.039374307
164	0xbc7336f1	-0.014844642
165	0x3d58481d	0.052803148
166	0xbd368fc9	-0.044570718
167	0xbdfb66c7	-0.122754626
168	0x3e45a2c7	0.19300376
169	0xba152456	-0.00056893134
170	0xbdccc2c8	-0.09998089
171	0xbc1bb713	-0.0095040975
172	0xbdf80acf	-0.121114366
173	0x3ddd9e85	0.10821251
174	0xbd9f1b3e	-0.07768868
175	0xbe35af43	-0.17742638
176	0x3cfb9689	0.03071143
177	0xbde7b5c8	-0.11313969
178	0xbd3a0fa9	-0.04542509
179	0xbda59165	-0.080843724
180	0xbc7d4ec8	-0.015460677
181	0xbe25dd06	-0.16197595
182	0xbbee48b3	-0.00727185
183	0x3d8d09c9	0.06886632
184	0xbe219e71	-0.15783097
185	0x3d1935d1	0.03740484
186	0xbe5439f2	-0.2072523
187	0x3d7838ec	0.06060116
188	0xbdec7994	-0.11546627
189	0x3d52f5f8	0.051504105
190	0x3d46ef53	0.04856808
191	0x3dadcdc5	0.08486513
192	0x3da1b3ba	0.07895608
193	0x3d2255a6	0.039632462
194	0x3e4dd534	0.20100862
195	0x3dfeb83a	0.12437482
196	0x3d9599eb	0.07304748
197	0xbe39f3b7	-0.18159376
198	0x3e21839a	0.15772858
199	0xbdb70ddb	-0.089381896
200	0x3d42ee20	0.047590375
201	0xbd4d2d87	-0.050092246
202	0xbddbf589	-0.107401915
203	0x3d2bf2d4	0.041979626
204	0x3dcafc34	0.09911385
205	0xbe1b62e7	-0.15174447
206	0xbc8315b8	-0.016001567
207	0xbc6f0b81	-0.014590145
208	0xbe349feb	-0.17639129
209	0xbc21d3a6	-0.009877121
210	0x3dba1c7d	0.09087465
211	0xbcfe7abf	-0.03106439
212	0x3e040411	0.12892176
213	0xbdba57ea	-0.090987995
214	0xbe1a14f7	-0.1504706
215	0x3c9351ee	0.017983403
216	0xbe062aec	-0.13102311
217	0x3e27f60b	0.16402452
218	0x3dfaae25	0.12240247
219	0xbdf92359	-0.12164945
220	0xbde3c138	-0.11120838
221	0x3da4497b	0.08021828
222	0x3d317360	0.04332292
223	0xbd6a8760	-0.05725801
224	0x3e1111d0	0.14166951
225	0xbe7095cf	-0.23494647
226	0xbe01bd0a	-0.12669769
227	0x3d34008a	0.043945827
228	0xbbfc0f8b	-0.0076922826
229	0xbb5e3c0a	-0.0033910298
230	0xbc87dff1	-0.016586276
231	0xbdbf5386	-0.09342103
232	0x3d282231	0.041048232
233	0x3d1b6016	0.03793343
234	0xbc50ae65	-0.012736891
235	0x3dea8a19	0.11452121
236	0xbdfdec67	-0.12398606
237	0xbbd245f7	-0.006417032
238	0x3ce14cc8	0.027502432
239	0xbc2cddce	-0.010550929
240	0xbdb12ebb	-0.08651491
241	0xbc0aabf9	-0.008463853
242	0xbd848f20	-0.064726114
243	0xbe06d1ce	-0.13165972
244	0x3d3a96b0	0.045553863
245	0xbd516821	-0.051124696
246	0x3d8ed233	0.06973686
247	0x3c2ed615	0.010671158
248	0x3cdfec0b	0.027334234
249	0x3ca70c5f	0.020391641
250	0xbbf77da4	-0.0075528193
251	0xbd311da6	-0.043241166
252	0xbd2188c8	-0.039437085
253	0x3e1cfb94	0.15330344
254	0xbd5e750e	-0.05431085
255	0xbe21cc55	-0.15800603

res_net1.conv2.bias f4 [24]
0	0xbd81a0e3	-0.06329515
1	0xbc36d31f	-0.011158734
2	0x3cc3286a	0.023822982
3	0xbd9f6b66	-0.077841565
4	0xbd911803	-0.07084658
5	0xbd9214ae	-0.071328506
6	0x3d7dbabe	0.06194567
7	0x3cbb6124	0.022873469
8	0xbbf4edac	-0.0074746218
9	0xbd8c68d6	-0.06855933
10	0x3c31785c	0.010831919
11	0x3d5a0d36	0.053235255
12	0x3d5aaec4	0.053389326
13	0x3d1448bc	0.036202177
14	0x3d27a7e7	0.04093161
15	0x3a721069	0.00092340127
16	0x3d3c01d9	0.0459002
17	0xbd81790d	-0.06321917
18	0xbc2b294a	-0.010446856
19	0x3d4802e7	0.048830893
20	0x3d58dfb7	0.052947726
21	0xbd7ce231	-0.06173915
22	0x3ba27f84	0.0049590487
23	0x3d25830b	0.040408175

res_net1.bn1.weight f4 [24]
0	0x3f55a857	0.8345999
1	0x3f81ccca	1.0140622
2	0x3f9bd1d2	1.2173407
3	0x3f7ac03e	0.9794959
4	0x3f882f0d	1.0639359
5	0x3f53a55a	0.8267418
6	0x3f790cb6	0.9728502
7	0x3f73e5b9	0.95272404
8	0x3f71ae8f	0.9440698
9	0x3f6a37c9	0.9149137
10	0x3f848c1d	1.0355259
11	0x3f703d4c	0.9384353
12	0x3f8f4341	1.1192399
13	0x3f889a95	1.0672175
14	0x3f8a1cdb	1.0790056
15	0x3f7dfd15	0.992143
16	0x3f85238c	1.0401473
17	0x3f37b1a3	0.7175543
18	0x3f7bc6ee	0.9835042
19	0x3f965f17	1.1747769
20	0x3f65f62a	0.8982874
21	0x3f79fdb7	0.97652763
22	0x3f5da04a	0.86572707
23	0x3f939170	1.1528759

res_net1.bn1.bias f4 [24]
0	0xb9382175	-0.00017560071
1	0xbd12a906	-0.035805725
2	0x3e606272	0.21912554
3	0xbcb44855	-0.022007147
4	0x3c198b54	0.009371597
5	0xbd0e3912	-0.034722395
6	0xbda081b0	-0.07837236
7	0x3ca3eed5	0.020011345
8	0x3c9ab376	0.018884402
9	0xbe19efb6	-0.15032849
10	0xbd78d84e	-0.06075316
11	0xbd3491bc	-0.044084296
12	0x3e060f9c	0.13091892
13	0x3c1f622c	0.009727996
14	0xbc2aa7b7	-0.010415963
15	0xbbf0a584	-0.0073439498
16	0x3c045b7e	0.008078454
17	0xbe7c38db	-0.24631064
18	0xbd8f056c	-0.06983456
19	0x3de03b5e	0.109488234
20	0x3d08f356	0.03343519
21	0xbd329fa2	-0.04360927
22	0xbe036a1e	-0.12833449
23	0x3e08979b	0.13339083

res_net1.bn1.running_mean f4 [24]
0	0x3ee178b6	0.44037408
1	0x3de43121	0.11142183
2	0x3cbc71cf	0.023003487
3	0x3da218a5	0.07914857
4	0x3dbb96d9	0.09159631
5	0x3e8257c1	0.25457576
6	0x3e3a08e6	0.18167457
7	0x3c7d99a9	0.01547853
8	0x3d795689	0.060873542
9	0x3d894a23	0.067035936
10	0x3e3e00d0	0.18554997
11	0x3f63200b	0.8872077
12	0x3e4bc83d	0.19900604
13	0x3dd5d641	0.10441256
14	0x3d872fb7	0.06600898
15	0x3cfd7ed6	0.03094427
16	0x3e000797	0.12502895
17	0x3e4a57e8	0.19760096
18	0x3d9bad76	0.076014444
19	0x3df24b29	0.11830742
20	0x3d130bdf	0.035899993
21	0x3e4b0d6b	0.19829337
22	0x3d624100	0.05523777
23	0x3d4d503c	0.050125346

res_net1.bn1.running_var f4 [24]
0	0x3e88f20c	0.26747167
1	0x3d9aa2d3	0.075505875
2	0x3c50765e	0.012723533
3	0x3d4738ff	0.04863834
4	0x3d44cadb	0.04804502
5	0x3e0be611	0.13661982
6	0x3e26441e	0.16236922
7	0x3c048135	0.008087446
8	0x3cffe44c	0.03123679
9	0x3d1bd313	0.038043093
10	0x3de0d567	0.10978203
11	0x3efb32c9	0.49062183
12	0x3db014f6	0.08597748
13	0x3d8fedda	0.070277885
14	0x3cff5717	0.031169457
15	0x3c6d3336	0.014477542
16	0x3d99bc0f	0.075065725
17	0x3e236429	0.15956177
18	0x3d4e2704	0.050330177
19	0x3da0daaa	0.07854207
20	0x3c88b2ca	0.016686816
21	0x3dd9fb21	0.10643602
22	0x3d42b362	0.047534354
23	0x3cd069bd	0.025441045

res_net1.bn2.weight f4 [24]
0	0x3f492f76	0.78588045
1	0x3f39f39d	0.7263735
2	0x3f50d993	0.8158199
3	0x3f5858bc	0.845104
4	0x3f643302	0.8914033
5	0x3f4e4f36	0.80589616
6	0x3f49fd04	0.78901696
7	0x3f561d0e	0.83638084
8	0x3f762755	0.96153766
9	0x3f43e5c1	0.7652245
10	0x3f43cc87	0.7648396
11	0x3f50f08f	0.81617063
12	0x3f2f6767	0.68517154
13	0x3f323606	0.69613683
14	0x3f2ad6cf	0.6673402
15	0x3f3c6a16	0.73599374
16	0x3f4ac523	0.79207057
17	0x3f53253b	0.82478684
18	0x3f487b8e	0.7831353
19	0x3f6a4db8	0.9152484
20	0x3f58bcdd	0.8466318
21	0x3f46a07a	0.7758862
22	0x3f3357df	0.70055956
23	0x3f405258	0.75125647

res_net1.bn2.bias f4 [24]
0	0x3ddd68b6	0.10810988
1	0x3d4ebd67	0.050473597
2	0x3d5f97b5	0.05458804
3	0x3d3e6770	0.046485364
4	0x3e27d49b	0.16389696
5	0x3e422c2c	0.18962163
6	0x3dfe4120	0.12414765
7	0xbcf5c0a0	-0.029999077
8	0x3e489d9e	0.19591376
9	0x3c8cfcaf	0.017210333
10	0x3e0bc0b0	0.13647723
11	0x3e54e399	0.20789947
12	0x3e029371	0.12751557
13	0x3e31d4c5	0.17366321
14	0x3e6bc828	0.23025572
15	0x3e5b246e	0.21400616
16	0x3e506c01	0.203537
17	0x3e045a72	0.12925127
18	0x3c4d46ad	0.012529057
19	0x3dd230dd	0.10263226
20	0x3deeccd8	0.116601646
21	0x3e2dad1c	0.16960567
22	0x3d0f8148	0.0350354
23	0x3e025bfd	0.12730403

res_net1.bn2.running_mean f4 [24]
0	0x3f4f220c	0.80911326
1	0xbf0a490a	-0.540177
2	0xbe14314d	-0.14471932
3	0xbf4fdcac	-0.81196094
4	0x3fa30f6e	1.2739084
5	0x3f35db8c	0.71038127
6	0xbdb74229	-0.08948166
7	0xbebecafc	-0.3726424
8	0xbeca43cb	-0.39504847
9	0x3f2afeee	0.6679524
10	0xbf81a477	-1.0128316
11	0xbf5807e7	-0.8438706
12	0x3ef7e29a	0.4841507
13	0x3e8930ff	0.26795194
14	0xbe7f76c8	-0.24947655
15	0x3e20be04	0.15697485
16	0x3f1008b5	0.56263286
17	0xbf3fef35	-0.74974376
18	0xbc2f5469	-0.010701277
19	0x3e50eaed	0.20402117
20	0x3ed2353b	0.41056237
21	0xbda926ce	-0.082593545
22	0xbf495f3a	-0.7866093
23	0x3f2e5d13	0.6811077

res_net1.bn2.running_var f4 [24]
0	0x400ec987	2.2310503
1	0x3ff4ab18	1.9114714
2	0x3feca706	1.8488472
3	0x3feeccc0	1.8656235
4	0x3fd528da	1.6653092
5	0x3f9e45a0	1.2364998
6	0x3fe634f6	1.7984912
7	0x3fda74df	1.7066916
8	0x3fc9151a	1.5709565
9	0x40072fa7	2.1122835
10	0x3fd44043	1.6582111
11	0x3fed812f	1.8555049
12	0x400e1f97	2.220678
13	0x3fcce5f8	1.6007681
14	0x3fd59920	1.6687355
15	0x3fb02584	1.3761449
16	0x3fd1574a	1.6354764
17	0x4012778e	2.288547
18	0x40145de2	2.3182302
19	0x3fce84aa	1.6134236
20	0x4003777f	2.0541685
21	0x3fb5541f	1.4166297
22	0x40198315	2.3986256
23	0x3fa23869	1.2673465

res_net1.ecalayer.conv.weight f4 [1, 1, 3, 3]
0	0x3e8ffb0b	0.28121218
1	0xbe8e395f	-0.27778146
2	0xbc489760	-0.012243122
3	0xbe0ab742	-0.1354647
4	0xbe46507b	-0.19366638
5	0xbdacacab	-0.08431371
6	0xbd897dfc	-0.06713483
7	0x3e3812a2	0.17975858
8	0xbe02b990	-0.12766099
