A2S2KResNet/models/S3KAIResNetpatch_7_UP_split_0.9_lr_0.001adam_kernel_240.999.pt (torch, 932172 bytes, 94 tensors)

conv1x1.weight f4 [24, 1, 1, 1, 7]
00000000: 2fc6 b33e 3ba5 253e 9bce f1bc 1cf8 d63c
00000010: 2b4f 97bb be06 84bd 3ea2 c33d aa8d 75be
00000020: e6e8 123e 9918 2bbe 5ee9 e43d 9736 1bbd
00000030: a315 aabe 8e38 1c3d 855b b93e 858d 183e
00000040: 68c1 503e f138 95be 4a94 5abe 1208 4dbe
00000050: b138 353e 9862 4bbc 2f5a 963e bc8d a2bd
00000060: 2a0c a3be c65e 8a3e 71eb 873e 93a2 abbe
00000070: 6e53 1d3e e6c9 eb3e 73b4 433e a0c6 3cba
00000080: 1109 6dbe 9728 b3b9 f573 28be 3b28 053d
00000090: 3f44 2abe 1ecb 4dbe 489e 363e 842c 293e
000000a0: 4a3d ff3d 55c8 713c d292 5b3d 596f 5abe
000000b0: 0505 013f d24a b3be 7c5d 84be d77c fd3d
000000c0: 5f6f 5b3e 2180 f8bc 9aa2 85bc 57b7 60bc
000000d0: ad9c 63be a863 e03c 9447 a43e 587b 8ebe
000000e0: 4675 0dbe e032 48be a280 9a3e b170 603e
000000f0: dc2c 1dbe 03e4 9abe 6b19 c13e f44e f8be
00000100: c7ee 83bc e741 80bd 2aaa 1bbe e310 13bd
00000110: ad65 133e 42d2 15be 568f 01bf 8d27 843e
00000120: c480 2cbe bdcb e53d 94aa 2bbe 6be7 71be
00000130: 38ac 703e df57 e3be 2a30 b4bd 279f 2c3e
00000140: 9cf4 733e d601 903e 80ea 9f3e b69c 78bd
00000150: 4808 943c 4990 78bd 6524 20be 8226 a53e
00000160: cefc 58be 06a4 863d f276 b03e 52f6 75be
00000170: 9012 4bbe 3750 8a3e b0e4 973e 142e 72bb
00000180: 070a 90bc e9ed aebd 7fd2 583e 9380 92be
00000190: ea88 083e 1b4b 05be 1971 243d 7032 95be
000001a0: 0f3b cfbe 0a57 863d 257a 503d b1e8 523e
000001b0: 1c5f 9d3e c969 353e 2755 c63e 2998 a7be
000001c0: 0767 fabe eddb 4cbb 6244 2abe d125 2b3e
000001d0: 75f2 1ebd 6970 32be 49ab 0dbd 9632 2abe
000001e0: b01b 0b3e 3b0f b0bd 700f 833e f7f6 8e3e
000001f0: 5fcd 5dbe cfd0 6f3d b3e6 a6be ff5f 61be
00000200: 8be7 bcbb 712f 783e 1d0b ad3e 8626 a9be
00000210: 6cc0 88bc d1b8 bfbe f5b0 bc3e 73bb a83e
00000220: a360 253e 2a4a 6abc e9e1 7ebe 4220 d73e
00000230: 1ef2 683e 9475 a83c 1b03 253d b662 d03e
00000240: 4e4f c43e ca9f 48be c751 8cbe 86be f03d
00000250: f064 cfbd c893 4cbe 1068 d63e 2417 6bbd
00000260: ffa7 973e 6b10 d63d d84e 063e 707d c9bd
00000270: bca7 c63e 2fdd a73c 9965 37be 9f84 4cbe
00000280: df7c c33e 0fe2 66be 9358 8b3d c36b d53e
00000290: 1690 53bd ecd7 993d 92a1 693e 44e9 683d
0.3511214 0.16176312 -0.029517462 0.026241355 -0.004617592 -0.064465985 0.095524296 -0.23979822
0.14346656 -0.16708602 0.11177324 -0.037893858 -0.33219633 0.038139872 0.36202636 0.14897735
0.20386279 -0.29145005 -0.2134563 -0.2002261 0.17697407 -0.012413643 0.2936568 -0.0793719
-0.31845218 0.2702543 0.26546815 -0.33522472 0.15363857 0.46052474 0.19111805 -0.0007201228
-0.2314799 -0.00034171782 -0.16450484 0.03250907 -0.16627596 -0.20097014 0.17833817 0.16520888
0.12462862 0.014757236 0.053606816 -0.21331538 0.50398284 -0.3501802 -0.25852573 0.12377327
0.21429203 -0.030334534 -0.016312886 -0.013715587 -0.22227736 0.02739127 0.3208586 -0.2782848
-0.13814268 -0.19550657 0.30176264 0.21917988 -0.15349144 -0.30252084 0.37714705 -0.48497736
-0.016105069 -0.0626257 -0.15201631 -0.035904776 0.14394255 -0.14630988 -0.5060934 0.25811425
-0.16845995 0.112205006 -0.16764289 -0.23623435 0.23503196 -0.44402978 -0.08798249 0.16857587
0.2382378 0.281264 0.31233597 -0.060696326 0.018070355 -0.060684476 -0.15638883 0.32255942
-0.21190187 0.06574254 0.34465748 -0.24019745 -0.198313 0.27014324 0.29666662 -0.0036953734
-0.017582906 -0.085414715 0.21174048 -0.2861372 0.13333479 -0.13016932 0.04014692 -0.29140043
-0.40474746 0.0655957 0.050897736 0.20596577 0.30736625 0.17716135 0.3873684 -0.32733276
-0.4890673 -0.0031259016 -0.16627648 0.16713645 -0.038805444 -0.17425694 -0.03458718 -0.1662086
0.1358478 -0.08596655 0.25597715 0.27922794 -0.21660374 0.058548745 -0.32597885 -0.22009276
-0.0057649068 0.24236847 0.3379754 -0.33037204 -0.016693316 -0.3744569 0.36853758 0.32955512
0.16150145 -0.014299909 -0.24890865 0.42016798 0.2274861 0.020563878 0.040286165 0.4070031
0.38341755 -0.19592205 -0.2740614 0.117550895 -0.10126674 -0.19978249 0.41876268 -0.057395115
0.29620358 0.1045235 0.13116014 -0.098383784 0.38799846 0.02049121 -0.1790985 -0.19972466
0.38181207 -0.22547172 0.068040036 0.41683778 -0.051651083 0.07511887 0.2281554 0.056863084

conv1x1.bias f4 [24]
00000000: 8cf3 1bbe 2d60 9abe c609 50be ea86 39be
00000010: ed5c c6bd 2bc1 2a3e f96f eabd bac1 a83e
00000020: d197 883c c504 92be fed1 04bd c179 0bbe
00000030: 032c b2be 8cfd 6fbb 11f5 1bbe d512 c63e
00000040: 1a03 29be 0421 52be 19fd 023e 0cd1 84be
00000050: 1a13 ca3d 83ee a93e b0a1 253d 32dc 193e
-0.15229625 -0.301515 -0.20316228 -0.18117872 -0.09685693 0.1667525 -0.11447138 0.32960302
0.016673954 -0.28519264 -0.032426827 -0.13620664 -0.34799203 -0.0036619632 -0.15230204 0.38686243
-0.1650509 -0.20520407 0.12791862 -0.2594074 0.098669246 0.33189783 0.0404374 0.15025404

conv3x3.weight f4 [24, 1, 3, 3, 7]
00000000: a8f6 8a3d f720 883d 7ba5 123c 7115 f9bc
00000010: 9dc8 a7bb 67ff 88bd 6da7 a23d ce42 393e
00000020: a828 8e3c 5f49 44bd 58cf 09ba 6caa aebd
00000030: f29b 10be 2073 24bd 5af1 823e 8b5a 393e
00000040: 18b1 713d 02a5 1abd 23c8 c33c 1771 c03c
00000050: 1adb 3fbe 9b3f 883e 1269 ae3b d827 26bd
00000060: 110f 16be 26d7 923d c284 923d 555a 433d
00000070: fa05 443e 80ba 413d f225 61bd 6cb4 91bd
00000080: 68d6 be3c 8d49 a3bc e942 9a3c 8c9e 6c3e
00000090: 2ca8 1b3d 9333 93bd 65b3 d63c fa65 6abc
000000a0: 8a7e 97bd b1dc e3bd 30b2 363e c87a bc3d
000000b0: 7b07 e13c 0eee e83c 0e72 89bc a7d0 f8bc
000000c0: 9560 6d3d 9e5a 773e 3a8a 793c b928 ebbc
000000d0: 070c 20bd 8f48 5bbd c75f 04be 437e 31bd
000000e0: 03eb 6b3e 3cf8 083e d87d 88bd 9800 453c
000000f0: a819 e1bc f3cb 70bd 68e0 823d f9bf 9abb
00000100: 60a8 7ebd 6a40 b8bd 84a8 3f3e 6606 f6bd
00000110: e857 d0bd 06e7 0a3e 6514 cc3d 9329 4c3e
00000120: addf e4bd 316b c63d 3938 1f3c 3cad 55be
00000130: aad0 a4bc a4c5 783d 14cc bf3d 4e50 f43d
00000140: 17d5 b8bd f561 1b3e 3154 0a3e 1957 f1bd
00000150: b648 2d3e dc30 c43d 62ed d8bd 772e 16be
00000160: 73a9 d53d 80c5 05be c712 aa3d e89c e03d
00000170: 5dfe babc 1f9f 37bd b514 b7bc a8cf 19be
00000180: ce62 5abd 2dfb 1bbc 01ee d5bd 2f7b 7d3d
00000190: bdb9 673d f902 173e 9cec 453c 8124 f9bd
000001a0: af55 62bd 3e2b be3c a77a 2abd 71dc 15be
000001b0: 2ad3 e3bc 8d1e d2bd a35e e9bd 5c83 a8bd
000001c0: a229 13be bc90 213e e86d 893c 900e 84bd
000001d0: a802 5cbc 5fb1 fdbd e92e 92bd 1202 3e3d
000001e0: 2463 fc3b 47ed d33d 3c80 053d 54b5 1cbd
000001f0: 93b5 503d a83e 143d 92dc 58bd 3554 2fbe
00000200: 5adc 3a3e 19b5 cabd fa67 e2bd ec70 b13b
00000210: 240c 4e3c d5cb ddbd bb3e 053e 3e1d 763e
00000220: 20d1 393c 288c c8bd 98c1 01be 27ce 023e
00000230: 2eca 943c d94f ca3d 4de8 b63d 16eb ee3c
00000240: 6726 8ebd 71d2 b43c 056f 293e e9e3 0b3d
00000250: 2a67 f23c 1d29 1b3e 1233 a63d 462b 47bd
00000260: f073 59bd 313c 5f3c 61b2 64bd 5e6c 733d
00000270: 3d52 283e f2c3 473d cc74 c4bd 112a 1c3d
00000280: e253 6ebd 741a fa3c 0ff6 2bbd 5b0b ba3c
00000290: 833d e03d 4c09 5cbd 3613 b1bd 04fe 0a3d
000002a0: 0746 1bbe 89d9 c13d 9f4e 003e 7540 033e
000002b0: 1a48 35bd 1ca7 913d bd02 b0bd f5a8 66be
000002c0: 3e62 3abc bcd1 3b3e 1ecb eb3b 0d89 1bbe
000002d0: 5554 f4bc 8b4c dc3d 1d8b d7bd 610a 56bd
000002e0: d83d 463d 39af b5bd 3aca 993c 2ba0 953b
000002f0: 3948 5c3d 7736 4b3e 7c5a 153e 37d5 163d
00000300: 6a2a 80bd 9cb3 193e d77b 233e 2dbb 19be
00000310: 33e9 393e 3102 ea3c 2c26 a93d a92a 2dbc
00000320: 738b 7dbd eda9 143d e6ec a5bd 1073 f93d
00000330: e79a 333c 1c7c aebc b8d7 7dbd a331 f5bc
00000340: 207d aa3d dac2 05be 3c2a eb3d ad32 223c
00000350: 9909 0fbd ce91 bfbd 688d 5a3d 1292 9d3d
00000360: 9215 dcbc 100f 903d 9c0d 97bd dc38 e53d
00000370: cea8 903c 74c2 823d e6ba 1f3e 3d2a 3d3d
00000380: 7146 4e3e d0d4 083c 410a 8c3d 5310 8f3d
00000390: 1a2f b23c aed2 24bd f50f b5bc 2f53 ee3d
000003a0: 3557 e03c 6d94 593b 2cdd e6bd 818e ac3d
000003b0: 33b6 f53d 8d49 94bd 0bf5 933b cc1c c23d
000003c0: 158b 72bd 5ad1 9fbc a51f 7d3d ce00 853d
000003d0: 3f23 88bc c37a 823e a3bd cb3d 59fa 923d
000003e0: 3a9b 25be 1ee7 933d 61fe e23d 4d0c 96bd
000003f0: 2cdc 3bbe f063 fd3c 477d bb3d 8a15 05be
0.06785327 0.066469125 0.008950586 -0.030405732 -0.0051203505 -0.06689339 0.0794209 0.1809189
0.01735337 -0.047921535 -0.0005257032 -0.08528599 -0.14121988 -0.040148854 0.25574762 0.18100946
0.05900678 -0.03775502 0.023899144 0.023491425 -0.18735924 0.26611027 0.005322584 -0.04056534
-0.14654185 0.071699426 0.07154228 0.04769357 0.19142905 0.047297 -0.054967828 -0.07114491
0.023295596 -0.019932533 0.018830733 0.23107356 0.038002178 -0.071875714 0.026208589 -0.01430654
-0.07397182 -0.11126078 0.1784141 0.09203106 0.027469387 0.028433826 -0.016778018 -0.03037293
0.057953436 0.24155661 0.01523071 -0.028705942 -0.03907397 -0.053535994 -0.12927161 -0.043333303
0.23038869 0.13375944 -0.06664628 0.012024067 -0.027478054 -0.05878825 0.06390458 -0.004722592
-0.062172294 -0.08996661 0.18716627 -0.12012939 -0.10173017 0.13564691 0.099648274 0.19937734
-0.11175475 0.09688414 0.009717994 -0.20866865 -0.02011903 0.06073536 0.09365097 0.119293794
-0.09025019 0.15174086 0.13508679 -0.11784191 0.16922268 0.09579632 -0.10592152 -0.14666162
0.104327105 -0.13063622 0.08304363 0.109674275 -0.022826368 -0.044829484 -0.022348741 -0.15020621
-0.053316884 -0.009520334 -0.10445786 0.061885055 0.05657362 0.14747228 0.012080338 -0.12165166
-0.055257495 0.023213979 -0.041620877 -0.14634873 -0.027810652 -0.10259733 -0.11395004 -0.0822818
-0.1437135 0.15777868 0.01677604 -0.0644809 -0.013428368 -0.123873465 -0.07137854 0.046388693
0.007702248 0.103479914 0.032592997 -0.038258865 0.050954413 0.036192566 -0.052944727 -0.17121966
0.1824812 -0.09897823 -0.11054988 0.0054150727 0.012576137 -0.108298935 0.13012211 0.24034593
0.011341363 -0.09792358 -0.12671506 0.12773953 0.018162813 0.09878511 0.089310266 0.029164832
-0.069409184 0.022073003 0.16546257 0.0341529 0.029590208 0.15152402 0.0811521 -0.048625253
-0.053089082 0.013625191 -0.055834178 0.05942952 0.16437621 0.048770852 -0.0959259 0.038126055
-0.058185466 0.030530192 -0.041982707 0.022710493 0.109492324 -0.053719804 -0.08646242 0.033933654
-0.15163432 0.0946532 0.12529992 0.12817557 -0.044258215 0.07111952 -0.08594272 -0.2252539
-0.011375962 0.18341726 0.0071958443 -0.15189 -0.029825369 0.10756787 -0.10524581 -0.05225599
0.048398823 -0.08871312 0.018773187 0.0045662127 0.053779814 0.19844995 0.14585298 0.03682443
-0.0625809 0.15009922 0.1596521 -0.15012808 0.18155365 0.028565498 0.08259234 -0.010569253
-0.061900567 0.036294866 -0.081018254 0.121801496 0.010962225 -0.021299414 -0.061973304 -0.029930895
0.08324647 -0.13062611 0.11482665 0.009899777 -0.034921262 -0.09353982 0.05335751 0.07693876
-0.026865754 0.07034123 -0.07375643 0.11192486 0.017658617 0.06384745 0.1559864 0.04618286
0.20144059 0.00835152 0.06837893 0.069855355 0.021750975 -0.040239982 -0.022102335 0.1163696
0.027385334 0.003320004 -0.11272654 0.08425618 0.11997642 -0.07240591 0.0045152954 0.09478149
-0.05921467 -0.019509006 0.061797757 0.06494294 -0.01661837 0.25484285 0.0994828 0.07176656
-0.16172495 0.072218165 0.11083675 -0.07326565 -0.18345708 0.030931443 0.09154754 -0.12996498

conv3x3.bias f4 [24]
00000000: 30e9 7bbd 44f2 16bb df92 50bd 1a9b ddbb
00000010: 0769 04be bcc9 6abd ed7f 1dbd 9c8d 283d
00000020: 40bb b13c 2f3a 4cbd 3ed8 dabd 8f10 ce3d
00000030: 3b2f edbd 2964 f73c e901 a83a 26ab 943d
00000040: d675 5b3d 48cf 083d 2774 89bd fdb8 84bd
00000050: 7dfc abbb 2a79 de3c c774 82bd c4e2 833d
-0.06150168 -0.0023032585 -0.050921317 -0.0067628743 -0.1293069 -0.057321295 -0.038452078 0.041150674
0.021695733 -0.049860176 -0.10685776 0.10061752 -0.11581274 0.030199127 0.0012817952 0.072592065
0.053579174 0.033400804 -0.067116074 -0.06480596 -0.005248605 0.027157385 -0.0636993 0.064397365

batch_norm1x1.0.weight f4 [24]
00000000: 4e9b 8f3f 2232 803f a364 843f dcd5 8e3f
00000010: f531 8b3f aafa 803f 3dd0 703f c33d 713f
00000020: fb45 8b3f 90a2 8c3f eeeb 863f 1846 853f
00000030: 250e 823f e756 8c3f 6a0c 873f 76ec 853f
00000040: 3771 833f 44e2 793f f67b 893f b0ca 603f
00000050: 6567 803f 3dcf 723f 1dc8 843f 55c9 8c3f
1.121927 1.0015299 1.0343212 1.1159015 1.0874621 1.0076497 0.94067746 0.94234866
1.0880731 1.098711 1.054075 1.0412016 1.0160567 1.096402 1.0550663 1.0462787
1.0268925 0.9761088 1.0740955 0.87809277 1.0031554 0.9484747 1.037357 1.0998942

batch_norm1x1.0.bias f4 [24]
00000000: d482 b23d 985c eebd 9796 85bd b070 2cbd
00000010: 553e 97bd 764f 8bbd a974 1abe 74fb 62be
00000020: 0649 28bd 7e4e ee3c 72ab fabc 012b 1dbd
00000030: 657e 31bd d1e7 00bc 235a db3c 74cb 34bb
00000040: 4f2f c0bd 522f 10bd b491 a03d b79c 09be
00000050: 729d ed3b e77b f6bd c291 89bd f1d2 79bd
0.0871636 -0.116387546 -0.06522863 -0.042099655 -0.07384936 -0.06802265 -0.15083565 -0.22166234
-0.041085266 0.029090162 -0.03059933 -0.03837109 -0.04333343 -0.007867769 0.026776379 -0.0027587088
-0.093840234 -0.03520138 0.07840291 -0.13438688 0.007251435 -0.12035351 -0.06717254 -0.060992185

batch_norm1x1.0.running_mean f4 [24]
00000000: ea49 19be 2db2 9cbe ccb9 4bbe 32c4 38be
00000010: 7877 c5bd 7369 2a3e dd26 e0bd 7ee4 a83e
00000020: a5dd 8b3c 0344 94be 5a74 20bd d7b2 0cbe
00000030: 6306 b3be 57fe 97bb 4a1e 1abe 2902 c73e
00000040: 2ea4 2fbe 14fc 53be 64a5 003e 1b52 85be
00000050: 467e cd3d c27f a93e 915f 353d 0629 1c3e
-0.14969602 -0.30604687 -0.19895095 -0.18043593 -0.096419275 0.16641788 -0.109449126 0.32986826
0.017073462 -0.2895814 -0.03917346 -0.13740097 -0.3496581 -0.004638474 -0.15050617 0.38868836
-0.17152473 -0.20701629 0.12563092 -0.26039204 0.1003385 0.33105284 0.044280592 0.15250024

batch_norm1x1.0.running_var f4 [24]
00000000: 55d1 3c3e 9b0d 813e 3b77 dd3e cfcc fb3e
00000010: f51d c23e 3231 213e dfac 1e3f 193a 813e
00000020: 85fd fe3e 1a8b b23e 0351 0d3f 5fc3 023f
00000030: afaa a63e 6cd1 933e 921d e53e 3e0b f43e
00000040: 93a7 b83e 111c 863e 8a62 ef3e fa71 353f
00000050: 2758 0a3f 2140 bb3e b5e7 e43e fbee a93e
0.18439229 0.25205693 0.43255028 0.49179694 0.3791348 0.15741423 0.6198253 0.25239637
0.49802795 0.3487175 0.5520174 0.5107936 0.32552096 0.28870714 0.44749123 0.47664827
0.3606535 0.26193288 0.46754867 0.7087704 0.5404076 0.36572364 0.44708028 0.3319014

batch_norm3x3.0.weight f4 [24]
00000000: f4e3 8a3f b3a6 693f 7420 803f ad44 8d3f
00000010: e0a8 743f 2669 803f e56d 8f3f 29a9 863f
00000020: 1fc3 843f d970 853f c839 803f 9f7b 843f
00000030: c1ab 7c3f a5a6 863f 908f 853f 7ee5 923f
00000040: bd26 853f dad2 743f deb5 873f a0c2 823f
00000050: 4a2c 7f3f 9788 823f e62f 823f 6fcd 723f
1.0850816 0.9126999 1.0009904 1.1036583 0.9557018 1.0032089 1.1205412 1.0520374
1.0372046 1.0425063 1.0017633 1.0350226 0.98699576 1.0519606 1.0434437 1.1476285
1.0402447 0.95634234 1.0602376 1.0215645 0.99676955 1.0197934 1.0170867 0.94844717

batch_norm3x3.0.bias f4 [24]
00000000: 78df 9d3d 0401 01be 15fd 28be d1f1 e53c
00000010: a92a 15bd 5776 993d 25de 0abd 3523 a53c
00000020: 5f16 283c d9d2 febd 120f 05bc 217d 38bd
00000030: d97e d0bc 9e4a 85bc e328 b5bc 6883 b6bc
00000040: 28cc 87bc eb3a 4fbd 1560 a53d ef61 febd
00000050: cf19 d2bd 51cb cf3c 333a 76bb 29c8 0abe
0.07708639 -0.12598044 -0.16502793 0.028069409 -0.036417637 0.07493275 -0.03390326 0.02015839
0.01025924 -0.1244256 -0.008121269 -0.045041207 -0.02545111 -0.016270932 -0.022114223 -0.022279456
-0.016576841 -0.050593298 0.08074967 -0.12421023 -0.10258829 0.025365504 -0.003757131 -0.13552918

batch_norm3x3.0.running_mean f4 [24]
00000000: 5419 4ebd 68a1 9ebb 2186 4ebd 844f e43b
00000010: 1da9 07be 276b 89bd 5315 07bd a87b 4a3d
00000020: 8b6a aa3c e3b2 53bd 84ea dabd 8fde b83d
00000030: 3b4c fdbd d4d3 f13c ea39 82ba fb67 a53d
00000040: 1a9d 5f3d a721 e03c 13c3 81bd 3871 80bd
00000050: a776 5c3b f1fe 013d d6bd 51bd 282f 733d
-0.050317124 -0.0048410185 -0.050420884 0.006967487 -0.13248105 -0.06709891 -0.03297932 0.049434334
0.020802757 -0.05168427 -0.106892616 0.09026825 -0.123680554 0.029519953 -0.0009935473 0.08076473
0.054593183 0.027359797 -0.063360356 -0.06271595 0.0033640058 0.03173727 -0.051206432 0.059371144

batch_norm3x3.0.running_var f4 [24]
00000000: 3a71 5e3f e326 213f 7bb7 313f 83fc 353f
00000010: 5d91 273f 3860 433f f21a 3a3f 0d82 293f
00000020: 55c1 0e3f bab9 313f f872 313f 7096 483f
00000030: a10d 3a3f 653f 353f 755c 1b3f db47 323f
00000040: d7e1 373f e3e7 113f 3055 263f 6827 283f
00000050: b390 1a3f 0608 2c3f 0136 3d3f 39b7 1e3f
0.8689152 0.6294996 0.69420594 0.7108843 0.6545618 0.76318693 0.72697365 0.66214067
0.5576375 0.6942402 0.69316053 0.7835455 0.72677046 0.7079986 0.60687953 0.6964089
0.7182898 0.56994456 0.64973736 0.6568513 0.60377043 0.6719974 0.7391053 0.61998326

conv_se.0.weight f4 [51, 24, 1, 1, 1]
00000000: 3409 6ebd 219c e23d e218 2cbe e24e 153e
00000010: 0b24 1cbc 4420 6dbb a2a2 5a3c ddf7 d63d
00000020: 1d34 1abd 4416 a2bd 1ab8 4c3e 6ace 32be
00000030: 046e 013e 5064 61bd f636 bbbd d53a 0a3e
00000040: bcd2 cdbd 85cc 023e d5b3 4cbe 0480 143d
00000050: b212 d8bd ccda e63d 29b1 d03c 96be d3bd
00000060: 0716 18bb 38f0 2abe cb5e 0ebe ab6a e1bd
00000070: 1f8d 06be d467 9d3d dd0c fcbd a1e2 e43d
00000080: f21f 25be e500 30be aa44 4d3e b6ca 6abb
00000090: c293 b83d cc1e 0fbd 0e93 d4bd 0eaf f13d
000000a0: 986d 0b3e 6575 dabd e2be 32bd 34dd 223e
000000b0: ac97 2cbd 1fda d0bd 6549 0fbe ec83 88bc
000000c0: 8e86 173d 6121 e43d f6b1 42bd b686 333e
000000d0: ab8a 98bd 5b8d 3f3d 2bed c43d 5cba 903d
000000e0: 74c8 47be 1043 663d f343 febc e301 32bd
000000f0: a01c b3bd 51d3 3d3e 92b8 843c 87ed bb3d
00000100: 5796 363e ded0 bbbc 2c8d 33be 9d4c fd3d
00000110: 0956 f53d af11 ddbd 0b89 413d 46d3 90bd
00000120: b0a8 12be 7011 d2bd 2cf9 293e 6ca7 0abe
00000130: 0477 89bd d2f6 1c3e 806d 353e 443b 54bd
00000140: 501c 443e fd9f f4bd 7a4b 46be 88a0 9f3d
00000150: bb4f 12be 9390 41be ec88 1d3e d6cc 21be
00000160: 5013 9d3d 2f47 c6bd b903 eabd 35ca 03be
00000170: 4034 483e 06ed aabd e484 483e 4a28 16be
00000180: 20fc 9cbb 6e15 97bd d4a1 073e e975 ffbd
00000190: a89b 59bd 7e86 48be 8c95 58bd 3823 cf3d
000001a0: 68b3 923d 761d 31be f6ff 1d3e a0a5 9cbb
000001b0: 8018 3bbd e632 99bd 2295 4a3e 2c45 02bd
000001c0: 9420 64bd 4adb 18be a074 123e 40e7 243c
000001d0: 5a4b 41be 5aa9 86bd 24c3 033e 40ff f03b
000001e0: e070 813d 32f3 193e fae2 89bd 2fc6 37be
000001f0: c85a 5e3d 3c65 c53d 40fa c53c 4025 1a3b
00000200: 7064 46bd 54c6 5abd 03ad 3cbe e768 04be
00000210: d07c 113e 0add 2ebe 6776 d2bd c043 783d
00000220: 468e c9bd be14 3b3e d897 2e3e a4e7 72bd
00000230: 1245 0bbe f0a3 433d ee36 81bd c0cc 30bd
00000240: 2ae6 4abe 56d7 223e 0e44 cf3c 2b79 11be
00000250: 15a3 29be 956d 8a3d 7881 383e 92dd ad3d
00000260: 002a 553c 460c 563d 9568 0f3d 8237 1d3e
00000270: cd71 4bbd b657 433c 382f 1c3e 8d1a d6bb
00000280: 4674 d1bc 5e9c 303e 3ac0 1fbe c30c 73bc
00000290: b7ff 05be e012 b3bd 5f2f cd3d de29 c4bb
000002a0: cd11 1bbe 22fe f53d c1e8 123d 884a b93d
000002b0: 8df7 fcbc 9d56 2fbe 4353 ad3d 964f 0fbe
000002c0: 7bf2 113e 4af4 16be 9143 0b3e e699 1d3e
000002d0: 0055 413e b59c ddbd 414e 15be b765 47bd
000002e0: 5fde 3ebd 541d 00be e216 e83d f19f f93d
000002f0: 2fd5 c33c a790 123e 2264 463e ed27 073e
00000300: dc86 b63d e3cc f13d ae33 2bbe 2253 3d3e
00000310: 5897 7dbd be60 a03c a785 7abd 5c49 41bd
00000320: a005 a43d dd0c 38be ce72 97bd 6035 0bbe
00000330: 39d5 11bd b9fb 85bd 2608 0d3e 6b79 8dbd
00000340: 2602 8fbd 123c a83d 6b26 f5bb 51ad 18be
00000350: 90f0 4fbc 6c28 183e 1e90 dd3d 9279 4c3e
00000360: df59 cfbd dd14 243e fea1 b7bc 9c77 6a3d
00000370: 00c4 d2bd 45d4 d43d 6845 04be fea9 adbc
00000380: c4fe 81bd 8edf 07be 8772 263e 1fb4 8fbd
00000390: 62d1 0f3d ec9a 3b3e fa97 48be 2bae 2a3e
000003a0: 06a4 1c3b 5be1 b5bd 0e76 5b3d 1a43 273e
000003b0: 039b 3b3e ffc1 2bbe 190c 113e 65f1 9abd
000003c0: 1e23 dcbd 283d 913c 308a 833d 28df 033d
000003d0: f72f eabd e612 3ebe f6eb 1d3e 1d3e 41be
000003e0: fdf2 febd ac71 7dbd d2db 1d3e a037 1b3d
000003f0: 1f62 c8bd 27a9 d7bd cc88 82bd 6c8a 4c3e
-0.058114246 0.110649355 -0.16806367 0.14580873 -0.009530078 -0.0036182562 0.013344439 0.10496495
-0.037647355 -0.07914403 0.19992104 -0.17461553 0.12639624 -0.055027306 -0.09141342 0.13499005
-0.1004996 0.1277333 -0.19990475 0.036254898 -0.10550441 0.11272201 0.025475102 -0.10339086
-0.0023206489 -0.16693199 -0.13903348 -0.110066734 -0.13139771 0.07685819 -0.12307141 0.111760385
-0.16125467 -0.17187841 0.20045725 -0.0035826392 0.090125576 -0.03494148 -0.10379611 0.11800967
0.13616025 -0.106669225 -0.04363907 0.15904695 -0.042136833 -0.10197853 -0.13992842 -0.016664468
0.036993556 0.11139179 -0.047532998 0.17531857 -0.07448324 0.046765666 0.09615549 0.07066795
-0.1951006 0.0562163 -0.03103826 -0.04345883 -0.08745694 0.18537642 0.016201291 0.09176164
0.17830788 -0.022926744 -0.17534322 0.123681284 0.119793005 -0.107943885 0.047249835 -0.07071547
-0.14322162 -0.10257232 0.16598958 -0.13540429 -0.067121536 0.1532853 0.17717552 -0.051814333
0.19151425 -0.11944578 -0.1936473 0.07794291 -0.14288227 -0.18902807 0.15384263 -0.15800795
0.07669699 -0.09681546 -0.11426491 -0.12870105 0.19551182 -0.0834599 0.19581944 -0.14663807
-0.004790798 -0.07377134 0.13245326 -0.124736615 -0.05312696 -0.19582555 -0.052876994 0.10114139
0.07163125 -0.17296395 0.15429673 -0.004780486 -0.045677662 -0.07480411 0.19783452 -0.03180425
-0.05569513 -0.14927402 0.14302301 0.0100649 -0.188764 -0.0657527 0.12867409 0.007354647
0.06320357 0.15034178 -0.067327455 -0.17946695 0.054285794 0.096384495 0.02416718 0.0023520738
-0.04843563 -0.053411797 -0.18425374 -0.12930642 0.14207768 -0.17076507 -0.1027649 0.060611486
-0.0984159 0.18269631 0.17050111 -0.05930294 -0.13600567 0.047763765 -0.06309305 -0.043164015
-0.19814363 0.15902457 0.025301006 -0.14206378 -0.16566117 0.06759182 0.18018138 0.08489527
0.013010502 0.0522578 0.035011847 0.15353206 -0.049669076 0.011922767 0.15252388 -0.006533927
-0.025568139 0.1724715 -0.15600672 -0.014834586 -0.13085829 -0.087438345 0.10018801 -0.0059864363
-0.15143509 0.120113626 0.035866503 0.09047419 -0.03087976 -0.17122884 0.084631465 -0.13995203
0.14252655 -0.14741626 0.13599993 0.15390739 0.18880081 -0.10820905 -0.14580633 -0.048680987
-0.04659879 -0.12511188 0.113324896 0.121887095 0.023905365 0.14312993 0.19374135 0.13198824
0.08912441 0.11806657 -0.16718933 0.18488744 -0.06191191 0.01957738 -0.061162617 -0.0471891
0.080088854 -0.17973657 -0.07394944 -0.1359458 -0.035603736 -0.06542153 0.1377264 -0.06907924
-0.06982832 0.082145825 -0.0074813864 -0.14909865 -0.012691632 0.1485917 0.10818504 0.1996825
-0.101245634 0.16023584 -0.022416111 0.057242975 -0.1029129 0.1039205 -0.12917101 -0.021199223
-0.06347421 -0.13268873 0.16254626 -0.07016777 0.035111792 0.18320817 -0.19589224 0.16668002
0.0023901477 -0.08880874 0.053579383 0.16334191 0.18320851 -0.16773222 0.14164771 -0.075655736
-0.107488856 0.017729357 0.064228415 0.03219524 -0.1143493 -0.18561897 0.15422043 -0.1887135
-0.1244869 -0.061875984 0.15415886 0.037894845 -0.0978434 -0.1053031 -0.06373748 0.19974679

conv_se.0.bias f4 [51]
00000000: 6940 cb3c 08ed 2a3e 76a3 20be 60cd 5b3c
00000010: 00a1 893c ce3d b9bd d168 013e 11a5 08be
00000020: 3d78 95bd 4882 6a3d c020 3a3b 956e eabd
00000030: a88a 8dbd ec73 a33d 77b8 d5bd d11d 80bc
00000040: 7876 8ebd 1953 243e c2f7 1b3e c76d bcbd
00000050: 19b6 9f3d f573 19be dca4 893d dfbb 3c3e
00000060: 5620 85bd c071 363e f211 cb3c 90fc 2a3c
00000070: c08b 2cbc dd25 d6bd 2237 f23d dd23 e7bd
00000080: 182f 6ebd 6f8d 0b3e d317 e2bd 0821 223e
00000090: c7a6 47bd 19d7 4fbe 6cdd 28be 1cd2 f7bb
000000a0: 6fcb 293e b963 fc3c 718f 273e 21e4 25be
000000b0: 066b 33be 7f2e 03be 4e4b 133d 00b6 0bbc
000000c0: 077f fd3c 1a14 4a3e 601f 5a3d
0.024810987 0.16691983 -0.15687355 0.013415664 0.016800404 -0.090449914 0.1263764 -0.13344218
-0.07298324 0.057253152 0.0028400868 -0.11446873 -0.06911212 0.07981095 -0.104355745 -0.015639218
-0.0695619 0.16047324 0.15231231 -0.09200626 0.07798404 -0.1498564 0.067208976 0.18431042
-0.06500308 0.1781683 0.02478883 0.010436192 -0.010531366 -0.104564406 0.11826922 -0.11286137
-0.05815038 0.13628171 -0.110397 0.15832913 -0.048743036 -0.20296897 -0.16490716 -0.007562889
0.1658151 0.03080927 0.16363312 -0.16200306 -0.17521295 -0.12810706 0.035960488 -0.008527279
0.03094436 0.1973423 0.053252578

conv_ex.weight f4 [24, 51, 1, 1, 1]
00000000: 31eb 933d fd39 043e b3d6 a03c 8e78 f13d
00000010: 6442 423d e0d5 09bc 8bbd 94bc 9a37 0ebc
00000020: 12f7 293d dcac c0bd 60da 13bd 04a0 02be
00000030: 8845 9e3d c959 0b3e b6e2 ae3c e7d3 ca3d
00000040: 20ea ce3d 4be3 97bd d629 f8bc 1a46 aabd
00000050: 6636 be3d dec9 3c3d c6cf bbbd b503 713a
00000060: 44db eebc 5a02 c9bd 963e 7bbd d66e 4bbd
00000070: 382e ccbd 06ae 553c 40e6 50bc 6e16 b03d
00000080: 6878 0cbe 3d78 c23c 9855 163d ecfa f6bc
00000090: c3da c63d c0c0 c0bb 35d1 763d e3a4 ed3d
000000a0: 0ba7 90bd 95d4 f93d e487 743d 6d0c 9a3b
000000b0: 51a6 0a3e f15a 643b f707 8d3c e43f 26bd
000000c0: 0e03 95bd 0420 d6bd 6c2a cc3d 9e70 0abc
000000d0: bd54 02bd a421 afbd 92fc dd3d a051 e73b
000000e0: e0b7 a5bb cfee 0e3e 49ff 7dbd a737 cbbd
000000f0: a399 983d 688b 303d ac54 1e3d 5c5f d6bd
00000100: 5aa1 f6bd 5730 0abd b7bf b13d 80e8 8c3d
00000110: 310f 2a3c 690e ffbd d808 99bd 1ed9 b3bd
00000120: d0f4 963c 519b cebd b4ff d13d 0e82 843d
00000130: 8bed 7abc 322e e2bd 9a12 f53d 12ce 50bd
00000140: ee35 c43c 68b2 8d3d e477 01be 891c 023e
00000150: 131f 19bc 2037 70bc c3e7 803c e62e 033e
00000160: b93e 033e 6629 98bd ddeb acbd 2353 31bc
00000170: 8808 9cbd 358a 21bc a774 073e 4466 423d
00000180: 6ba2 5e3c 5fa6 4b3d 2ea6 0abe efc5 85bd
00000190: b482 183d 8633 d3bd 071c 8cbd 6c7b 8f3d
000001a0: 43c5 ac3d 2749 073e 6770 053e a90a 8ebd
000001b0: f969 e43d 9972 8abd 3e09 883c eb98 823d
000001c0: 5ac2 b73d 4efc ce3c 7e01 dc3d 1e7c bd3d
000001d0: 61fb 843d 28ae a8bd 60c1 053c 1337 f2bd
000001e0: 6e9a a0bd b060 ab3d f24d e3bd feb3 143c
000001f0: 12a7 d5bd c595 c8bd 804e 7b3d 0a9b febd
00000200: b377 4e3d de58 9f3d d059 d43c 3fb5 6dbd
00000210: 598f 0cbe 3bc0 1e3b 7e8a a73d f688 663d
00000220: da69 aa3d dc3b 9f3d 4188 dfbc 20bd 563c
00000230: 58a4 063e 4858 c13d 777e a2bd eb5e f0bd
00000240: 5df4 5e3d ad68 0abe 85c3 15bd 4ee8 bc3a
00000250: 9b5a d0bc 268e d53d 32ea c63d 102d 07be
00000260: 18d2 2cbd cb21 adbc d369 ef3d d199 cfbd
00000270: a981 013e 2e3e c33d c10d cdbd 3e98 a0bd
00000280: 1b26 633d 8ba9 023d 2267 2f3d b676 8e3d
00000290: afd4 15bd ea5b a5bd 2272 623d a957 2bbd
000002a0: 711f 07bc 305c 59bc ab57 dc3d 9d75 093e
000002b0: 43ff 84bd 029a 523c 9743 81bd 0ed4 20bd
000002c0: 253d a7bd 609c 043d 4c28 fcbd 5fcc e03c
000002d0: 6923 f1bd eaba f73d c9ef 42bd b2a7 ca3d
000002e0: 0a5d 813d b046 bbbd 386e 773d ceda bdbd
000002f0: 7567 8b3d 60a9 7e3d e99e cabd e3b9 0f3e
00000300: aa3c cfbd f270 8d3d bcdf 463d 38d3 54bd
00000310: 9358 203c e8ef c6bd a0d0 b13c f358 e6bd
00000320: cac0 5fbd 14d1 bd3d 4a34 793d d635 04bd
00000330: 19ba adbd 54a0 70bd 16f7 1a3c da60 aebd
00000340: 00e3 49bb c0b0 83bd 670a bdbd 3429 a6bd
00000350: f5de 03be 7534 d53b b207 f93d e928 763c
00000360: bc60 eebd 1819 01be b816 e4bd 4671 1dbd
00000370: c6b6 febd 753f d8bd f2f8 92bc 30d2 b93c
00000380: 98a0 7dbd c8d7 ae3d 57b0 453d c8f4 e0bc
00000390: 880f a73d 4c23 fe3d f501 df3d 2247 a93d
000003a0: 60f1 a83d de58 053d 4cf8 80bc aada 02be
000003b0: 4d80 f2bd 2277 f63c 40a9 30bd 2dad 9cbd
000003c0: e580 2a3d cbb2 dcbd 4782 cabd 2e18 06be
000003d0: 8a3b a03d 21bc 963d 0b9d 84bc 6146 43bd
000003e0: bbac 00be c985 c8bd 328c cbbd f87d 2a3d
000003f0: 2347 0ebe bb5f 0fbe d6c7 ba3d 7fe9 77bd
0.072225936 0.12912746 0.019633627 0.11790572 0.047426596 -0.008412808 -0.018156787 -0.008680249
0.04149539 -0.0940797 -0.03609693 -0.12756354 0.07728106 0.13608469 0.021348339 0.099036984
0.101032495 -0.074163996 -0.030293386 -0.08314152 0.092877194 0.046090953 -0.09170489 0.0009193973
-0.029157288 -0.09814902 -0.061338983 -0.04966625 -0.09969753 0.013041979 -0.012750208 0.08598028
-0.13717806 0.023738975 0.036702722 -0.030148946 0.09709694 -0.0058823526 0.06025811 0.11603715
-0.07063111 0.1219875 0.059699908 0.0047011883 0.13540007 0.0034844244 0.017215712 -0.040588275
-0.07275973 -0.10455325 0.09969029 -0.008449702 -0.031819094 -0.08551338 0.108391896 0.007059291
-0.00505732 0.13958286 -0.062011037 -0.09922724 0.07451179 0.0431017 0.03865497 -0.10467407
-0.12042494 -0.033737507 0.08679145 0.06880283 0.0103795985 -0.124539204 -0.0747239 -0.08781646
0.018427283 -0.10088218 0.102538496 0.064701185 -0.015315424 -0.11043967 0.119664386 -0.050977774
0.023951497 0.06918794 -0.12643391 0.12706198 -0.009345788 -0.01466158 0.015735513 0.12810859
0.12816896 -0.07429771 -0.08443425 -0.010823044 -0.07618815 -0.009859611 0.13228093 0.04746081
0.013588528 0.04971921 -0.13539955 -0.065318935 0.037234023 -0.10312562 -0.06841283 0.07005963
0.08436062 0.13211499 0.1303116 -0.06935627 0.11153025 -0.06760139 0.01660597 0.06376823
0.089726165 0.025266793 0.10742472 0.09252189 0.06493259 -0.08236343 0.00816378 -0.11826911
-0.07841955 0.08368051 -0.11098851 0.009076117 -0.10432257 -0.09794191 0.06135416 -0.12431915
0.050407123 0.07780622 0.025921732 -0.058034178 -0.13726558 0.0024223465 0.08180712 0.05628296
0.08320971 0.07775089 -0.02728665 0.013106614 0.1314863 0.094406664 -0.079342775 -0.11736854
0.05443226 -0.13516493 -0.036563415 0.0014412494 -0.025433829 0.10427503 0.09712638 -0.13200784
-0.04219255 -0.021134278 0.11690106 -0.1013676 0.12647118 0.09533344 -0.10012389 -0.07841538
0.055456262 0.03189997 0.042822964 0.06956236 -0.036579784 -0.08074172 0.055284627 -0.041831646
-0.008247242 -0.013266608 0.10758909 0.13423772 -0.06494 0.012854101 -0.0631172 -0.03926473
-0.08165959 0.032375693 -0.123123735 0.027441202 -0.11774332 0.12096198 -0.04759196 0.098952666
0.06316574 -0.09144342 0.060407847 -0.09270249 0.06806842 0.062173247 -0.09893591 0.14035754
-0.101189926 0.06906308 0.048553213 -0.051959246 0.009786743 -0.09713727 0.021705925 -0.112474345
-0.054627217 0.09268394 0.060840882 -0.032277904 -0.08482761 -0.05874665 0.009458324 -0.08514567
-0.0030805469 -0.06430197 -0.092305 -0.081133276 -0.1287802 0.0065064975 0.12159671 0.015024402
-0.11639544 -0.12607229 -0.11137146 -0.038438104 -0.12437205 -0.105589785 -0.017940972 0.022683233
-0.061920732 0.08537251 0.048263874 -0.02746047 0.08157259 0.12409076 0.10889045 0.08265521
0.08249164 0.032555453 -0.015743397 -0.12778726 -0.11840878 0.030086104 -0.04313016 -0.07650218
0.04162683 -0.107762896 -0.0988813 -0.13095161 0.07823856 0.073601015 -0.016188165 -0.04767454
-0.12565891 -0.097911425 -0.099388495 0.04162404 -0.13894324 -0.14001362 0.09120147 -0.060525414

conv_ex.bias f4 [24]
00000000: 7854 d73d c646 2cbd 94b6 9f3d b35a 023e
00000010: b968 97bd 9a56 5e3d 0c99 6c3d 160f 85bd
00000020: 1b1e 03be 465c b2bd 0260 59bd e1ac 883d
00000030: f38e e93b e6ac 09be fb16 d4bd 0f14 05bd
00000040: 56c9 d5bd b4b2 2ebd 543b fabd d54e 94bc
00000050: d7db fe3d 3696 b13d 4827 ffbd 3468 3cbc
0.10514158 -0.042059682 0.07798496 0.12729912 -0.07393021 0.05428181 0.057763144 -0.06497018
-0.12804453 -0.08709006 -0.053070076 0.06673599 0.0071276366 -0.13444862 -0.10355946 -0.032489832
-0.104387924 -0.042650893 -0.12218347 -0.018103996 0.12444275 0.086712286 -0.12458664 -0.011499453

res_net1.conv1.0.weight f4 [24, 24, 1, 1, 7]
00000000: 92f1 aebd d904 343d cb2e dc3d 6424 e0bd
00000010: 4535 f13c 4b71 d739 8843 1dbc 86ba 873d
00000020: 7ec5 f1bb a282 9ebc afd4 01bd 245b 79bc
00000030: 019a 6c3d b6c4 afbd 7bc1 4abd 1ffc 8bbd
00000040: aa21 2a3d ee4e cfbb f63f 0fbe f779 7ebd
00000050: 43ff 85bd d98c a2bd c0a7 513d 1298 89bd
00000060: c5e9 5cbe d21a 4fbd b8c3 9ebb 1bc8 113e
00000070: d447 92bc 0877 08be 490a bf3a 7054 74bd
00000080: 3bdc 253d 1cc3 9b3d be30 9e3d 8db0 2fbd
00000090: 86e1 363c faba 0ebe 45c2 313d 7d0b 02bd
000000a0: f4c4 8a3c 4f09 8bbd 9d7a 03be 2ae0 fdbd
000000b0: f226 18bd 1d44 aebd f406 323d 51dc 02be
000000c0: 7c99 cabc ed93 62bd d111 9e3d a5d4 493d
000000d0: 6a2d 8cbc 6645 87bc a741 633d 4c33 1abd
000000e0: 72a7 8bbd 31c4 8abc 1d75 e3bd 6c12 04be
000000f0: 2708 8bbd 763f e63d 8861 f83c 3fff ed3a
00000100: 4ce0 9e3c c91e b0bc 5b33 dcbc ef84 d93d
00000110: a5fb a9bc f7c4 71bc 66fd 8b3b c6e3 6fbd
00000120: 62c3 6abc d8b1 3fbe 8ba7 1bbd b890 3fbd
00000130: 84be 8cbd 6e25 92bd d259 4c3c ccdf 83bd
00000140: 1c29 79bd 4cf9 6e3c 14a1 503d 5ad5 d33d
00000150: 63d6 84bd 6236 fcbd 910a 93bc ad88 953c
00000160: 00a8 0abd 1c9e 063c 14ec be3d 2020 91bd
00000170: abbb 19be 2be3 0cbe 2c21 d63d f79c ba3c
00000180: a291 34bb f722 91bd 8619 28bd a58b 253d
00000190: fb9c 483d a05e 3a3e 0134 113b 2265 ac3b
000001a0: c6a8 e5bd 839f 363d 757e 31be 932b 4bbe
000001b0: 05a7 15bc 2145 61bb dc53 b1bd ea8c 9c3c
000001c0: 3940 2cbb c6a4 9abc e48f 3abe 1e2e 31be
000001d0: bfa9 5d3c 3593 35bd 7533 0bbd a80a eb3b
000001e0: fcac 11be e9d9 c1bc b971 89bb fb62 04bc
000001f0: 6f89 13bd 93de f9bc 26f5 263c 57e9 45bd
00000200: 754f b63d 8638 dd3d d382 5d3d 3be9 943d
00000210: 327e 58bd a981 ffbb ecfa 45bd 8746 59be
00000220: 155f 06be 0803 0c3c 8f90 3f3d 38e2 483c
00000230: d9f7 bebc 4e7c 873c de11 943c 6609 1d3d
00000240: f81c 9d3c 1301 613b b73e 9cbd 8d68 213c
00000250: 0e0a 2dbc bf4b 9f3c 6bf0 22bd 562f 86bb
00000260: b520 08bd 1965 933d b54f 12be 197a a03d
00000270: 9701 5d3c 4039 343c b1dc 97bd 13b0 8d3d
00000280: 7290 f03d 4f61 c13c 1067 a5bd 27e4 073d
00000290: e6dd 3abd b02c 683d 896f 463d 35bd b33d
000002a0: 863b ef3d 3a9c 173d ad44 ac3d c663 1dbd
000002b0: d000 06be 1b03 a5bc 015a c3bd a5a6 02bd
000002c0: 0f14 2cbe e270 333e ac3e 03be 4b78 5fbb
000002d0: 59af 0cbe 29b5 74bd c3ab 283e b0c4 fabd
000002e0: 3eaa 0d3e 4708 bdbd bd17 893d 217d 3bbc
000002f0: 86d9 02be 7453 6f3d 53ac efbc 1469 a5bd
00000300: 6d9c cc3d 8052 0b3c 8804 c73d 3c89 88bb
00000310: 0d23 b93d f10f 70bd 1162 a93d 1f81 f7bd
00000320: f2d9 aebc b2b8 95bc a767 03bd e9dc 473d
00000330: 681d cbbd 26b0 b8bc d6b3 c03d e3e3 043d
00000340: 868a 47bd 7c1e 0d3d c76e a23d a4ee 09be
00000350: bf34 263e 2a0f 31be 4740 babb af2b 63bd
00000360: b7d6 09be 0666 ba3d d9ff edbd 1ae4 f6bc
00000370: 0752 e93d 3a78 5dbd a4c4 d6bd 6381 e6bc
00000380: 5b54 a93d 9ff2 20be 9798 afbb fae1 89bd
00000390: d266 9abd 8fd5 813c f29f 06bd 8076 803b
000003a0: b2d5 c3bd 477c 08be 2340 303d 6c8b 1fbb
000003b0: 6ce0 10bd 8b0e f03d 5ae3 3a3d ec7e 48bc
000003c0: 3c78 ab3c 3733 dabd 35fa 873d 22d5 cfbd
000003d0: 2bd6 403d 63cd c33d d73d 9e3c bb8e b43c
000003e0: e2ac 1b3d 7793 823d c3e0 04bd 8b0b a03d
000003f0: 12c0 8f3d 4134 11be c5ef 70bc fa0a 033d
-0.0854217 0.043949936 0.107511126 -0.10944441 0.029444346 0.00041092405 -0.00959862 0.066273734
-0.007378279 -0.0193494 -0.03169697 -0.0152194835 0.057764057 -0.085824415 -0.049500924 -0.06835198
0.04153601 -0.006326548 -0.13989243 -0.062128033 -0.06542828 -0.07937021 0.05118537 -0.06718458
-0.21573551 -0.050562687 -0.004845109 0.1423649 -0.017856516 -0.13326657 0.0014575209 -0.05965084
0.04049323 0.076055735 0.077241406 -0.04289298 0.011162167 -0.13938513 0.04339816 -0.031749237
0.016939618 -0.06788885 -0.12839742 -0.123962715 -0.037146516 -0.08509085 0.043463662 -0.12779357
-0.02473139 -0.055316854 0.07718242 0.04927506 -0.017111499 -0.016512584 0.055482533 -0.037646577
-0.06819047 -0.016939254 -0.11106322 -0.12897652 -0.06788664 0.11242573 0.030319944 0.0018157734
0.019394062 -0.021499055 -0.026879957 0.10621058 -0.020749876 -0.014756433 0.004272151 -0.05856683
-0.014328809 -0.18720186 -0.03800158 -0.046768874 -0.068722755 -0.071360454 0.012472587 -0.0643917
-0.06083022 0.014585804 0.050934866 0.10343428 -0.064862035 -0.1231506 -0.017949374 0.018253649
-0.033851624 0.008216407 0.09322372 -0.070862055 -0.15012996 -0.13758533 0.10455546 0.022779925
-0.0027552624 -0.07086747 -0.041039966 0.04041638 0.048977833 0.18200159 0.002215624 0.0052610794
-0.112138316 0.044585716 -0.17333396 -0.19840841 -0.009134059 -0.003437348 -0.08658573 0.019110162
-0.0026283397 -0.018877398 -0.18218952 -0.17302749 0.01352924 -0.04432984 -0.03398462 0.007172901
-0.14226145 -0.023663478 -0.004194465 -0.008080239 -0.03601974 -0.03050164 0.010190284 -0.048318233
0.08901874 0.108017966 0.05407984 0.07271048 -0.052854724 -0.007797439 -0.048335 -0.2121831
-0.13122208 0.008545645 0.04676872 0.012260966 -0.023311542 0.016538765 0.018074926 0.03833904
0.019178852 0.0034332916 -0.076291494 0.009851587 -0.010561479 0.019445298 -0.03978006 -0.0040949984
-0.033234317 0.07197017 -0.14288218 0.07835788 0.013489149 0.010999978 -0.074151404 0.06918349
0.11746301 0.02360597 -0.08076298 0.033176567 -0.045621775 0.056683242 0.048446212 0.08776323
0.11681275 0.037014224 0.08411536 -0.03842523 -0.13086247 -0.020143082 -0.09538651 -0.031897206
-0.16804527 0.1752353 -0.12816876 -0.00340988 -0.13738765 -0.05974308 0.16471772 -0.122445464
0.13834473 -0.092300944 0.06693981 -0.011443407 -0.12778291 0.058429196 -0.029256975 -0.08076683
0.09990773 0.008503556 0.09717661 -0.0041667502 0.090398885 -0.058608953 0.08270658 -0.12085175
-0.021344159 -0.018276546 -0.032081272 0.04879466 -0.09917718 -0.022544932 0.09409301 0.032443892
-0.04871609 0.0344529 0.07931285 -0.1346994 0.16231059 -0.17290941 -0.005683932 -0.05546158
-0.13460813 0.09101491 -0.11621065 -0.030138064 0.113925986 -0.054069735 -0.10486725 -0.028137868
0.08268043 -0.15717553 -0.0053587663 -0.06732555 -0.07539143 0.015848903 -0.03286738 0.0039203763
-0.095622435 -0.13328658 0.043029916 -0.0024344577 -0.035370275 0.11721524 0.045626976 -0.012237292
0.020931356 -0.106543 0.0663952 -0.10148074 0.047079246 0.09560659 0.019316597 0.022040715
0.03800667 0.06375783 -0.032440912 0.07814702 0.070190564 -0.1418009 -0.014705603 0.03199289

res_net1.conv1.0.bias f4 [24]
00000000: 525a c93d 3b23 88bd 78c8 523b 316b 583d
00000010: 38c3 023e 4c9a 8e3c e850 d93d 2521 ab3c
00000020: a1aa 54bb 9f9e 93bd b76a eabd b017 913d
00000030: fd5b 253d 5d0e e83d eedd 49bd eca1 b4bc
00000040: 2659 f1bc 2579 31bc fb26 923b 66d3 0bbe
00000050: 9eee ffbd 895d 043c 9818 ffbd 846d b2bc
0.0983168 -0.06647345 0.0032162946 0.0528366 0.12769783 0.017407559 0.10611135 0.020889828
-0.0032450336 -0.07207989 -0.114461355 0.07084596 0.04037093 0.113308646 -0.049283914 -0.022049867
-0.029461455 -0.010832106 0.0044602132 -0.13654861 -0.124966845 0.008078941 -0.12455863 -0.021780737

res_net1.conv2.weight f4 [24, 24, 1, 1, 7]
00000000: 99cd 0c3d 226d 9f3d 7361 433d 5845 1ebe
00000010: d6a8 013d e002 913d 95d1 003d 0282 b9bd
00000020: dd22 d8bd 5f76 b33d 1393 e9bd 0ea5 603d
00000030: cf98 18be a815 cabb 8253 0e3c 355c 49bd
00000040: cacc 2dbc 4731 c53c edfe 92bd ade6 c9bd
00000050: 9856 8dbd da7f 48be 7789 23bb 171c 0b3d
00000060: 1e51 d73c 5a44 bfbc 54ac efbc 407b febd
00000070: 5380 873d d842 03bd aea9 cdbd 523b 6ebc
00000080: 32b7 23bd 8ade a9bd 25cf ffbc bce9 a8bd
00000090: fad4 b3bc 9f57 db3d 9f5d 18bd 9176 aa3d
000000a0: 201e fabc 43b5 f13c 1304 613d 5441 2abd
000000b0: bd32 65bc e788 443d 4886 1b3e e267 10be
000000c0: 95ba b3bd a054 5a3d 3dad 00be 3bac d83d
000000d0: 48c6 6dbd ae1e 353d 9783 23be eb8e 3eba
000000e0: 18a0 a43c 182e 5a3d eebf 99bd 8b15 443d
000000f0: ea49 dbbd 82c2 773d 9abb ffbd 6338 1d3d
00000100: 89cf cebc 1d4c 6b3d 007f c8bd bbf2 2cbe
00000110: 2569 9cbd 38df 8b3b e0c5 92bd 7706 dc3d
00000120: 13d3 a5bd 998e f4bc 351b 0dbd 749b cb3c
00000130: 7bfa 10bd 849e 80bc a469 17be fc73 00bc
00000140: 27a1 7c3d c6cd afbd ae5d dfbd 07ec 1e3c
00000150: 21b8 9e3d cd32 ffbd d980 babd b86c c9bd
00000160: ca4a 05be 03cc 1dbe de09 2d3e 41c8 c5bd
00000170: 399f 453d 7507 80bd 9750 893d 7abf ff3c
00000180: 7cd3 4f3d 198f c2bd 1560 883d 56a2 a7bc
00000190: 3df8 8ebc ce57 123d 6567 5bbd c7cd 07be
000001a0: 8d88 74bd 32c3 c43d 58d0 48bd 12bb a23c
000001b0: ee3a 773d fa98 243d f96f 923d 8fb9 333d
000001c0: 81e9 2a3d b5d0 35bd 7e0b bf3b 7565 47bd
000001d0: 4fb4 42be ab5d 0a3c 0424 0ebd e616 723d
000001e0: 0009 f93b 327c d93c da98 35bd 70f7 ab3c
000001f0: 3a27 023d 0714 07be c048 c53c b97d c8bd
00000200: bc63 43bd 1d9c c3bb 57c2 3fbd 9deb 333d
00000210: 76b6 afbd 9577 863d c965 b63c 0da3 993b
00000220: f501 eebd 322d a0bd 5626 a1bd 98b5 86bd
00000230: 33ac 0fbd 5467 04be 6c18 33bd 8e52 9b3b
00000240: f270 48bd c16b e8bc 9f28 87bd 4a81 323d
00000250: 8675 d3bd dae7 59bd ba83 e83d 7d22 9ebc
00000260: 2093 fbbd 8011 1bbd 1e68 eb3c 3ff1 e8bb
00000270: f970 b63d f5e6 683d 2085 c7bc 43bb abbd
00000280: 6c51 babd 1f21 3cbd ce53 29be 0636 02be
00000290: 7ca7 e4bd 9ec9 363e 4882 51bd 3bec 96bd
000002a0: 140f d0bd e692 f8bd 0aec 0e3e 2d71 cdbd
000002b0: 743c 06bd f091 d5bc 9f84 c53c 1e97 cfbd
000002c0: 60e8 903d f592 cfbd 4da6 6b3c 0a18 e13d
000002d0: c355 043d 42af e3bc bcb5 873c ba25 a23d
000002e0: b2d5 f23b f2b5 cfbd 47d3 c43d 7aa0 67bd
000002f0: c0fb 0c3d d0d0 e53d c591 86bd 8e86 843c
00000300: 4fc9 853d a144 0abd a8a4 1b3e 04ff e8bc
00000310: 7a3a 0f3e 30b8 c7bb 6758 223d 997f 323c
00000320: a2ea 9abd 8518 4e3d 3601 bebd a945 29bd
00000330: 732a b9bd 585c cc3c d55f 91bc cc1d d83c
00000340: f7a4 a83d f86e 083c a86e 4b3d 3c61 8ebd
00000350: 2124 c73d 5d55 ccbd 35a7 123e 5bce fa3d
00000360: 087c 06bd d2b3 ea39 b48c b5bc 4b5d 323c
00000370: 4116 64bd 69c8 ff3c 4460 e63d da51 20bd
00000380: 124d a73d 1bef 013e 59b1 37bc 7f40 153e
00000390: e420 bebb a16d bd3d deed 04bd 3d15 df39
000003a0: d058 203d ea38 dcbc 38a9 10bc 6edf 103e
000003b0: 846c 0d3e 56d3 21bd e7cd 4b3d b9a6 07bd
000003c0: 4201 b6bd 1d0f bdbb 6fb0 9abd cc25 653d
000003d0: 4e37 103d 1d35 aabd 0dfe ba3d 8e8c 903b
000003e0: b75f f8bd 6bdd 9d3d ef76 a2bc 71b3 a8bd
000003f0: bf45 9b3d 5bae 653c dcec 713d 842b 69bd
0.03437576 0.07784487 0.047700357 -0.1545614 0.031655155 0.070806265 0.031449873 -0.09058
-0.10553525 0.08762812 -0.11405005 0.05484491 -0.14902042 -0.0061671324 0.008686902 -0.0491602
-0.010607908 0.024071349 -0.071775295 -0.09858451 -0.06901282 -0.19580022 -0.0024953762 0.033962335
0.026283797 -0.023348022 -0.029256977 -0.12425852 0.06616273 -0.03204617 -0.100421295 -0.01454051
-0.03996963 -0.08294399 -0.031226704 -0.08247706 -0.021952141 0.10710072 -0.03719866 0.08323396
-0.030531943 0.029505378 0.054935526 -0.041566208 -0.013989148 0.047982123 0.15187943 -0.14102128
-0.08775822 0.05330336 -0.12566085 0.10579725 -0.058050424 0.04421871 -0.15968166 -0.0007269221
0.02009587 0.053266615 -0.07507311 0.047872107 -0.10707457 0.06048823 -0.12486954 0.038383853
-0.025245445 0.057445634 -0.09789848 -0.1688947 -0.07637242 0.004268553 -0.07166648 0.107434206
-0.080969 -0.029853152 -0.034449775 0.0248544 -0.035395127 -0.015700586 -0.14786392 -0.007840153
0.061677124 -0.0858417 -0.1090654 0.009699828 0.077499636 -0.12460861 -0.09106607 -0.098351896
-0.13016811 -0.15409856 0.16898295 -0.09657336 0.04824755 -0.06251422 0.067048244 0.031219233
0.050738797 -0.0949995 0.06658951 -0.02046315 -0.017452354 0.03572827 -0.0535654 -0.13262092
-0.059700537 0.09607543 -0.049026817 0.019864593 0.060358934 0.040184952 0.07150263 0.043878134
0.041726593 -0.04438849 0.0058302274 -0.04868074 -0.19014095 0.008445184 -0.034702316 0.05910387
0.00759995 0.026548479 -0.044335224 0.02099201 0.03177569 -0.13191234 0.024082541 -0.09789605
-0.047702536 -0.005969538 -0.046816196 0.04392587 -0.085797235 0.06565777 0.022265332 0.0046886266
-0.11621467 -0.0782112 -0.0786864 -0.06577605 -0.03507633 -0.12930042 -0.043724462 0.004740066
-0.048935838 -0.028371694 -0.06599545 0.04358033 -0.1032515 -0.053199627 0.1135325 -0.019303555
-0.12283921 -0.037858486 0.02873617 -0.007108837 0.089082666 0.056860883 -0.024355471 -0.08385327
-0.09097561 -0.045930024 -0.16535875 -0.12715921 -0.111647576 0.17850348 -0.051149637 -0.07369276
-0.10159126 -0.12137394 0.1395723 -0.10031352 -0.032772496 -0.026070565 0.02411109 -0.10136245
0.07075572 -0.10135452 0.014382911 0.10990913 0.03230835 -0.02779353 0.01656615 0.07917352
0.0074107284 -0.10142125 0.096106105 -0.056549527 0.034419775 0.112214684 -0.06570772 0.016177442
0.06532537 -0.033756856 0.1519953 -0.028441913 0.13987151 -0.006094955 0.03963509 0.010894679
-0.07564284 0.050316352 -0.09277575 -0.0413262 -0.090413 0.024946377 -0.017745892 0.026381396
0.082345895 0.008327238 0.049666077 -0.0695214 0.09723688 -0.09977219 0.14321597 0.122463904
-0.03283313 0.00044765935 -0.022161819 0.010886501 -0.055685285 0.031223493 0.1124883 -0.03914056
0.08168997 0.12688868 -0.011211717 0.14575385 -0.0058022607 0.09249426 -0.03245341 0.00042549698
0.0391472 -0.026882607 -0.008829407 0.14147732 0.13810927 -0.039508186 0.04975691 -0.033117983
-0.08886959 -0.005769624 -0.07553183 0.05594425 0.035208993 -0.08310912 0.091304876 0.0044112867
-0.12127631 0.07708248 -0.019832103 -0.08237351 0.075816624 0.01401862 0.059063777 -0.056926265

res_net1.conv2.bias f4 [24]
00000000: 732b 35bd af3e 5a3d fe7e 3dbd 99de 3ebb
00000010: 836f 68bd 0ce3 493d de2b 973d cc5c 98bd
00000020: dbff 26bd 9eb8 933d 3bf0 65bd c934 a33c
00000030: b1b6 1abd 25de fe3c f3c8 8a3d 1705 823d
00000040: c09e 5abd a20e 60bd 8606 6b3d c2fb 22bd
00000050: 27a1 b33d 7bfa 5b3d af0c 90bc 585a 6a3c
-0.04423089 0.053282436 -0.046263687 -0.0029124378 -0.05674697 0.049288794 0.07381414 -0.074395746
-0.040771347 0.07212947 -0.056137305 0.01992263 -0.037771884 0.031111786 0.06776609 0.06348627
-0.053374052 -0.054701455 0.057379268 -0.039790876 0.08770972 0.053705674 -0.017584173 0.014303766

res_net1.bn1.weight f4 [24]
00000000: 1f5c 7f3f a665 803f 994d 7a3f 2d16 8a3f
00000010: fc91 4e3f 1df4 7c3f 3037 813f f068 813f
00000020: 167b 753f bf5a 803f a38e 8e3f 4c0c 7c3f
00000030: 8d6a 863f 38d9 713f 4ec7 853f 6ac7 903f
00000040: 7232 803f dc7b 833f ff01 5f3f 6cff 7a3f
00000050: a62e 813f 36f3 873f 4c1e 813f 96a0 873f
0.9974994 1.0031021 0.97774655 1.0788018 0.80691504 0.9880999 1.0094967 1.0110149
0.9589094 1.0027694 1.1137279 0.98456264 1.0501267 0.94472075 1.0451448 1.1310856
1.0015395 1.0272174 0.8711242 0.9804599 1.0092361 1.0621097 1.0087371 1.0595882

res_net1.bn1.bias f4 [24]
00000000: 54ea d03d d589 60bd 149a f73b 860d 773d
00000010: d7aa 40be 305e f5bc 3440 ca3b fc8c 81bd
00000020: 807b 56bd 13a5 92bc 11a8 0abd f29b 683c
00000030: a639 f03c ab29 b53c 9c51 92bd db2d aabb
00000040: 90e8 34bd 87e4 173c 2edb 13be def3 febd
00000050: 21b3 99bd 3348 b73c b7e8 52bd 1bbb 173d
0.102009445 -0.054818947 0.0075562093 0.06031563 -0.1881517 -0.029952139 0.0061722044 -0.06325719
-0.052363873 -0.01790098 -0.033851687 0.0141973365 0.029324364 0.022114595 -0.07144472 -0.0051934547
-0.0441671 0.009270794 -0.14439079 -0.12448858 -0.07504869 0.022373294 -0.051491465 0.037043672

res_net1.bn1.running_mean f4 [24]
00000000: aee4 fd3b 3726 6c3d 3b30 fd3c 2c28 ff3d
00000010: 0163 eb3e dbfe b23e bb36 7a3d 33ee 913d
00000020: 1513 083e 8d5c 433c c4b9 4b3c 785b c63c
00000030: 0a45 213c 560d 1a3d fde2 a438 195e f23b
00000040: 79db 293e 8dbd ad3c 7f90 bc3e 7c6c fa3c
00000050: b0cb 363e e7dc 0e3d 97e8 f03c 066d 8a3c
0.007748208 0.057653632 0.030906787 0.12458834 0.4597397 0.34960064 0.06108735 0.07125511
0.13288529 0.011923921 0.012434427 0.024213538 0.00984312 0.037610374 7.862409e-05 0.007396471
0.16587628 0.021208549 0.36828992 0.030569308 0.17851138 0.034878638 0.029407782 0.01689769

res_net1.bn1.running_var f4 [24]
00000000: dcbb 503b 4374 253d 4b3c 8c3c 5fb9 8b3d
00000010: f80f 703e 10bc 5f3e 4130 f83c dc69 353d
00000020: 15fd ae3d 1879 a13b 0e34 fb3b f170 1f3c
00000030: da4a a53b 2274 c53c e92b c537 3b75 9e3b
00000040: 6a3d b43d 7cd1 213c ba96 643e b341 d53c
00000050: 7546 d63d 7c5b 8f3c f6c1 9c3c 5155 093c
0.0031850254 0.04039408 0.017118594 0.06822466 0.23443592 0.21849084 0.030296447 0.04429041
0.08544365 0.0049277656 0.0076661175 0.009731517 0.0050443234 0.024103228 2.3504677e-05 0.0048357523
0.08800776 0.009876605 0.22323123 0.026032304 0.10462657 0.017499678 0.019135457 0.008382157

res_net1.bn2.weight f4 [24]
00000000: 3b60 683f 7c70 7d3f 5750 503f ca7a 673f
00000010: aae7 573f 2387 653f 66b0 673f 10a2 663f
00000020: 56e2 773f dc05 5f3f 614c 643f 07a1 583f
00000030: 4db8 5e3f 0be2 5c3f a7e4 733f e1ab 6b3f
00000040: a811 763f 695f 7a3f d766 5d3f fda0 833f
00000050: 96ca 623f 2497 763f 7eea 5a3f 8cf4 623f
0.90771836 0.9899976 0.8137259 0.90421736 0.84337866 0.8965933 0.9050354 0.9009104
0.96829736 0.87118316 0.89179045 0.8462071 0.8699997 0.86282414 0.9527077 0.9205914
0.9612069 0.97801834 0.86485046 1.0283505 0.8859037 0.9632437 0.85514057 0.886544

res_net1.bn2.bias f4 [24]
00000000: 8e90 87bd 0094 cf3d 7fdc c43b fc16 303d
00000010: adba acbc 25ef 5fbd 25b1 9fbd e5cd 81bb
00000020: 618f bc3d b591 9ebb 79e8 9e3d c32d 063d
00000030: eacd 4cbc bd17 d1bd 309e a83d b8cd 39bd
00000040: 6e11 1fb9 d6a4 a03d 862f b8bd 3fbb 723d
00000050: 960c 13bd 6506 903d b366 6f3b 82fc bdbd
-0.066193685 0.10135651 0.0060077305 0.04299067 -0.021085108 -0.054671425 -0.077974595 -0.003961312
0.09207035 -0.004839147 0.077591844 0.032758486 -0.012500266 -0.10209606 0.08233297 -0.045362204
-0.00015169915 0.0784394 -0.089934394 0.059260603 -0.035900675 0.0703247 0.003652972 -0.09276678

res_net1.bn2.running_mean f4 [24]
00000000: 80ba 6ebf 8a5b f13e 1584 6b3d 5b71 19bf
00000010: b13b 7d3f a483 2cbf c130 bc3f 568b bf3e
00000020: 5d9a 83be 7dd9 ba3e 6b3d 4abf 7b94 4abf
00000030: 0208 34bf 66e2 bf3e 474e 2f3e e679 5dbe
00000040: fab7 94be 516d 89bf 8443 b73e 297a 1cbf
00000050: 7719 c4be 3939 953e 1517 a63e 301d ca3d
-0.93253326 0.4714015 0.05749901 -0.5993859 0.98919207 -0.6738837 1.4702379 0.37410992
-0.25703707 0.36494055 -0.78999966 -0.79132813 -0.7032472 0.37477416 0.17119704 -0.21628532
-0.29046613 -1.0736486 0.35793698 -0.611239 -0.38300678 0.2914522 0.32439485 0.09868848

res_net1.bn2.running_var f4 [24]
00000000: 0bbc 9e3f 2c06 843f 8881 7e3f 1211 9a3f
00000010: ed31 ad3f 774b 8e3f 57d1 bb3f e8c9 7c3f
00000020: 3929 8b3f d03f 813f f865 863f 478f ac3f
00000030: dc4f 943f 30d9 853f a777 803f 7441 693f
00000040: 64be 853f 0a11 b13f 2d12 8b3f ea36 7f3f
00000050: ddd7 893f 4052 833f 179a 5d3f 6b66 753f
1.2401136 1.0314384 0.994164 1.203646 1.3530861 1.111678 1.467326 0.98745584
1.0871955 1.0097599 1.0499868 1.3481225 1.1586871 1.0456905 1.0036515 0.911155
1.0448728 1.3833325 1.0864922 0.9969317 1.0769001 1.0259476 0.8656325 0.958594

res_net1.ecalayer.conv.weight f4 [1, 1, 3, 3]
00000000: 905e 9d3d 9dd9 953e 52ec 373e ad6f 8bbe
00000010: 0745 0e3e d340 013d 6410 9cbe 25b6 993e
00000020: 1e1e 2abe
0.07684052 0.29267588 0.17961243 -0.2723364 0.1389352 0.03155596 -0.30481255 0.30021778
-0.16613051
