A2S2KResNet/models/S3KAIResNetpatch_7_UP_split_0.9_lr_0.001adam_kernel_240.998.pt (torch, 932172 bytes, 94 tensors)

conv1x1.weight f4 [24, 1, 1, 1, 7]
0	0xbeac9592	-0.33707863
1	0xbee09b38	-0.43868423
2	0xbe564460	-0.2092452
3	0x3d779b83	0.060451042
4	0xbd9ec303	-0.07752039
5	0x3c0969b4	0.008387018
6	0xbdb760e1	-0.08954025
7	0xbf1e30b3	-0.6179306
8	0x3cb64303	0.02224875
9	0x3c725734	0.014791299
10	0xbe3f2ab0	-0.18668628
11	0x3d664f6e	0.056228094
12	0xbdbfb546	-0.09360747
13	0xbc93260a	-0.017962474
14	0xbe80c85f	-0.2515287
15	0xbd16a5e3	-0.036779296
16	0x3cefc58b	0.029269
17	0xbe891ee9	-0.26781395
18	0xbe97858c	-0.29594076
19	0x3ed43d64	0.41453087
20	0xbe4bcc82	-0.19902232
21	0x3f02870b	0.5098731
22	0xbe991066	-0.29895324
23	0xbe839770	-0.25701475
24	0xbe2c1484	-0.16804701
25	0x3d81970d	0.06327639
26	0x3e4c4718	0.19948995
27	0xbe0a2309	-0.13489927
28	0x3e8e0414	0.27737486
29	0x3e7275ed	0.23677798
30	0x3e079bc8	0.1324302
31	0xbead99f1	-0.3390651
32	0xbd17384b	-0.03691892
33	0x3e378177	0.1792048
34	0xbec04353	-0.37551364
35	0xbe88259c	-0.26591194
36	0xbeb09752	-0.34490448
37	0x3e2d4de3	0.16924243
38	0xbed4a862	-0.41534716
39	0x3d80a06c	0.06280598
40	0xbd9f8cbd	-0.077905156
41	0xbe62871a	-0.2212185
42	0xbd150a84	-0.03638698
43	0xbe76a21a	-0.24085274
44	0xbe08b5b3	-0.13350563
45	0x3e8c357c	0.27384555
46	0x3d91b20a	0.071140364
47	0x3e5565b6	0.20839581
48	0x3e3ed447	0.18635665
49	0x3e446e0f	0.19182609
50	0x3eb6f17f	0.35731122
51	0xbdf58fde	-0.11990331
52	0xbe40fcbe	-0.18846413
53	0x3e1704c8	0.14747918
54	0xbd9e51aa	-0.0773042
55	0xbe9823d7	-0.29714844
56	0x3e92ec71	0.28696015
57	0x3eb7b900	0.3588333
58	0x3dfc6170	0.12323272
59	0x3e019895	0.12655862
60	0xbecbc439	-0.39798144
61	0xbe25da0f	-0.16196464
62	0x3cbfd5c6	0.023417365
63	0xbe13a16c	-0.14417046
64	0xbea21b59	-0.3166149
65	0x3eccf8f8	0.40033698
66	0xbc9bf88c	-0.019039415
67	0xbe6ff8e1	-0.23434784
68	0x3e6ded91	0.23235156
69	0x3e0021b1	0.12512852
70	0x3e15a6bd	0.14614387
71	0xbe5bdf0d	-0.21471806
72	0xbeaf812f	-0.34278247
73	0x3eb474e4	0.3524543
74	0xbd814c06	-0.063133284
75	0x3e6e6efd	0.23284526
76	0xbdebbf50	-0.11511099
77	0xbec1ec40	-0.37875557
78	0x3e4aba23	0.19797568
79	0xbd0a5fe3	-0.03378285
80	0xbdf30423	-0.118660234
81	0xbea1330f	-0.31484267
82	0xbd8c2d4f	-0.068445794
83	0x3d5c8117	0.053834047
84	0x3ee2d032	0.44299465
85	0xbd6d0bd6	-0.057872616
86	0x3dd9f538	0.10642475
87	0x3e462584	0.19350249
88	0x3e436bb3	0.19084053
89	0xbe3eccf5	-0.18632872
90	0x3db01c82	0.085991874
91	0x3e7348cb	0.23758237
92	0x3ed05689	0.4069102
93	0x3e66ee71	0.22551896
94	0xbe992c8b	-0.29916796
95	0x3de2bc38	0.11071056
96	0x3e711969	0.2354485
97	0x3b8bdd2b	0.0042683086
98	0x3c90164b	0.017588755
99	0xbe48d4a0	-0.1961236
100	0x3e621826	0.22079524
101	0x3e946dcb	0.28990015
102	0xbd8aa79e	-0.06770252
103	0x3e7aa2cb	0.24476163
104	0x3e914f7c	0.28380954
105	0x3ca04949	0.019566195
106	0x3e930724	0.28716385
107	0xbeb89626	-0.36052054
108	0xbe92ce31	-0.28672937
109	0xbe97169a	-0.2950943
110	0xbec63f19	-0.38720015
111	0xbe56ec7a	-0.20988646
112	0xbdbc1fe8	-0.09185773
113	0x3d553c2b	0.052059334
114	0xbe3a2281	-0.18177225
115	0xbed5cc6a	-0.41757518
116	0xbeac6f5c	-0.3367871
117	0xbedaf07f	-0.4276161
118	0xbe4880d2	-0.19580391
119	0x3e8a2e7f	0.269886
120	0xbe6b9102	-0.23004535
121	0xbeb8380b	-0.35980257
122	0x3d4f6065	0.05062904
123	0xbd7cc014	-0.061706617
124	0xbebfdefa	-0.37474805
125	0xbd5a4f7a	-0.05329845
126	0xbe8a8426	-0.27053946
127	0x3d73e329	0.05954281
128	0xbe63b74a	-0.22237888
129	0xbe39d57c	-0.18147844
130	0x3d48e731	0.049048606
131	0x3eccf724	0.40032303
132	0x3e70a4b3	0.23500328
133	0x3d774558	0.060368866
134	0x3eb43057	0.3519313
135	0x3d812c08	0.063072264
136	0xbe21d874	-0.15805227
137	0x3e68a5f3	0.22719555
138	0x3e43ed7b	0.1913356
139	0xbdab8b73	-0.08376207
140	0xbe34832d	-0.17628165
141	0xbec76e24	-0.38951218
142	0xbecee8a2	-0.4041186
143	0x3d3e5450	0.046467125
144	0x3e0a2030	0.13488841
145	0x3dbdac82	0.09261419
146	0xbd69295f	-0.05692422
147	0x3e8635bd	0.26212874
148	0xbe666041	-0.22497655
149	0xbcf0cab3	-0.02939353
150	0x3ea91fad	0.3303198
151	0x3c1af362	0.009457441
152	0xbdc09f9e	-0.094054446
153	0xbe79bb51	-0.24387862
154	0x3c8fea77	0.017567856
155	0x3ea8d36a	0.32973796
156	0x3e07b9f2	0.13254526
157	0xbe865ab0	-0.26241064
158	0x3eba05c2	0.36332518
159	0x3d42e94b	0.047585767
160	0xbe320404	-0.17384344
161	0x3ef451a3	0.47718534
162	0x3e7b136f	0.24519132
163	0xbefc8508	-0.49320245
164	0xbdb6437f	-0.088995926
165	0x3d94c200	0.07263565
166	0x3e7eec7e	0.24894902
167	0x3d756b90	0.059917033

conv1x1.bias f4 [24]
0	0xbe1a7cb1	-0.15086628
1	0xbea1cb51	-0.3160043
2	0x3e30b6c0	0.17257214
3	0xbe99cea9	-0.30040482
4	0xbdfc95d7	-0.12333267
5	0xbeb577b2	-0.35442883
6	0x3eb2f72a	0.34954196
7	0xbe11b414	-0.1422885
8	0xbdd557b2	-0.10417117
9	0x3ebd7993	0.37006816
10	0xbeb76590	-0.35819674
11	0xbd85358c	-0.06504354
12	0xbe47d23e	-0.19513795
13	0x3eb7b5c6	0.3588087
14	0x3d5179d4	0.051141575
15	0x3ec15b53	0.37764987
16	0xbe085a50	-0.13315701
17	0xbe64fea4	-0.22362763
18	0xbdda65b9	-0.10663933
19	0xbe2740d2	-0.1633332
20	0xbd2cf60f	-0.042226847
21	0x3e5fc7e7	0.218536
22	0x3e32e5fc	0.17470545
23	0x3e9a10a4	0.3009082

conv3x3.weight f4 [24, 1, 3, 3, 7]
0	0x3e088659	0.133325
1	0x3dd8e81e	0.10591148
2	0xbd92e041	-0.07171679
3	0x3dd6db04	0.10490993
4	0x3d64bfc1	0.055846933
5	0xbe25ac8b	-0.16179101
6	0x3dd2cf23	0.102934144
7	0x3e3523bf	0.17689417
8	0x3e3b6465	0.18300016
9	0x3dba7c73	0.09105768
10	0xbd92cb9b	-0.07167741
11	0x3e4185bb	0.1889867
12	0xbe318672	-0.17336443
13	0x3cafa829	0.02144249
14	0x3e0f4ce8	0.13994181
15	0x3e02d654	0.12777072
16	0xbe015ed2	-0.12633827
17	0x3dbf1937	0.09330981
18	0xbdbf89f8	-0.09352487
19	0x3b42e13e	0.0029736306
20	0x3db0dd7c	0.08635995
21	0x3d031db1	0.032010738
22	0x3e1b275f	0.15151738
23	0x3cd151fb	0.025551787
24	0x3e15def5	0.14635833
25	0xbc093d15	-0.0083763795
26	0xbe04edef	-0.1298139
27	0xbd82a34e	-0.06378804
28	0x3daa9096	0.08328359
29	0x3e5fa5c7	0.21840583
30	0xbbe3331b	-0.0069335825
31	0x3e0ac9f4	0.13553602
32	0x3c9b2c08	0.018941894
33	0xbc86282b	-0.016376575
34	0x3e4b7288	0.19867909
35	0x3df512da	0.11966486
36	0x3e67ccb6	0.22636685
37	0xbca62fd5	-0.02028648
38	0xbd824437	-0.06360667
39	0x3e2b8f1a	0.16753808
40	0x3d452570	0.048131406
41	0x3e20b506	0.15694055
42	0x3da4e2f7	0.080511026
43	0x3e00356d	0.1252038
44	0xbbabb88c	-0.0052405056
45	0x3da20906	0.07911877
46	0xbd6ee228	-0.05832115
47	0xbd2c0a8f	-0.042002257
48	0x3c158138	0.009125046
49	0x3d224ffb	0.039627057
50	0x3cf4b656	0.0298721
51	0xbe3cd039	-0.18438806
52	0xbd33c738	-0.04389116
53	0x3e20cb9a	0.15702668
54	0xbe551c5f	-0.20811604
55	0x3d6ef7b3	0.058341693
56	0xbd8f8d8a	-0.07009418
57	0x3c8733de	0.016504224
58	0xbe2e6799	-0.17031707
59	0xbe6fe40c	-0.23426837
60	0x3e0e4b90	0.13896012
61	0xbdec4af9	-0.115377374
62	0x3d308314	0.043093756
63	0xbe32e968	-0.1747185
64	0xbdb292b0	-0.08719385
65	0xbd97024c	-0.07373485
66	0xbd8ea7ab	-0.06965574
67	0x3b2a1d66	0.0025957464
68	0xbe2079c8	-0.15671456
69	0xbd4a5805	-0.04940035
70	0xbe7277db	-0.23678534
71	0x3cac1e6c	0.0210106
72	0xbdf73c4f	-0.1207205
73	0xbe282570	-0.16420531
74	0xbd9c1833	-0.07621803
75	0x3d97281b	0.073806964
76	0x3ca893d1	0.020578297
77	0xbe26714e	-0.1625416
78	0xbce57876	-0.028011542
79	0xbc0cde8b	-0.00859798
80	0x3d9ca9bf	0.07649564
81	0xbd67a3f3	-0.05655284
82	0x3d61fe4c	0.055174157
83	0x3e125ec5	0.14293964
84	0xbe604a5b	-0.21903364
85	0x3df359fc	0.118823975
86	0x3d9944aa	0.074838
87	0xbe27dd4a	-0.16393009
88	0xbd79e39d	-0.061008085
89	0xbbdbe4da	-0.006710631
90	0x3d0c41f0	0.03424257
91	0xbd0fec02	-0.035137184
92	0xbdcb90bf	-0.099397175
93	0xbdf270b5	-0.118379034
94	0xbb6a78c4	-0.0035777548
95	0x3dcd47a0	0.10023427
96	0x3d5e6edf	0.054304954
97	0x3e430ef7	0.19048677
98	0xbe44487a	-0.19168273
99	0x3c837d1d	0.01605087
100	0xbdc76cc8	-0.09737545
101	0xbd7b9776	-0.06142374
102	0x3d466ade	0.04844176
103	0x3d2dce70	0.042433202
104	0x3ddbffa1	0.10742117
105	0xbe07dd4f	-0.13268016
106	0xbe18a909	-0.14908232
107	0x3d3948cb	0.045235436
108	0xbd84bdb8	-0.064814985
109	0xbbf70cd7	-0.0075393724
110	0x3c46207c	0.012092706
111	0xbcdf4d1f	-0.027258454
112	0xbeb18ef5	-0.3467938
113	0xbbe56e58	-0.0070016794
114	0xbcfe7664	-0.031062312
115	0x3d14aea4	0.036299363
116	0xbba1e0f3	-0.004940146
117	0xbe5039fc	-0.2033462
118	0xbc7ca187	-0.0154193705
119	0xbeb62fd8	-0.35583377
120	0xbdbe8521	-0.09302736
121	0xbcd32ba3	-0.025777644
122	0x3e099dba	0.13439074
123	0x3e184ebc	0.14873785
124	0xbe19961f	-0.14998673
125	0xbd3e462b	-0.046453636
126	0xbd779338	-0.060443133
127	0x3e0ababb	0.13547795
128	0x3da9a126	0.0828269
129	0xbc1aebe9	-0.009455659
130	0xbd86dc6a	-0.065850094
131	0xbe3110ad	-0.17291518
132	0xbd978f27	-0.07400351
133	0xbdb972f1	-0.090551265
134	0x3e52713d	0.2055101
135	0x3d492cdc	0.049115047
136	0xbc9fa944	-0.019489892
137	0x3de3cc22	0.111229196
138	0x3dfdeeef	0.123990886
139	0x3dc4c8f7	0.096086435
140	0xbdf3e793	-0.11909404
141	0x3e08d3a9	0.13361992
142	0xbd3ac67f	-0.045599457
143	0x3ca7b99b	0.020474246
144	0xbde4fed5	-0.11181418
145	0x3e1413d9	0.14460696
146	0x3e04d061	0.12970115
147	0x3d52ae32	0.051435657
148	0x3e0ca1c5	0.13733585
149	0x3db44af9	0.088033624
150	0x3d8505a6	0.06495218
151	0xbd5bf980	-0.05370474
152	0xbe02f3fa	-0.12788382
153	0x3d121861	0.03566778
154	0xbe81f421	-0.25381568
155	0xbd44866f	-0.04797977
156	0x3bbd656c	0.0057799127
157	0x3d6513f4	0.055927232
158	0xbdedcd57	-0.11611431
159	0x3daccab4	0.084371
160	0x3db66aa2	0.08907057
161	0xbe3dfe29	-0.18553986
162	0x3d223482	0.039600857
163	0x3da423cb	0.080146395
164	0x3adb0c87	0.0016712107
165	0xbca0baab	-0.01962026
166	0xbc787f1c	-0.015167024
167	0x3e119bac	0.1421954
168	0xbebc47e0	-0.36773586
169	0xbd669eb4	-0.056303695
170	0x3e13ebc2	0.14445403
171	0x3e0d79a7	0.13815938
172	0xbd9d1cb5	-0.07671491
173	0xbd91d78a	-0.07121189
174	0xbce1f4fc	-0.027582638
175	0xbe24fe6e	-0.16112682
176	0xbcdcab3f	-0.026937125
177	0xbcad555b	-0.021158865
178	0xbe4ee742	-0.20205405
179	0xbd3e3bad	-0.04644363
180	0xbd3da2fe	-0.04629802
181	0x3db97fd3	0.09057584
182	0xbe519b01	-0.20469286
183	0x3d68520c	0.05671887
184	0x3c885df5	0.016646365
185	0x3c9a89da	0.01886456
186	0xbc079085	-0.008274202
187	0x3e08e4ae	0.13368484
188	0x3d3a3a3d	0.045465697
189	0x3de35685	0.11100487
190	0x3b9ae1ea	0.004726638
191	0x3dc61611	0.096721776
192	0x3decdffe	0.115661606
193	0xbdb51f58	-0.08843869
194	0xbd33e4ec	-0.04391949
195	0x3db8d3d0	0.09024775
196	0x3eb2e921	0.34943488
197	0x3d1439d5	0.036187965
198	0xbd585720	-0.052817464
199	0x3de19671	0.110150225
200	0xbe28139c	-0.1641373
201	0x3c264bfc	0.010149952
202	0x3e2873ea	0.16450468
203	0x3eaa76e2	0.33293825
204	0x3c3df984	0.011595134
205	0xbc144721	-0.009050162
206	0x3d9c96a7	0.07645922
207	0xbd78de81	-0.06075907
208	0x3d0b034d	0.033938695
209	0x3e5e1b8f	0.216902
210	0xbd0961e4	-0.03354062
211	0x3d0cb906	0.03435614
212	0xbd7f41b7	-0.06231853
213	0x3d0c7bb6	0.034297667
214	0xbd0445cd	-0.03229313
215	0x3c6eb0d9	0.014568531
216	0x3df1bf53	0.1180407
217	0x3e3a5662	0.18197015
218	0x3ca185b2	0.019717071
219	0x3dfc3a7e	0.12315844
220	0xbd977a2c	-0.07396349
221	0xbdf3f5a3	-0.11912086
222	0xbdcfb72f	-0.101423614
223	0x3e23fa26	0.16013393
224	0x3e3863a6	0.18006763
225	0xbd13e8c5	-0.03611066
226	0x3d4a6ca7	0.049420025
227	0xbd1f7288	-0.038927585
228	0x3dab373e	0.08360146
229	0x3df8d17f	0.12149333
230	0x3d67371d	0.056449044
231	0x3d609c1b	0.054836374
232	0x3df7b812	0.120956555
233	0xbd2313d7	-0.039813843
234	0x3deb05ea	0.114757374
235	0xbdb09803	-0.08622744
236	0x3c91bb65	0.017789552
237	0x3e73d749	0.23812594
238	0x3e21bf26	0.15795574
239	0xbd94c480	-0.07264042
240	0xbcf00535	-0.029299358
241	0xbc69eacf	-0.014277174
242	0xbd1486c6	-0.036261342
243	0xbd2c9a19	-0.042139146
244	0x3e33e2a3	0.17566924
245	0x3cd67abc	0.026181571
246	0x3cc022fa	0.023454178
247	0x3daa887a	0.08326812
248	0x3e0fca5e	0.1404204
249	0x3c329b60	0.010901302
250	0x3a28d8a5	0.0006440974
251	0x3e195617	0.14974247
252	0x3dc9f271	0.09860695
253	0xbd5f37fd	-0.054496754
254	0xbd22ce90	-0.039747775
255	0xb92b7b29	-0.00016353712

conv3x3.bias f4 [24]
0	0x3de1c0ea	0.110231236
1	0xbba48bad	-0.0050215335
2	0x3d9598e0	0.07304549
3	0xbdb552ef	-0.08853709
4	0x3c7d9ca3	0.01547924
5	0x3c83496d	0.016026223
6	0xbe14a055	-0.14514287
7	0x3cdf3b3c	0.027249925
8	0x3c8f250e	0.017473724
9	0xbdad666b	-0.084668
10	0x3d30b45c	0.043140754
11	0x3d1a5961	0.037682895
12	0x3db29960	0.0872066
13	0x3dd5d65e	0.10441278
14	0xbdd69f4b	-0.104796015
15	0xbdda246b	-0.106514774
16	0x3d450b37	0.0481064
17	0x3ca3a7b6	0.019977432
18	0x3ca1141e	0.019662913
19	0xbde3eb20	-0.11128831
20	0xbdc04b14	-0.0938932
21	0x3e04ebfe	0.12980649
22	0x3dfcd15b	0.12344619
23	0xbb2eabf8	-0.0026652794

batch_norm1x1.0.weight f4 [24]
0	0x3f9b174b	1.2116483
1	0x3f9e21db	1.2354082
2	0x3f7accb6	0.97968614
3	0x3f86c4ef	1.0528849
4	0x3f7af567	0.98030704
5	0x3f97a155	1.184611
6	0x3f839c5e	1.0282094
7	0x3f9657be	1.1745527
8	0x3f835e11	1.0263082
9	0x3f882aad	1.0638024
10	0x3f621654	0.8831532
11	0x3f8d8fd1	1.1059514
12	0x3f8d2276	1.1026142
13	0x3f755ed6	0.95847833
14	0x3f93a28c	1.153398
15	0x3f5b1a74	0.8558724
16	0x3f8192e7	1.0122956
17	0x3f6a37a3	0.91491145
18	0x3f850341	1.0391618
19	0x3f6dc893	0.92884177
20	0x3f939eee	1.1532876
21	0x3f63f489	0.89045006
22	0x3f7dd015	0.99145633
23	0x3f920944	1.1409078

batch_norm1x1.0.bias f4 [24]
0	0xbcb78b41	-0.022405269
1	0x3d142c7e	0.036175244
2	0xbe19ebf4	-0.15031415
3	0xbcc14545	-0.0235926
4	0xbd1cc47a	-0.038273312
5	0xbce605a5	-0.028078863
6	0xbda1ba04	-0.07896808
7	0xbddd1d0e	-0.10796557
8	0xbdaa1a23	-0.083057664
9	0xbd7f1f82	-0.062285908
10	0xbe5f0804	-0.21780401
11	0xbd292f08	-0.041304618
12	0xbdf31cfc	-0.11870763
13	0xbd2fdb74	-0.042933896
14	0xbd919d99	-0.071101375
15	0xbe3ce97c	-0.18448442
16	0xbbe0404b	-0.006843602
17	0xbde32c15	-0.11092392
18	0xbe125e54	-0.14293796
19	0xbd9fa475	-0.077950396
20	0x3cdb5577	0.026774151
21	0xbe1d9902	-0.15390399
22	0xbd150a19	-0.036386583
23	0x3cd51295	0.026009837

batch_norm1x1.0.running_mean f4 [24]
0	0xbe1cdf17	-0.15319477
1	0xbea30951	-0.31843045
2	0x3e3064c7	0.17225944
3	0xbe987797	-0.2977874
4	0xbdf78d7c	-0.12087533
5	0xbeb51500	-0.35367584
6	0x3eb2a66f	0.34892604
7	0xbe112ff2	-0.14178446
8	0xbdd522cd	-0.10407028
9	0x3ebe2017	0.37133858
10	0xbeb80dc6	-0.35948008
11	0xbd8a29f8	-0.06746286
12	0xbe45a295	-0.19300301
13	0x3eb9466f	0.3618655
14	0x3d54b811	0.051933352
15	0x3ec04bb9	0.37557772
16	0xbe09c816	-0.13455233
17	0xbe65bf8c	-0.2243635
18	0xbddbbef6	-0.10729782
19	0xbe25f1da	-0.1620554
20	0xbd341ac8	-0.043970853
21	0x3e5fc6cd	0.2185318
22	0x3e34899a	0.17630616
23	0x3e9a9c0b	0.30197176

batch_norm1x1.0.running_var f4 [24]
0	0x3ea29ea6	0.31761664
1	0x3ebcb633	0.36857757
2	0x3ebfc47d	0.37454596
3	0x3eda457c	0.42631137
4	0x3ec5e070	0.38647795
5	0x3ec34b23	0.38143262
6	0x3e4d399d	0.20041509
7	0x3e96bac3	0.29439363
8	0x3ebe6776	0.3718831
9	0x3eb6197f	0.35566327
10	0x3ea3a4c0	0.31961632
11	0x3e85c825	0.2612926
12	0x3e905997	0.28193352
13	0x3ec07c6b	0.37594923
14	0x3e8df70d	0.27727547
15	0x3f015ab5	0.5052903
16	0x3ef1a3ad	0.47195187
17	0x3eaf99a2	0.342969
18	0x3ea74da4	0.32676423
19	0x3e646cd6	0.22307143
20	0x3ea49494	0.32144606
21	0x3e833e7f	0.25633618
22	0x3ea22591	0.31669286
23	0x3f074646	0.52841604

batch_norm3x3.0.weight f4 [24]
0	0x3f8c7655	1.0973612
1	0x3f8e7394	1.1129022
2	0x3f87e89c	1.0617862
3	0x3f7c8e1c	0.9865434
4	0x3f86cc8e	1.0531175
5	0x3f71d190	0.9446039
6	0x3f8f012b	1.1172231
7	0x3f9785ee	1.1837747
8	0x3f712496	0.9419645
9	0x3f84048d	1.0313889
10	0x3f82d889	1.0222331
11	0x3f630263	0.88675517
12	0x3f6a2ab2	0.914714
13	0x3f82039e	1.0157354
14	0x3f87f404	1.0621343
15	0x3f8ac115	1.0840174
16	0x3f8a8464	1.0821652
17	0x3f8764ad	1.0577599
18	0x3f8f8415	1.1212183
19	0x3f7bb5cb	0.9832427
20	0x3f9fffbf	1.2499923
21	0x3f7fe586	0.999596
22	0x3f841b53	1.0320839
23	0x3f7e723f	0.99393076

batch_norm3x3.0.bias f4 [24]
0	0xbe2ac929	-0.16678299
1	0x3c098f47	0.008395976
2	0xbdf2c93e	-0.1185479
3	0xbda1e673	-0.07905283
4	0xbd9bc22a	-0.07605393
5	0xbdb41847	-0.08793693
6	0x3d771dbb	0.060331088
7	0xbd24256e	-0.04007476
8	0xbe0a4ac5	-0.13505085
9	0x3da9313d	0.082613446
10	0xbe7c1b19	-0.24619712
11	0xbe64ac69	-0.22331394
12	0xbe52004f	-0.2050793
13	0xbca6fc40	-0.020383954
14	0xbd892791	-0.06697
15	0xbd0590cd	-0.032608796
16	0x3d12db89	0.035853896
17	0xbe0fc656	-0.14040503
18	0x3bda8893	0.006669113
19	0xbc098ace	-0.00839491
20	0x3d7895a4	0.060689583
21	0xbdd3d790	-0.1034385
22	0xbd5858f7	-0.05281922
23	0xbdb930c0	-0.090425014

batch_norm3x3.0.running_mean f4 [24]
0	0x3de43601	0.11143113
1	0xbc526e94	-0.012843747
2	0x3d8b9700	0.0681591
3	0xbda85a61	-0.082203634
4	0x3c8dc418	0.017305419
5	0x3c4f5cf2	0.012656437
6	0xbe0fdcbd	-0.14049049
7	0x3cf1f089	0.029533641
8	0x3c233e6a	0.009963611
9	0xbda65eaf	-0.08123528
10	0x3d3b9ac2	0.045801885
11	0x3d219404	0.0394478
12	0x3db308a5	0.08741883
13	0x3dd292f1	0.10281933
14	0xbdda1ff6	-0.10650627
15	0xbdd2542e	-0.10269962
16	0x3d4cef9a	0.05003319
17	0x3c96b154	0.018395104
18	0x3cb14c2e	0.02164277
19	0xbde1d023	-0.11026027
20	0xbdcc03c1	-0.099616535
21	0x3e0846e0	0.13308287
22	0x3df5cc01	0.12001801
23	0x3b46e56d	0.003034915

batch_norm3x3.0.running_var f4 [24]
0	0x3f50dcbe	0.81586826
1	0x3f5b2671	0.8560553
2	0x3f328d30	0.69746685
3	0x3f47cc95	0.7804654
4	0x3f307f32	0.68944085
5	0x3f107e09	0.56442314
6	0x3f485fce	0.78271186
7	0x3f62220a	0.8833319
8	0x3f1f7db7	0.623012
9	0x3f344b6c	0.70427585
10	0x3f0e0696	0.554788
11	0x3f0395c6	0.5140041
12	0x3f12df90	0.5737238
13	0x3f30f63e	0.69125736
14	0x3f5ded10	0.86689854
15	0x3f417246	0.7556499
16	0x3f2815f0	0.65658474
17	0x3f2b2aa1	0.6686192
18	0x3f286352	0.6577655
19	0x3f50adb4	0.8151505
20	0x3f368336	0.7129396
21	0x3f0f4919	0.55970913
22	0x3f217574	0.63069844
23	0x3f4448d5	0.7667363

conv_se.0.weight f4 [51, 24, 1, 1, 1]
0	0xbd91ff25	-0.07128743
1	0x3da16369	0.07880289
2	0x3de8c42b	0.11365541
3	0x3defcf9a	0.11709519
4	0xbe398f99	-0.18121184
5	0xbcf443cc	-0.029817484
6	0xbd4f2e84	-0.05058147
7	0xbdc53bde	-0.096305594
8	0x3e4b61b0	0.19861484
9	0x3df0d19c	0.1175873
10	0x3dcbb6e0	0.0994699
11	0x3e0eef1d	0.13958402
12	0x3d967e23	0.073482774
13	0x3e15716c	0.14594048
14	0x3e4b0f59	0.19830073
15	0xbdf289d3	-0.11842694
16	0x3c7e1aa0	0.015509278
17	0x3e4a5e20	0.19762468
18	0x3e0cfda3	0.1376863
19	0xbdcea581	-0.10090161
20	0x3e38adfe	0.18035123
21	0x3dae978f	0.08525001
22	0x3af76e7f	0.0018877535
23	0x3de7eb04	0.113241225
24	0xbdacf024	-0.08444241
25	0x3c0558b4	0.008138824
26	0x3df5670d	0.11982546
27	0x3d964cc5	0.073388614
28	0xbca42fd1	-0.020042332
29	0xbcc1959b	-0.023630908
30	0x3dd23c5f	0.10265421
31	0xbccd28d5	-0.025043884
32	0xbd5f3ed3	-0.054503273
33	0x3d36c1e0	0.044618487
34	0xbe263956	-0.1623281
35	0x3e0273ea	0.1273953
36	0x3e0f4c4d	0.1399395
37	0x3e3f15e7	0.18660699
38	0x3e5040f4	0.20337278
39	0xbe4fbdce	-0.20287248
40	0x3d26000e	0.040527396
41	0xbda96c56	-0.082726166
42	0xbdced7f7	-0.10099786
43	0xbdb77588	-0.08957964
44	0x3e2e2990	0.17008042
45	0xbbdc5aa4	-0.0067246724
46	0x3e16743e	0.1469278
47	0x3e142de2	0.14470628
48	0xbd9d0356	-0.07666652
49	0x3d4e1fb0	0.05032319
50	0x3d4d56a0	0.05013144
51	0xbe0aac3f	-0.13542269
52	0x3b998d60	0.0046860427
53	0x3bf60d40	0.0075089037
54	0xbdef6146	-0.11688475
55	0x3ceb5e80	0.028731585
56	0xbcc3bb20	-0.02389294
57	0x3bbbd040	0.0057316124
58	0x3dca9934	0.098925024
59	0xbd936d24	-0.07198551
60	0xbe2d7481	-0.16938974
61	0xbddfae3c	-0.109219044
62	0xbd7af4f0	-0.061268747
63	0x3d501648	0.0508025
64	0x3d97da50	0.07414687
65	0xbe3fba85	-0.18723495
66	0xbe4d3178	-0.20038402
67	0x3dcf8434	0.101326376
68	0xbbb81560	-0.0056177825
69	0xbd97bdac	-0.07409224
70	0xbe4726ac	-0.19448346
71	0x3c352090	0.011055127
72	0xbd9737ce	-0.07383691
73	0xbd4bde78	-0.04977271
74	0xbc1e63f0	-0.009667382
75	0xbe0daaa3	-0.13834624
76	0xbdc32915	-0.0952932
77	0x3b7ae500	0.0038283467
78	0xbe47c8fc	-0.19510263
79	0xbe2bd942	-0.16782096
80	0xbe4cb47d	-0.19990726
81	0x3d6502d8	0.055910915
82	0xbb09b840	-0.0021014363
83	0xbdb8696a	-0.09004481
84	0xbda7ab09	-0.08186919
85	0x3e225c94	0.15855628
86	0xbca86c60	-0.02055949
87	0xbe4be8d8	-0.19913042
88	0x3c9efc68	0.019407466
89	0x3e501306	0.20319757
90	0xbd13a4e0	-0.03604591
91	0x3d8471c8	0.064670146
92	0x3c99e9f0	0.018788308
93	0x3e359e7c	0.17736238
94	0xbdded2ac	-0.10880026
95	0x3cc13e28	0.023589209
96	0x3e012a5e	0.12613818
97	0xbd5bc615	-0.053655703
98	0xbe0e7e2c	-0.13915318
99	0x3e198eb3	0.14995842
100	0xbe49e344	-0.19715601
101	0xbc164f62	-0.0091742
102	0xbe4a1228	-0.19733489
103	0x3e0ab842	0.13546851
104	0x3e00d9dd	0.12583108
105	0x3e4e19ef	0.2012708
106	0xbc83e734	-0.016101457
107	0x3dab4a37	0.08363765
108	0xbe449229	-0.1919638
109	0x3c5f7ec1	0.01364106
110	0xbbfceb9e	-0.0077185174
111	0x3bf16a0b	0.0073673776
112	0xbd7c368f	-0.06157547
113	0xbe0866ea	-0.13320509
114	0x3e0d74ec	0.13814133
115	0xbe146fa8	-0.14495718
116	0x3d1f616a	0.03891126
117	0x3e19ac3c	0.15007108
118	0xbda53771	-0.08067215
119	0x3e3009d4	0.17191249
120	0xbdfeef67	-0.12448006
121	0x3c180870	0.009279355
122	0x3c910b40	0.01770556
123	0xbdc6d596	-0.09708707
124	0xbd525ae4	-0.05135621
125	0x3e051ed4	0.13000041
126	0x3d5271e8	0.05137816
127	0xbdf7aff4	-0.12094107
128	0xbdb1d7f7	-0.0868377
129	0x3cfcc378	0.030854926
130	0x3e37d272	0.17951372
131	0xbe3d6dca	-0.18498912
132	0xbd85dde8	-0.06536466
133	0x3d1016b0	0.035177886
134	0x3d773630	0.06035441
135	0x3d9adc68	0.075615704
136	0xbc2abcb0	-0.010420963
137	0xbd5f2a80	-0.05448389
138	0xbc2ce370	-0.010552272
139	0xbe011866	-0.12606964
140	0xbe3f86bb	-0.1870374
141	0xbe4f11b6	-0.202216
142	0xbd29cbdc	-0.04145418
143	0x3e36d4bc	0.17854589
144	0x3de48a2f	0.11159169
145	0xbd2bf26d	-0.041979242
146	0xbde9ae3d	-0.114101864
147	0xbd83f9fa	-0.064441636
148	0x3e4a8ce9	0.19780315
149	0xbdf0bb03	-0.1175442
150	0xbdcad78f	-0.09904396
151	0xbd59ce92	-0.053175516
152	0xbdb02d82	-0.0860243
153	0x3d977191	0.07394708
154	0xbe48878a	-0.19582954
155	0x3d476dd6	0.048688732
156	0xbdd6bba9	-0.10485012
157	0x3dbf408f	0.093384854
158	0xbdfd28b1	-0.12361277
159	0xbe2547e3	-0.16140704
160	0x396b546e	0.00022442799
161	0x3d972cc8	0.07381588
162	0xbd978507	-0.0739842
163	0x3de23719	0.11045665
164	0xbe3434d6	-0.1759828
165	0xbe0ee1a3	-0.13953261
166	0xbe1a1358	-0.15046442
167	0x3cd21c28	0.025648192
168	0x3d3f01b8	0.0466325
169	0x3bea0f60	0.007142946
170	0xbe0d38c8	-0.13791192
171	0x3c8ab5c0	0.016932368
172	0x3d2a61f0	0.041597307
173	0xbd38ef60	-0.04515016
174	0x3e42d9d4	0.19028407
175	0xbd7f7b50	-0.06237346
176	0xbb953de0	-0.004554495
177	0xbd801bae	-0.062552795
178	0xbe01ab00	-0.12662888
179	0x3e03ce9c	0.12871784
180	0xbd3ac718	-0.045600027
181	0x3c50a770	0.012735233
182	0xbdaa8268	-0.08325654
183	0x3e4978e2	0.1967502
184	0x3c3b8b90	0.0114468485
185	0xbe2b9dca	-0.1675941
186	0x3d58ee58	0.052961677
187	0xbe01958a	-0.12654701
188	0xbdc560c4	-0.09637597
189	0x3e0ff906	0.14059839
190	0xbdf62cf6	-0.12020294
191	0xbe0bbf1a	-0.13647118
192	0x3dba9204	0.091098815
193	0xbddf2892	-0.1089641
194	0xbce0e400	-0.027452469
195	0xbe051db6	-0.12999615
196	0x3e108d38	0.1411637
197	0x3cd3e1b8	0.025864467
198	0x3c918b68	0.01776667
199	0xbd75a1e8	-0.05996886
200	0xbd30e28c	-0.043184802
201	0xbe299dc3	-0.16564088
202	0x3dac2c24	0.08406857
203	0xbdc0d334	-0.09415284
204	0xbe2ece03	-0.17070775
205	0x3dace4a4	0.08442047
206	0xbd332978	-0.04374072
207	0x3ac26c00	0.0014833212
208	0xbe213aa6	-0.15745029
209	0x3e067b16	0.13132891
210	0x3dd5727c	0.10422227
211	0x3d873cd4	0.06603399
212	0xbe151bba	-0.14561358
213	0xbce784f0	-0.028261632
214	0xbcde0028	-0.027099684
215	0xbcba9310	-0.022775203
216	0x3df204d7	0.118173294
217	0x3e145309	0.144848
218	0x3e3109c2	0.17288879
219	0xbd326c97	-0.04356059
220	0xbda2c15a	-0.07947035
221	0x3e0ee7e7	0.13955651
222	0xbd530219	-0.051515672
223	0x3d8c59e4	0.06853083
224	0xbe4af6f4	-0.19820768
225	0x3dfdccc6	0.12392573
226	0x3e415dad	0.1888339
227	0x3e2fe220	0.17176104
228	0xbe514271	-0.20435502
229	0x3df6397d	0.12022684
230	0x3e4c65cc	0.19960707
231	0xbdd30384	-0.10303405
232	0xbd0b1981	-0.03395987
233	0xbdce34f5	-0.100686945
234	0x3d15c80a	0.036567725
235	0xbe41e558	-0.18935144
236	0xbd345b10	-0.044032156
237	0x3d667294	0.056261614
238	0x3e22113b	0.15826885
239	0xbdb4ffbc	-0.0883784
240	0xbde1ff37	-0.110350065
241	0xbe29d109	-0.16583647
242	0xbca70a70	-0.02039072
243	0xbd8f9358	-0.070105255
244	0xbe4c36a2	-0.19942716
245	0x3e0119e2	0.1260753
246	0x3d0bcdc0	0.034131765
247	0xbd3dae88	-0.046309024
248	0x3d9db3f8	0.07700342
249	0x3e3ea934	0.18619233
250	0xbc23eb70	-0.010004863
251	0xbe294136	-0.16528782
252	0xbd9050ac	-0.07046637
253	0x3d7235d0	0.05913335
254	0xbe43f800	-0.19137573
255	0xbe482d8e	-0.19548628

conv_se.0.bias f4 [51]
0	0xbd03fb86	-0.032222293
1	0xbc3ddc99	-0.011588239
2	0x3c1ea100	0.00968194
3	0xbdf310dd	-0.11868451
4	0x3e49666a	0.19667974
5	0xbd0f51b0	-0.034990013
6	0x3e2f3ba7	0.171126
7	0xbdcd3a99	-0.10020942
8	0xba26e900	-0.0006367117
9	0xbe526fcf	-0.20550464
10	0xbe170403	-0.14747624
11	0xbd80a746	-0.06281905
12	0x3d255564	0.040364638
13	0x3e44a680	0.1920414
14	0xbe00345c	-0.12519974
15	0x3e033d89	0.12816443
16	0xbe3e84fa	-0.18605414
17	0x3d1b0f34	0.037856296
18	0x3e29a28e	0.16565916
19	0xbdda1ebc	-0.10650393
20	0x3cc10daa	0.023566086
21	0xbcaafc0e	-0.020872142
22	0x3c369115	0.011142989
23	0x3dbd4d30	0.09243238
24	0xbaf7bb80	-0.0018900484
25	0x3d75f8f0	0.06005186
26	0xbc1aef21	-0.009456427
27	0xbd63f028	-0.055648953
28	0x3b82d446	0.00399259
29	0xba9db399	-0.0012031674
30	0xbdf9c36a	-0.121954754
31	0x3dfcf034	0.123505026
32	0x3e2363c3	0.15956025
33	0xbd5d01e8	-0.053956896
34	0x3e47d5fa	0.1951522
35	0xbb4546b2	-0.0030101952
36	0xbe1c8149	-0.15283693
37	0xbca55688	-0.020182863
38	0xbca491ec	-0.020089112
39	0x3dc07206	0.09396748
40	0xbe37407c	-0.17895693
41	0xbdc4e164	-0.09613302
42	0xbe3ede44	-0.18639475
43	0x3d5ce137	0.05392572
44	0xbe3dbe48	-0.18529618
45	0x3dd71165	0.105013646
46	0xbdd0bc99	-0.10192222
47	0xbe3276ff	-0.17428206
48	0x3e088c8f	0.13334869
49	0xbe4a51ec	-0.19757813
50	0xbe05690c	-0.13028353

conv_ex.weight f4 [24, 51, 1, 1, 1]
0	0x3df63d1c	0.120233744
1	0x3d25d295	0.04048403
2	0x3db30ff4	0.08743277
3	0x3dfa000e	0.12207042
4	0xbd9f2297	-0.07770269
5	0xbdd79f86	-0.105284736
6	0xbdc11e5e	-0.0942962
7	0xbe0cc668	-0.13747561
8	0xbd8916f5	-0.06693832
9	0xbd5c0ab1	-0.053721134
10	0x3dce7efc	0.10082814
11	0x3d2ba1c5	0.041902322
12	0xbe023f9a	-0.12719575
13	0x3da7d6bd	0.08195255
14	0x3de7f9b6	0.113269255
15	0xbde36446	-0.1110311
16	0x3e066cc6	0.13127431
17	0xbdade736	-0.084913656
18	0xbd210487	-0.03931096
19	0xbdc5f856	-0.09666507
20	0x3dcaed2c	0.09908518
21	0xbdce7c75	-0.10082332
22	0x3d94a97a	0.072588876
23	0xbdc83132	-0.09775008
24	0xbde633fb	-0.11240383
25	0xbcb60014	-0.022216834
26	0x3daa88c3	0.083268665
27	0x3e06847f	0.13136481
28	0x3df40108	0.11914259
29	0xbce676a3	-0.028132742
30	0x3dbc4ce4	0.09194353
31	0x3de7b562	0.11313893
32	0x3dba8ceb	0.09108909
33	0xbd65eb52	-0.056132622
34	0xbce2ddcc	-0.027693652
35	0xbd9d9d62	-0.07696034
36	0x3e052d4d	0.13005562
37	0xbdb4f2e8	-0.08835393
38	0xbc950c69	-0.018194394
39	0xbcd32db4	-0.025778629
40	0x3dc9c2de	0.09851621
41	0x3dc0bd14	0.09411064
42	0x3d872fd4	0.06600919
43	0xbd2217ab	-0.039573353
44	0xbc084a50	-0.008318499
45	0x3d337047	0.043808248
46	0xbdb52655	-0.08845202
47	0xbd894a12	-0.06703581
48	0x3d4328cf	0.04764634
49	0x3d9caa0e	0.07649623
50	0xbdb8deda	-0.090268806
51	0xbddb8d9e	-0.10720371
52	0xbd8b6592	-0.068064824
53	0xbc2c4a00	-0.01051569
54	0x3dcbb3ac	0.09946379
55	0x3c5ad481	0.013356329
56	0xbdf2d87e	-0.11857699
57	0x3e095f85	0.13415344
58	0xbd5abcc8	-0.053402692
59	0xbcdeaca4	-0.02718193
60	0x3d39f20f	0.04539686
61	0x3dbc41e8	0.09192258
62	0xbddc0eab	-0.10744985
63	0x3d976b0f	0.07393467
64	0x3d4e8140	0.05041623
65	0xbd25fb60	-0.040522933
66	0xbcaa8844	-0.02081693
67	0xbc117616	-0.008878252
68	0x3e0e1f53	0.13879137
69	0xbe0e02d4	-0.13868266
70	0x3db2c0d0	0.08728182
71	0xbd9d2aa8	-0.07674152
72	0x3dc8868b	0.09791287
73	0x3d6d8ac8	0.05799368
74	0x3db557ba	0.08854623
75	0x3dcb78ac	0.09935126
76	0xbdd9dbac	-0.10637602
77	0xbd2f6bb7	-0.042827334
78	0x3d8ccbb0	0.06874788
79	0x3dcd6aee	0.10030161
80	0xbdbe1097	-0.09280508
81	0xbe0582a5	-0.13038118
82	0xbc596880	-0.013269544
83	0xbd5e4a29	-0.054269943
84	0x3d7edc20	0.062221646
85	0x3d4c4f05	0.049880046
86	0xbd853746	-0.06504683
87	0xbdb8a125	-0.09015111
88	0xbca3d578	-0.01999925
89	0x3cdc9990	0.026928693
90	0x3d652013	0.05593879
91	0x3db40528	0.08790046
92	0xbba02660	-0.004887387
93	0x3e08fa1b	0.13376658
94	0xbdf46df9	-0.11935038
95	0x3d0dcb88	0.03461793
96	0x3de35ca8	0.11101657
97	0x3d85c9ae	0.06532608
98	0x3dd841a2	0.105593935
99	0x3d4425be	0.047887556
100	0xbc3e1c53	-0.011603433
101	0x3def8f72	0.11697282
102	0x3e0e63db	0.1390528
103	0xba4248e3	-0.00074113737
104	0x3de6c7c6	0.112685725
105	0xbd2dedbe	-0.042463057
106	0xbcc9c169	-0.024628358
107	0xbb5a2d80	-0.003329128
108	0x3d4fafa4	0.050704613
109	0x3b95d120	0.004572049
110	0xbdc33055	-0.09530703
111	0xba5300a1	-0.0008049105
112	0xbe098c57	-0.13432442
113	0x3de10af1	0.10988415
114	0x3d7a3ab2	0.061091132
115	0xbd71569d	-0.05892049
116	0xbd8a8633	-0.06763878
117	0xbd29a76f	-0.041419443
118	0x3d97d68e	0.0741397
119	0x3d038d4c	0.032117173
120	0x3dba96fd	0.0911083
121	0xbbfe8e0e	-0.007768399
122	0xbdc1c8b0	-0.09462106
123	0xbd42fb93	-0.0476032
124	0xbdc51882	-0.09623815
125	0x3cd26c70	0.025686473
126	0xbd13c91e	-0.036080472
127	0xbccb6d20	-0.024832308
128	0xbcd38f45	-0.025825152
129	0x3d97d4b0	0.07413614
130	0xbda20055	-0.079102196
131	0xbd9bff32	-0.07617034
132	0x3df51f6a	0.119688824
133	0x3dd01302	0.101598755
134	0x3dcb7cff	0.099359505
135	0xbb6eea40	-0.0036455542
136	0x3de50d75	0.11184207
137	0xbdb4f2ef	-0.088353984
138	0x3d4c0d84	0.049817577
139	0xbdb46a5c	-0.08809349
140	0x3ddd8cc2	0.10817863
141	0xbe0578d4	-0.13034374
142	0x3d924adc	0.071431845
143	0xb91e3800	-0.00015088916
144	0x3db5b30e	0.088720426
145	0xbd36d92c	-0.044640705
146	0xbdec8af1	-0.115499385
147	0xbd81ee72	-0.06344308
148	0xbc335269	-0.010944941
149	0x3af3d000	0.0018601418
150	0xbdf88c92	-0.12136187
151	0x3d445a9d	0.047937978
152	0x3b500a80	0.003174454
153	0xbe00f446	-0.12593183
154	0xbb68f05d	-0.0035543658
155	0xbd4f48bc	-0.050606474
156	0x3dc91b0c	0.09819612
157	0x3e0de59f	0.13857125
158	0x3e0636ad	0.13106795
159	0x3d832338	0.06403202
160	0x3e040e4f	0.12896083
161	0x3daada4c	0.08342418
162	0x3d83fb8a	0.06444462
163	0xbdea3616	-0.11436097
164	0x3dd4a285	0.10382561
165	0x3df3e317	0.11908548
166	0x3dae384d	0.08506832
167	0x3d746490	0.059666216
168	0xbdb97494	-0.09055439
169	0x3bc3a107	0.0059701237
170	0x3c898988	0.016789213
171	0x3d8fd419	0.07022876
172	0x3cac89b9	0.021061765
173	0xbc3ec183	-0.0116428165
174	0x3def41ac	0.11682448
175	0x3e08eaac	0.1337077
176	0xbda3d9f2	-0.08000554
177	0xbd9a4f0f	-0.075346105
178	0x3dfb68a2	0.122758165
179	0x3af0e12a	0.0018377651
180	0x3986fe00	0.00025747716
181	0xbbd2c3ea	-0.006432046
182	0xbd30b944	-0.043145433
183	0xbd6b8e1e	-0.05750858
184	0x3d87dc4e	0.06633817
185	0xbe05371f	-0.13009308
186	0xbcfa3cd4	-0.030546583
187	0x3de86a38	0.113483846
188	0x3d44a2ae	0.048006706
189	0x3e0d7255	0.13813145
190	0x3d0c42ac	0.03424327
191	0xbc348bf1	-0.011019693
192	0x3d0de1d8	0.03463921
193	0x3d5308a4	0.051521912
194	0x3e0e03bf	0.13868617
195	0x3dfa895a	0.12233229
196	0x3c44811e	0.011993675
197	0x3da66e24	0.081264764
198	0x3dfc1470	0.12308586
199	0xbc22230f	-0.009896054
200	0xbdc89ab2	-0.09795131
201	0xbdf99155	-0.12185923
202	0xbd2dae1d	-0.042402375
203	0x3de3bd0a	0.11120041
204	0xbd673d48	-0.056454927
205	0x3dc904f4	0.09815398
206	0x3dd0cc42	0.10195209
207	0x3de6bc0a	0.11266334
208	0xbd91ff3c	-0.0712876
209	0xbdaeca0a	-0.0853463
210	0xbdc13b4e	-0.094351396
211	0x3def0f9e	0.116729006
212	0x3dddb5c2	0.10825683
213	0xbbb8d9b8	-0.0056411885
214	0x3e034577	0.12819467
215	0x3d9763eb	0.07392105
216	0x3c3aa6ad	0.011392278
217	0xbcc1163b	-0.02357017
218	0xbe00408c	-0.12524623
219	0x3d9d703d	0.076874234
220	0xbcd9f019	-0.026603745
221	0xbc8cb3b8	-0.01717554
222	0xbe03ccc8	-0.12871087
223	0xbd4e0377	-0.050296273
224	0x3dc16a84	0.09444144
225	0xbe0a4858	-0.1350416
226	0x3de47471	0.11155022
227	0x3d8ab312	0.06772436
228	0x3d09a1c8	0.033601552
229	0xbdfca7e0	-0.12336707
230	0x3d0fc6f8	0.03510186
231	0xbc83b150	-0.01607576
232	0x3dced9dc	0.10100147
233	0xbaf76207	-0.0018873819
234	0xbe01280a	-0.1261293
235	0x3dee185e	0.116257414
236	0xbdba6abb	-0.091023885
237	0x3b536840	0.0032258183
238	0x3b0c4fd7	0.0021409893
239	0x3d9c61ec	0.076358646
240	0xbce74494	-0.028230943
241	0xbc110c30	-0.008853003
242	0x3d1ebb7e	0.038753025
243	0xbd2992ea	-0.041399874
244	0x3d4bcad4	0.04975398
245	0x3da537b2	0.08067264
246	0xbd29fef0	-0.041502893
247	0xbdd29494	-0.10282245
248	0x3dfa41ce	0.122195825
249	0x3db2d170	0.08731353
250	0xbd60047a	-0.05469177
251	0xbdfcc610	-0.12342465
252	0x3c576b65	0.013148163
253	0x38a79268	7.990451e-05
254	0x3deccf36	0.1156296
255	0x3dbea92b	0.0930961

conv_ex.bias f4 [24]
0	0xbd61a0be	-0.055084936
1	0xbdf9b6c4	-0.12193063
2	0xbd26ce1e	-0.040723912
3	0x3e0ebad3	0.13938455
4	0x3e0f50e7	0.13995706
5	0xbd7a88a7	-0.061165478
6	0xbe09760f	-0.13423942
7	0xbda6f30b	-0.081518255
8	0xbdcd1fd8	-0.10015839
9	0x3da81e18	0.08208865
10	0x3dcbeff8	0.0995788
11	0x3d4d77cb	0.05016307
12	0xbd59536a	-0.053058065
13	0xbe00cf21	-0.12579013
14	0xbd398f07	-0.045302417
15	0x3d76220d	0.060091067
16	0xbdf52425	-0.11969785
17	0x3d38e38c	0.04513888
18	0xbc61a872	-0.013773071
19	0x3d151627	0.03639808
20	0x3e058fff	0.13043211
21	0xbdfd169d	-0.12357829
22	0xbd7fea84	-0.06247951
23	0x3d9451a8	0.07242137

res_net1.conv1.0.weight f4 [24, 24, 1, 1, 7]
0	0x3dee7177	0.116427355
1	0xbcc10d08	-0.023565784
2	0xbd5d4c09	-0.05402759
3	0xbd3a28ea	-0.045449175
4	0xbe1e3137	-0.15448461
5	0xbe2394e8	-0.15974772
6	0x3db171c1	0.08664275
7	0xbdff2957	-0.12459057
8	0x3de56e5a	0.112026885
9	0x3d453bf1	0.048152868
10	0xbdf7dd9c	-0.121028155
11	0xbcfd4c1c	-0.03092008
12	0x3d080eb6	0.033217154
13	0x3d97fe3d	0.07421539
14	0xbcccc0ad	-0.024994219
15	0x3cacb768	0.021083549
16	0xbe0b5215	-0.1360553
17	0x3c78377d	0.015149948
18	0xbd094443	-0.033512365
19	0xbdacc7d7	-0.08436554
20	0x3dc95a94	0.098317295
21	0x3d0f2a8a	0.034952678
22	0xbdacd5f0	-0.08439243
23	0xbb9faaec	-0.0048726704
24	0xbdfed898	-0.12443656
25	0xbe2c66c6	-0.1683608
26	0xbdbf510d	-0.09341631
27	0xbd469922	-0.048485883
28	0xbc09ff7d	-0.00842273
29	0x3d967348	0.07346207
30	0x3e32520b	0.1741411
31	0xbca914bd	-0.020639772
32	0x3e16867b	0.14699738
33	0xbd5eb67a	-0.054373242
34	0xbc0bd5be	-0.008534847
35	0xbe766a3e	-0.24063966
36	0x3d6dc945	0.058053274
37	0x3c806b7c	0.015676253
38	0x3d4baec1	0.049727205
39	0x3c158fad	0.009128493
40	0x3bce4ee0	0.0062960237
41	0x3e2d007a	0.16894713
42	0xbcacdc29	-0.021101074
43	0xbdd9500d	-0.106109716
44	0xbd35d533	-0.044392776
45	0x3d31f62e	0.043447666
46	0x3c891f38	0.01673852
47	0xbd2ac4c7	-0.041691568
48	0x3c884581	0.016634705
49	0xbde06799	-0.1095726
50	0xbd980734	-0.07423249
51	0xbd5fe084	-0.054657474
52	0xbd8d47a4	-0.0689843
53	0x3e58f0e2	0.2118564
54	0x3d8bce42	0.0682645
55	0xbe137dda	-0.14403477
56	0xbbd67c07	-0.006545547
57	0x3e0775f7	0.13228594
58	0xbdbf150c	-0.09330186
59	0xbc4063ca	-0.011742542
60	0x3d8300af	0.06396615
61	0xbd9ffbc8	-0.07811695
62	0xbd321fac	-0.043487236
63	0x3cb4f4ed	0.022089446
64	0xbd95613e	-0.07293938
65	0xbd45732c	-0.04820554
66	0x3d356820	0.044288754
67	0xbdd89d74	-0.10576907
68	0xbd855087	-0.065095
69	0xbbe154c5	-0.0068765604
70	0x3dd33a12	0.103138104
71	0xbe0611d0	-0.13092732
72	0xbd864be3	-0.06557443
73	0xbdbe8ae6	-0.093038365
74	0x3ca911ab	0.020638308
75	0xbd406a86	-0.04697659
76	0x3d67573b	0.056479674
77	0xbe08d178	-0.13361156
78	0x3cbc2e50	0.022971302
79	0x3dad6fe0	0.08468604
80	0xbd391a02	-0.04519082
81	0x3d3bfe93	0.045897078
82	0x3dd4b6a1	0.10386396
83	0x3dae6eaa	0.08517201
84	0xbdd39dd5	-0.103328384
85	0x3de45d94	0.11150661
86	0xbe2b8434	-0.1674965
87	0x3cb32059	0.02186601
88	0x3d1e265a	0.038610794
89	0x3de4f4ee	0.11179529
90	0xbdd47e8a	-0.10375698
91	0xbd9a54b7	-0.07535689
92	0xbb291592	-0.002580021
93	0x3dc83333	0.097753905
94	0xbe000a26	-0.12503871
95	0x3dcb58c4	0.0992904
96	0x3c6da07e	0.014503596
97	0xbdc6c77c	-0.097060174
98	0xbd35a984	-0.044351116
99	0xbdf02416	-0.11725633
100	0xbe218847	-0.15774642
101	0xbda8b6f3	-0.0823802
102	0x3defac6f	0.11702811
103	0xbd38c0e2	-0.045105822
104	0xbd86e78f	-0.06587135
105	0xbd45107e	-0.04811143
106	0xbda68a3e	-0.08131836
107	0xbbef9e96	-0.007312606
108	0xbd86cc67	-0.065819554
109	0x3cf5503b	0.029945483
110	0xbdd05357	-0.10172146
111	0x3c7b9c22	0.015357049
112	0xbe861fb2	-0.26196057
113	0xbce86e59	-0.02837293
114	0x3b7cd3a1	0.003857829
115	0x3b169170	0.002297487
116	0xbc4139e7	-0.01179359
117	0x3dbdbe43	0.09264805
118	0xbd088632	-0.033331104
119	0xbd65e78f	-0.056129035
120	0xbe0093c5	-0.1255637
121	0xbccdaf61	-0.025108041
122	0x3daa1772	0.08305253
123	0xbd1beac8	-0.0380657
124	0x3d246909	0.04013923
125	0x3e6022e2	0.21888307
126	0xbd1191a4	-0.035539284
127	0x3d488159	0.04895148
128	0x3e51db48	0.20493805
129	0xbdfd6fb2	-0.1237482
130	0xbd497f2a	-0.04919354
131	0xbda808a2	-0.082047716
132	0xbdd77656	-0.10520618
133	0xbcfb299d	-0.030659491
134	0x3d9b6b82	0.07588865
135	0x3d254953	0.04035313
136	0xbe36a4e2	-0.17836335
137	0xbd17a7a6	-0.037025116
138	0xbdbb65f3	-0.09150305
139	0x3d6719b2	0.05642099
140	0x3e2135b3	0.15743141
141	0xbe8a41d6	-0.27003354
142	0xbe0615ce	-0.13094255
143	0x3d1b48fd	0.037911404
144	0xbd775038	-0.060379237
145	0x3d0c6415	0.034275133
146	0x3dc1cbee	0.094627246
147	0xbd85a3ee	-0.06525408
148	0x3bc9ff11	0.0061644395
149	0xbe3cd3cb	-0.18440168
150	0x3dba1b62	0.09087254
151	0x3cffffee	0.031249966
152	0x3d902de9	0.07040007
153	0xbd8ccee0	-0.06875396
154	0xbe38cf92	-0.18047932
155	0x3d709116	0.058732115
156	0x3e4c1e80	0.1993351
157	0xbe27b37e	-0.16377065
158	0xbd14d743	-0.036338102
159	0xbc88a23d	-0.016678924
160	0xbd0e2866	-0.034706496
161	0x3d499a16	0.049219213
162	0x3bad14d7	0.0052820253
163	0x3d5f5603	0.054525387
164	0xbe086101	-0.13318254
165	0xbe1faa27	-0.15592252
166	0x3c5029ad	0.012705249
167	0xbd88954e	-0.066691026
168	0xbe0381e6	-0.12842521
169	0xbbc4c4e9	-0.006004919
170	0xbe4daf6a	-0.20086446
171	0xbd1f02f2	-0.03882117
172	0x3d8ed0b8	0.06973404
173	0xbd3ad8a3	-0.045616757
174	0xbd34f743	-0.04418112
175	0x3e27877b	0.16360275
176	0xbd488b1c	-0.04896079
177	0xbe0be4c6	-0.13661489
178	0xbe1e84c7	-0.15480338
179	0x3d9c95a4	0.07645729
180	0x3a4f050b	0.0007897175
181	0xbe3cb363	-0.18427806
182	0x3cb94aef	0.022618739
183	0xbddc9d97	-0.107722454
184	0xbc229a0e	-0.009924425
185	0xbd0b3b20	-0.033991933
186	0xbe057038	-0.1303109
187	0x3c87c85d	0.016575033
188	0xbcce961b	-0.02521806
189	0xbe2f1c17	-0.17100559
190	0x3c301a6c	0.010748487
191	0xbe01306d	-0.12616129
192	0x3dcf7a7e	0.101307854
193	0x3d06feca	0.03295783
194	0x3d6dfc8e	0.058102183
195	0x3e142be9	0.14469875
196	0x3c025872	0.007955657
197	0xbd0eb22c	-0.034837887
198	0x3d481c20	0.048854947
199	0xbcc99e2b	-0.024611553
200	0x3d5eb9de	0.054376476
201	0xbd3124f9	-0.04324815
202	0x3d75c50b	0.060002368
203	0x3da0077e	0.07813929
204	0x3dd0034a	0.10156877
205	0x3d4ea681	0.05045176
206	0xbcdaeee4	-0.02672524
207	0xbdf7dfa2	-0.121032014
208	0x3dc1e07e	0.094666466
209	0x3bf5457e	0.0074850908
210	0x3cefe2ce	0.029282954
211	0x3da5ed15	0.081018604
212	0xbdfdc929	-0.12391884
213	0xbdc7fdb3	-0.09765186
214	0x3cf7c6e5	0.030246207
215	0x3dfbb81b	0.12290975
216	0x3d7829ce	0.060586743
217	0x3d80007a	0.06250091
218	0xbc87254b	-0.016497275
219	0xbb978d45	-0.004624995
220	0xbdf3ec36	-0.11910288
221	0xbd2cf87d	-0.042229164
222	0x3dd72b80	0.10506344
223	0x3da264b6	0.07929365
224	0xbd12f5d4	-0.03587897
225	0xbd67d93c	-0.056603655
226	0xbe0d78ab	-0.13815562
227	0x3ddd22e8	0.107976735
228	0xbd226a50	-0.03965217
229	0x3df4e897	0.119584255
230	0xbda8c7e3	-0.0824125
231	0xbce6a0f2	-0.028152917
232	0x3dbcf1ba	0.09225793
233	0x3a93b512	0.0011269173
234	0xbd64effa	-0.055892922
235	0x3d4b6627	0.049657967
236	0x3e17c40e	0.14820883
237	0x3e3e34ce	0.18574831
238	0x3dcf5f54	0.10125604
239	0xbba462ee	-0.005016676
240	0xbe856eea	-0.26061183
241	0xbda37f5a	-0.07983275
242	0x3db7a048	0.08966118
243	0xbdb438ed	-0.0879992
244	0xbc32900a	-0.010898599
245	0x3d0cb506	0.034352325
246	0x3ba9f6b1	0.0051868786
247	0xbe06c04f	-0.13159297
248	0x3e00e6d7	0.12588058
249	0xbdb361cf	-0.0875889
250	0xbcc7cc7f	-0.024389504
251	0xbdd10b64	-0.10207251
252	0xbbf08bd0	-0.0073408857
253	0x3d99bcc2	0.07506706
254	0x3e345ea5	0.17614229
255	0xbd53a654	-0.051672295

res_net1.conv1.0.bias f4 [24]
0	0x3e2ed060	0.17071676
1	0x3e4c67d2	0.1996148
2	0xbdd077fe	-0.10179137
3	0xba353ad1	-0.00069133664
4	0x3d73ed61	0.059552554
5	0xbbd75eff	-0.0065726037
6	0x3dd9108a	0.10598858
7	0x3d16f4bc	0.03685449
8	0x3da4e346	0.080511615
9	0x3db7db6d	0.08977399
10	0x3d988ae3	0.074483655
11	0xbd852c08	-0.06502539
12	0x3e054db6	0.13017926
13	0x3d24ea26	0.040262364
14	0x3d1b20c3	0.03787304
15	0x3df1acee	0.11800562
16	0x3d2404c8	0.040043622
17	0xbd9ae881	-0.07563878
18	0x3dcbb43d	0.09946487
19	0x3cb95099	0.02262144
20	0xbdc0b532	-0.0940956
21	0xbd1f3e49	-0.03887776
22	0x3dc155fc	0.09440228
23	0x3e25e0bc	0.1619901

res_net1.conv2.weight f4 [24, 24, 1, 1, 7]
0	0xbd3c5c7a	-0.04598663
1	0x3e2a0012	0.1660159
2	0x3c728929	0.014803209
3	0xbbc71c77	-0.0060763913
4	0x3e671bc2	0.22569183
5	0xbe9174c5	-0.284094
6	0xbdd09c18	-0.101860225
7	0xbcaaf86b	-0.020870408
8	0x3dd5b084	0.10434058
9	0x3d73a56c	0.05948393
10	0x3d1f1487	0.038837936
11	0xbdfe483d	-0.12416122
12	0xbdba6c00	-0.091026306
13	0xbd03d8e5	-0.03218927
14	0xbd7443fa	-0.05963514
15	0xbd79bfac	-0.06097381
16	0x3c2a02d2	0.010376649
17	0xbdc76a28	-0.097370446
18	0xbd2f28fc	-0.042763695
19	0xbc87e6f4	-0.01658962
20	0xbd0b9d69	-0.034085665
21	0x3dfa93ef	0.12235247
22	0xbd55b0e4	-0.05217065
23	0x3e236600	0.15956879
24	0xbd9a8496	-0.0754482
25	0xbdc28a75	-0.09499065
26	0xbd844489	-0.064583845
27	0xbe25986f	-0.1617143
28	0xbd65bda9	-0.056089077
29	0x3e26b3e4	0.1627956
30	0x3ddc8976	0.10768406
31	0x3cdf3181	0.027245285
32	0xbd61c758	-0.05512175
33	0x3de140f7	0.10998719
34	0xbd8ffa17	-0.07030123
35	0xbd319c60	-0.04336202
36	0x3d32c08e	0.043640666
37	0x3c25937b	0.010105963
38	0x3daec1eb	0.08533081
39	0x3d3a49c4	0.045480505
40	0x3e13dc21	0.14439441
41	0x3db57308	0.08859831
42	0x3daa9d7e	0.083308205
43	0x3bcaf69f	0.0061939503
44	0x3e0a7ab5	0.13523372
45	0x3e00f297	0.1259254
46	0xbdd46da9	-0.103724785
47	0x3d7a2d4d	0.06107836
48	0xbe14b5f8	-0.1452254
49	0x3dc40b2d	0.09572444
50	0xbe1502da	-0.14551869
51	0x3de13d68	0.109980404
52	0xbd8ffedb	-0.07031032
53	0xbe085649	-0.13314165
54	0x3d88eac4	0.06685403
55	0x3c27c08c	0.010238778
56	0x3e493085	0.19647415
57	0xbbbf4c17	-0.005837928
58	0x3df04bbf	0.117331974
59	0xbe3791fa	-0.1792678
60	0xbd447b36	-0.047969066
61	0xbd886232	-0.06659354
62	0xbdefd9d4	-0.11711469
63	0xbe51e9dc	-0.20499367
64	0xbdf4ed48	-0.1195932
65	0x3d80c1e2	0.0628698
66	0xbdf91fb4	-0.1216425
67	0x3e029554	0.12752277
68	0xbd8f3bc7	-0.069938235
69	0xbd92db47	-0.0717073
70	0xbdf76166	-0.12079124
71	0xbcfe9639	-0.031077491
72	0xbd5fb422	-0.054615147
73	0xbe103c6d	-0.1408555
74	0x3dd88627	0.105724625
75	0x3c69dd35	0.014273931
76	0x3dfc6807	0.12324529
77	0x3e00334c	0.12519568
78	0x3d732ed6	0.059370838
79	0xbd906333	-0.07050171
80	0xbd704222	-0.05865682
81	0xbd8a8592	-0.06763758
82	0xbc232567	-0.009957648
83	0x3dac93e8	0.084266484
84	0x3dd54a6e	0.10414587
85	0x3c9bcfad	0.019019926
86	0x3dfdcc20	0.123924494
87	0x3dba0c76	0.09084408
88	0x3d22111c	0.039567098
89	0x3db67127	0.08908301
90	0xbcf4df91	-0.029891761
91	0xbd64e5bd	-0.055883158
92	0xbd6c1eb8	-0.057646483
93	0xbe2b34cd	-0.1671936
94	0x3d8a6228	0.06757003
95	0x3d940d36	0.07229082
96	0xbc12baf7	-0.008955709
97	0x3d6e57df	0.05818927
98	0xbb5e7b9a	-0.0033948184
99	0x3ca57519	0.020197438
100	0x3d31000c	0.043212935
101	0x3dcadcc8	0.09905392
102	0xbd64f7c3	-0.055900346
103	0x3c8ff56b	0.01757308
104	0x3dbc320c	0.09189233
105	0xbd8448d4	-0.06459203
106	0xbe258e6f	-0.16167615
107	0xbc9f6440	-0.019456983
108	0xbb91a2da	-0.0044444622
109	0xbde84296	-0.11340825
110	0x3e45a381	0.19300653
111	0xbddb2f3b	-0.10702368
112	0xbdcbe1ed	-0.09955201
113	0xbdb3eecc	-0.08785781
114	0xbe52ba17	-0.205788
115	0x3d17564e	0.03694754
116	0xbd5a726d	-0.05333178
117	0xbcb441e6	-0.02200408
118	0x3c9f98ad	0.019481981
119	0xbd2a8c37	-0.041637626
120	0x3d84c47f	0.06482791
121	0xbca162cc	-0.01970043
122	0x3d43c3a5	0.047794003
123	0x3ddc375a	0.10752745
124	0xbce65d35	-0.028120616
125	0x3d35c18a	0.044374026
126	0x3d8663e8	0.06562024
127	0x3da12a33	0.07869377
128	0xbbb59236	-0.0055411113
129	0x3c98a607	0.018633856
130	0xbe0ea5a5	-0.13930376
131	0xbe345b8c	-0.17613047
132	0x3cc4cbdf	0.024022995
133	0xbcefd44f	-0.029276041
134	0x3da32567	0.07966118
135	0xbc787898	-0.015165471
136	0xbdf83853	-0.12120118
137	0x3e0c9506	0.13728723
138	0x3d8af636	0.06785242
139	0x3da6bf5c	0.08141968
140	0xbcc48cd3	-0.023992931
141	0x3deb748f	0.11496841
142	0x3d4a9003	0.049453747
143	0x3d1de06d	0.038544107
144	0x3dfdcbd5	0.123923935
145	0xbdab09eb	-0.08351501
146	0xbd282276	-0.04104849
147	0x3e2e83d0	0.1704247
148	0xbd670d82	-0.056409366
149	0x3c6bf487	0.014401562
150	0x3d838aab	0.06422933
151	0xbd496579	-0.049169037
152	0x3da5b5df	0.0809133
153	0x3dd69345	0.10477308
154	0x3d7c262c	0.06155984
155	0xbd5ae6d0	-0.053442776
156	0x3da78454	0.081795365
157	0x3d836f7e	0.0641775
158	0xbc891220	-0.016732275
159	0x3da97197	0.08273619
160	0x3c1e8b89	0.009676822
161	0x3c7b786f	0.015348538
162	0x3c3c40ac	0.011490028
163	0xbe070e78	-0.13189113
164	0x3e18bd03	0.14915852
165	0x3d677e83	0.056517135
166	0xbe0c26ca	-0.13686672
167	0x3d65ed3a	0.05613444
168	0xbea26308	-0.3171618
169	0xbe31eb0c	-0.1737482
170	0x3de4a871	0.1116494
171	0x3e060b10	0.13090158
172	0x3e0e45fd	0.13893886
173	0xbb4b0dfd	-0.003098368
174	0xbd86f435	-0.065895475
175	0xbcbc57e0	-0.02299112
176	0xbd64fc35	-0.055904586
177	0xbd055d6e	-0.032559805
178	0xbe00b1bb	-0.12567799
179	0xbe24cd36	-0.16093907
180	0x3d2ebd0b	0.042660754
181	0xbcd8e314	-0.026475467
182	0xbd3de5d9	-0.046361778
183	0xbdc3865f	-0.095471136
184	0x3dc26148	0.09491211
185	0xbde017f3	-0.10942068
186	0x3decfade	0.115712866
187	0xbdf4f120	-0.119600534
188	0xbd732804	-0.059364334
189	0xbe104060	-0.14087057
190	0xbde2656d	-0.11054502
191	0x3d83053a	0.06397481
192	0x3d831ebd	0.06402347
193	0x3d8a0bd0	0.06740534
194	0x3dd79dc7	0.105281405
195	0x3e0ed662	0.13948968
196	0x3d9bbd11	0.07604421
197	0x3d8e5c49	0.06951196
198	0xbc411694	-0.011785168
199	0x3e09de90	0.13463807
200	0x3c6c8530	0.014436051
201	0xbc0b7998	-0.008512877
202	0x3b0c9370	0.0021450184
203	0x3dd89a89	0.1057635
204	0x3c0bbb49	0.008528539
205	0x3e05fce6	0.13084754
206	0x3c0c4c2f	0.008563085
207	0xbcc8e70a	-0.02452423
208	0xbdc2d502	-0.09513284
209	0x3d104eb6	0.035231315
210	0xbdf21f45	-0.118223704
211	0x3ab4ce0e	0.0013794319
212	0x3da1ea36	0.07906
213	0x3dedd6dd	0.116132475
214	0x3c5a576d	0.013326508
215	0xbbba16e3	-0.005678998
216	0x3cca5090	0.024696618
217	0x3daabcd2	0.08336796
218	0xbda3f04a	-0.08004816
219	0xbda8ec56	-0.082482025
220	0xbcbbc51d	-0.02292114
221	0xbd8af600	-0.06785202
222	0x3d33bd8d	0.04388194
223	0x3e30ea39	0.17276849
224	0xbe1cf2ca	-0.15326992
225	0xbd764022	-0.060119756
226	0x3d868481	0.06568242
227	0x3cf026c5	0.029315362
228	0x3ba336cd	0.004980898
229	0xbe1a3e8e	-0.15062925
230	0xbe351d5a	-0.17686978
231	0x3d0bd06e	0.03413432
232	0x3cbc4850	0.0229837
233	0x3d4bb00c	0.04972844
234	0x3dd9fca0	0.106438875
235	0x3d6811c1	0.056657556
236	0x3d92e19b	0.07171937
237	0x3da259fe	0.07927321
238	0x3d040ac0	0.032236814
239	0xbd532bac	-0.05155532
240	0xbd114243	-0.035463583
241	0xbd5aa27b	-0.05337761
242	0xbd3f6664	-0.046728507
243	0xbd2be4b4	-0.041966155
244	0xbc23e43b	-0.010003145
245	0xbb804fdc	-0.00391577
246	0xbd2e5712	-0.042563505
247	0x3de22e2c	0.11043963
248	0xbcdedd0b	-0.02720501
249	0xbddaa672	-0.10676278
250	0xbc8d87b5	-0.017276624
251	0x3e0544b7	0.13014494
252	0xbdf859a2	-0.12126471
253	0x3d61d5bf	0.055135485
254	0xbc0cae11	-0.008586423
255	0xbd1f59a0	-0.038903832

res_net1.conv2.bias f4 [24]
0	0xbd4f8419	-0.050663088
1	0x3a2ec0b2	0.0006666287
2	0xbbbf15d5	-0.00583146
3	0xbd0975d7	-0.033559646
4	0xbd2f7a81	-0.04284144
5	0xbd793a50	-0.060846627
6	0xbc9a62dd	-0.01884597
7	0xbc785942	-0.0151579995
8	0x3da3bd66	0.07995109
9	0x3d2cf1ed	0.042222906
10	0x3c959688	0.018260255
11	0x3d6e4679	0.058172677
12	0x3d86f33f	0.06589364
13	0x3d9a94db	0.07547923
14	0x3bc84830	0.006112121
15	0x3c8875c5	0.01665772
16	0xbd725cf7	-0.05917069
17	0xbdb92fdd	-0.09042332
18	0x3d78d63c	0.060751185
19	0xbb8a80e6	-0.0042267917
20	0x3d97df0e	0.07415591
21	0xbd372554	-0.044713333
22	0x3d8416f8	0.064496934
23	0x3c2018ce	0.009771539

res_net1.bn1.weight f4 [24]
0	0x3f8a62b0	1.0811367
1	0x3f8684b0	1.0509243
2	0x3f85a8c0	1.0442123
3	0x3f87c3db	1.0606645
4	0x3f81ee39	1.0150825
5	0x3f430df0	0.7619314
6	0x3f612588	0.87947893
7	0x3f84ba84	1.036942
8	0x3f90e645	1.1320273
9	0x3f82c725	1.0217024
10	0x3f654a5c	0.8956659
11	0x3f6f96d7	0.9358954
12	0x3f73679f	0.9507999
13	0x3f83160c	1.0241103
14	0x3f86e1d6	1.053767
15	0x3f903851	1.1267186
16	0x3f786358	0.97026587
17	0x3f7b45d2	0.9815341
18	0x3f76c8e9	0.96400315
19	0x3f79b845	0.975468
20	0x3f52bc1d	0.8231829
21	0x3f69025e	0.9101924
22	0x3f4cea53	0.8004505
23	0x3f697a49	0.9120222

res_net1.bn1.bias f4 [24]
0	0x3e05412b	0.13013141
1	0x3d913adf	0.07091307
2	0xbdc18464	-0.0944908
3	0x3d3e820d	0.046510745
4	0xbadb5a8b	-0.0016735358
5	0xbe148a84	-0.14505965
6	0xbe123d9b	-0.14281313
7	0x3da58151	0.08081306
8	0x3e23bdb3	0.15990333
9	0xbb8a5a63	-0.0042222007
10	0xbda6d5e0	-0.08146262
11	0xbe1874ca	-0.14888301
12	0xbb2c9aad	-0.002633731
13	0xbdadc14d	-0.08484135
14	0x3cb5c85c	0.022190265
15	0x3dfcb074	0.12338343
16	0xbd8642a5	-0.0655568
17	0xbc2d26c1	-0.010568322
18	0x3d8a2d64	0.06746939
19	0x3dd69c13	0.104789875
20	0xbea2a729	-0.31768158
21	0xbe104a27	-0.14090787
22	0xbe7997d0	-0.24374318
23	0xbd2dec06	-0.042461418

res_net1.bn1.running_mean f4 [24]
0	0x3d39ada1	0.0453316
1	0x3d9d5205	0.076816596
2	0x3c1419fa	0.009039396
3	0x3c280119	0.010254168
4	0x3d9b0d7a	0.0757093
5	0x3c977f79	0.0184934
6	0x3f5cdb6a	0.862723
7	0x3c00debf	0.007865607
8	0x3bc467bc	0.0059938114
9	0x3dc7f0f1	0.09762753
10	0x3cd80182	0.026367906
11	0x2e2421ad	3.7319193e-11
12	0x3e835204	0.2564851
13	0x3cda0ab9	0.026616441
14	0x3d93df31	0.07220305
15	0x3d172d8c	0.03690867
16	0x3e568913	0.20950727
17	0x3feebec5	1.8651968
18	0x3cb60c43	0.022222644
19	0x3c897c30	0.01678285
20	0x34a095e0	2.991137e-07
21	0x3c86b0f6	0.016441803
22	0x3f84fa08	1.0388803
23	0x3e81ecd1	0.2537599

res_net1.bn1.running_var f4 [24]
0	0x3cdcc782	0.026950601
1	0x3d485fd4	0.048919514
2	0x3bb4760a	0.0055072354
3	0x3baee78f	0.0053376625
4	0x3d3c32f4	0.04594703
5	0x3c33eab1	0.010981248
6	0x3f034f86	0.5129322
7	0x3b8e99c0	0.0043518245
8	0x3b82e4c5	0.0039945566
9	0x3d7b8f72	0.061416097
10	0x3c7eaaa6	0.015543615
11	0x2b6a27af	8.318857e-13
12	0x3e1fc720	0.15603304
13	0x3c819e14	0.015822448
14	0x3d72e31f	0.05929863
15	0x3ca3ead8	0.020009443
16	0x3e08d3a3	0.13361983
17	0x3f554d24	0.8332083
18	0x3ca87775	0.020564774
19	0x3c1606b7	0.009156874
20	0x33be4e75	8.861836e-08
21	0x3c28bffd	0.01029968
22	0x3f05852a	0.5215632
23	0x3e1de6df	0.15420102
