A2S2KResNet/models/S3KAIResNetpatch_7_SV_split_0.9_lr_0.001adam_kernel_240.999.pt (torch, 383500 bytes, 94 tensors)

conv1x1.weight f4 [24, 1, 1, 1, 7]
00000000: 2067 5cbe b40a 083e c390 7cbe 4c9d 903e
00000010: ef8f 873e fd52 9c3e 17ab acbe 67c4 47bd
00000020: 7b9b 7f3e 74a1 993e 7882 bfbd c57a 863d
00000030: 1c9b 95be 4c6e 53be af25 6fbe df2a 5c3e
00000040: 1d3f 563e 8ea7 e13e adf3 b13d a73a 17be
00000050: 6093 ac3d 4ada af3e 8ec7 3cbe f96a 2d3e
00000060: bea9 25be 6134 57bd 34bc d43e 21a7 423d
00000070: 96f3 4ebd 8da2 533e 72f1 d6be adf8 763c
00000080: 7f7f eb3d 6f12 14be a468 e0be 15de 0fbe
00000090: 899e 483e e6a5 a63d a7b1 8ebe a4cd 993e
000000a0: 9682 adbe 586c 25bc 6bfa c93d c6ab 653d
000000b0: 05e7 db3e 6395 bf3e 7166 b3bd 3711 963d
000000c0: 4a4e 85be ecba 64be f5b3 52be 513a cbbc
000000d0: 469c 89be 90f4 0b3e d029 733e 652e 9dbe
000000e0: ea3a 473e 526f b33e 32ae d1be bffe f8bd
000000f0: 0e0e 53be 47d5 943e ef0f c73e 6f42 0e3e
00000100: 8f85 a53e 0af2 123e 4ab1 43be 0a54 183e
00000110: a34b fe3d 7648 55be 9f76 9e3e 305b 2c3e
00000120: 2e17 85be 0803 95be 5810 a23e 1bcd 58be
00000130: 8a2d aa3d e268 b6be 0fbf 9cbe e2bb 973e
00000140: bd11 e8be 783a 53bd 667f 5e3e b780 783e
00000150: caf5 0ebe c629 da3e 371c 4e3e 169c f83d
00000160: 0b6f 47be a39d a2bc 4a63 dfbe 9432 acbc
00000170: cd3b 22be 2e58 c9bb 0ea8 863e 55e0 5d3e
00000180: 32ec 5c3e 7661 0d3d a60e 1bbe f001 c93d
00000190: dd3f 92be 7e05 66be 2e7e c93d c5d5 2e3d
000001a0: aaad 76be c7d5 09be 29c3 5a3d b3f0 ba3e
000001b0: 149d e03e 1628 f13c ef8f 33be 0eb5 253e
000001c0: ffac b23e 195b 5c3d 05b2 8ebe 747b 1c3d
000001d0: 8931 1d3c ff6f bf3e 6463 303d 849d 0b3e
000001e0: 10b0 8ebe 3822 92bd e293 b63c e7df 313d
000001f0: 2e84 f0be 874b 2cbe 88c5 323e 3c25 653d
00000200: dd29 e2be 07ec 213e d68c 093d e215 0abe
00000210: 0986 aa3e 2772 f0be 538b 17be 6f1b a0be
00000220: 06ef a4bd de70 a8be 2d19 413e 1b13 82bd
00000230: 26e9 093e b1fc 8e3e 219d 0d3e d027 d93e
00000240: d950 d2bc 6893 ae3e 3e43 6b3d 85c4 90be
00000250: 73e4 a3be 63c0 c6bd 77cf 35be 04e1 503c
00000260: de5e 933e 7fcd aa3d 5e22 ccbc 8e9d a0bc
00000270: fae8 873d 9701 b43e 8de6 123d 4e2c 133d
00000280: 46d2 08bf fa56 503d 05e8 c13e e5ac cdbe
00000290: 0336 16be 0c0c fb3d fb2f 3c3e 317d 853d
-0.21523714 0.13285333 -0.24664597 0.28245008 0.26477 0.30532065 -0.3372428 -0.04877129
0.24961655 0.3000599 -0.09351057 0.06566385 -0.29219902 -0.20647544 -0.23354219 0.21500729
0.20922513 0.44073147 0.086890556 -0.14768468 0.08426547 0.3434623 -0.18435499 0.16935338
-0.16178033 -0.052540187 0.41549838 0.047522668 -0.05052527 0.20667477 -0.41981083 0.015073937
0.11498927 -0.14460157 -0.43829834 -0.14049561 0.19591726 0.08137111 -0.27869913 0.30039704
-0.33888692 -0.010096632 0.098622166 0.05607202 0.4294969 0.3741866 -0.087597735 0.07327502
-0.26036292 -0.2233693 -0.2057646 -0.02480808 -0.2687704 0.13667512 0.23746419 -0.3069946
0.19456068 0.35045868 -0.40953213 -0.12157964 -0.2061083 0.29068968 0.38879344 0.1389253
0.3232846 0.14350143 -0.19110599 0.14875808 0.1241677 -0.20828423 0.30949876 0.1683166
-0.25994247 -0.29103875 0.31653094 -0.21171992 0.08309467 -0.35626894 -0.30614516 0.2963553
-0.45326033 -0.051569432 0.21728286 0.24267851 -0.13960949 0.42609996 0.2012795 0.12139146
-0.19475953 -0.019850558 -0.4363044 -0.021020211 -0.15843125 -0.006144545 0.2630009 0.21667607
0.21574476 0.034516774 -0.15142307 0.09814823 -0.2856435 -0.22463033 0.0983852 0.042684335
-0.24089685 -0.13460456 0.053408775 0.36511764 0.4386984 0.02943806 -0.17535375 0.16182348
0.3489761 0.053797815 -0.27870193 0.03820367 0.00959433 0.37390134 0.043063536 0.13634306
-0.278687 -0.07135433 0.022287313 0.04342642 -0.46975845 -0.16825686 0.17458165 0.055943713
-0.44172564 0.15812694 0.033581577 -0.1348491 0.33305386 -0.4696209 -0.14799242 -0.3127093
-0.080534026 -0.3289861 0.1885726 -0.063513 0.13467845 0.27927163 0.13829471 0.42413187
-0.025673317 0.34096837 0.057437174 -0.28274933 -0.3201023 -0.097046636 -0.17754923 0.01274896
0.28783315 0.083399765 -0.024918731 -0.019606378 0.06636234 0.35157463 0.0358644 0.035930924
-0.5344585 0.050864197 0.3787233 -0.4017097 -0.14669041 0.12258157 0.18377678 0.06518019

conv1x1.bias f4 [24]
00000000: 7f92 c4be 69d5 07bd cde6 51be b4cc cabd
00000010: 359f bfbc 5f64 423d fe8b ba3d 5682 a03e
00000020: 4f0d 8c3e 75e2 613e 9d62 5d3e 2c7e acbe
00000030: 2b1e 91be 0a39 34be dbe2 aa3e 1bdf 82be
00000040: 1f27 f63d 6b8d 98be 0bc8 c53d 9cea 923e
00000050: 0ce7 0bbe 50ad 8b3d 9e5b cd3c a50b 95bc
-0.38393018 -0.03316251 -0.204982 -0.09902325 -0.023391346 0.047459003 0.09108733 0.31349438
0.27353904 0.22059043 0.21619649 -0.33690012 -0.2834333 -0.17599884 0.33376202 -0.2556084
0.120191805 -0.29795393 0.09657296 0.28694618 -0.13662356 0.06820166 0.0250681 -0.01819403

conv3x3.weight f4 [24, 1, 3, 3, 7]
00000000: 5c96 f03d bfeb 163d 5393 63bc cc1a 3f3e
00000010: 749c 7bbd 04ce 153e 743c 2ebe 0884 153e
00000020: b631 c73d 91fe 073e 0d5d f13d 035c fcbd
00000030: 73f3 98bd 6a57 e03d a595 b4bd c733 9ebd
00000040: 568e 30bd 00ab af3d 7ef7 a5bc 0d2f f03b
00000050: 4db8 963e 2b76 8c3e 0125 953c 0e9a fdbc
00000060: f832 94bd ad59 d3bd d243 c23d ba88 283d
00000070: cebc e13c 052e 2abe 67f4 b73c 78a3 c1bc
00000080: 24c1 de3d 5d5d cc3c e75b a63d eed4 d33d
00000090: c854 47be 167b 913d ded1 02be 9b66 bebd
000000a0: 9016 1dbe 948c 8b3e ead6 b4bd c67c 293e
000000b0: 7979 e9bd 03b6 a43b b55a 4b3e 098e 36bd
000000c0: 8590 8a3e d2ea 393d b423 17be 9b1a ff3c
000000d0: 2ba4 0cbd b87a 0bbe 2cb1 87bd 0399 5fbd
000000e0: 6049 9c3a 35a1 80bd 807e 253d 067e adbd
000000f0: 9b54 36bd a18e 9dbe 2747 43bc 40f8 3f3e
00000100: 637b c23d 659a 143e 9f4b b3bd 2560 17be
00000110: 639a f73c 11b5 5c3c 2cb7 ea3c 3498 dd3d
00000120: bd64 2ebd f9be 14be 1226 7ebd 46a5 8ebe
00000130: d07c b13b 5201 3b3d 53d5 823d 9ec4 38be
00000140: 0366 08be a680 11bd f327 153e d513 26bd
00000150: 8a4c 40be 36b8 0cbe 17e4 893e 48af 4b3a
00000160: a66a 55bd fd7c 55be 92ed 82bd 3184 87bc
00000170: 49cf 1c3d 410c 1f3e 14af 02bb 6bff d1bb
00000180: 100f 0dbe b9de 23bd d2ed bc3d 3e86 a93d
00000190: fad8 47be 0c13 833d 7e08 fa3d a889 783e
000001a0: 4f73 5fbe 5f97 25be f034 2abd 26f1 773e
000001b0: c809 013d 32d7 5c3e 6eb4 85bd 5233 98bd
000001c0: e601 06be ff03 863c b9ab e43d 9bc3 c33d
000001d0: 46a4 823b ff63 0bbb 77b1 9fbd e9e1 f6bd
000001e0: 7921 d8bd cf0f de3c 27dc 11be 6194 b83d
000001f0: 1c42 fcbc bbf5 433e 903b b4bd 26aa 90be
00000200: c71c 04be bbe6 3ebe b209 fabc 7c94 a93c
00000210: 8bd3 2f3e 9f66 cfbc a09c 76be 66a9 eabc
00000220: 0fe4 cdbd 0b5c 56bd ccf8 1fbe 9391 0a3e
00000230: d090 fc3d bef6 e4bd 087e 093e ae9f 8c3d
00000240: de16 29be c0c1 1dbd ff28 c33d 9276 10be
00000250: ca73 b4be dd9e 8c3d bdea 49be fc4e fc3d
00000260: ae83 4bbd 0fd7 b33c d76c 31be f42d a6bd
00000270: 1880 4c3e 7c52 b13c e45f 65bd 51a2 4d3d
00000280: 51de 34bd d4c2 11bd 5e69 d9be baba 703d
00000290: 1ffe eebc c802 b4ba 11ad df3d 8793 1cbd
000002a0: 2801 0b3e 81bb 89be 0570 9d3d 5cb7 2dbd
000002b0: a912 d43c a9a6 ae3b b84b 2f3e 9b0f 2b3e
000002c0: eec0 97be 1ca8 b63d bc79 263c d688 a1bd
000002d0: a715 833d 7155 22be 500f ba3c 1243 3fbe
000002e0: 3a17 8abc 3c87 71bc 6978 a3bd 5676 913d
000002f0: 71ed e7bd b31f 5dbd 5c7a e9bd 1ad7 a03b
00000300: 2831 bb3d 1a29 2bbe 5f21 32be 0398 0bbc
00000310: d755 603d 5fbf 5d3d 1ebb 343d 7757 c43d
00000320: aed4 11be fb32 80bd b202 52be c71e 193d
00000330: 4e72 5ebd a2a8 a5bd 4d87 8e3d 0763 30bd
00000340: 7e59 0fbe 9752 dd3c 877f f43d 5afe 193e
00000350: d5dd 98bd c9d9 b33c 2363 34bd 71d1 0bbd
00000360: 72d1 be3d b07f bc3d da78 33bd fd02 d0bc
00000370: e237 4e3e 2890 993c 1cdd 1bbe 1bb5 0d3e
00000380: 5d99 b8bd a1c4 cb3c 51c9 a03d 531d 673d
00000390: 0986 343e 5c69 88be f47c 653e 106b 1c3e
000003a0: e822 8fbb 0daf 9dbe dd0a e73d 7676 983e
000003b0: fcde e1bd 3b74 2d3e 7cbd 4abd 2c1a 1ebe
000003c0: 733a 103e a5c1 393e 25b9 213e 2645 a03d
000003d0: d4b5 a9bd 477d 6ebd 893c a13c ea5b d1bd
000003e0: 8f22 b2bd 3413 253e bd6e 25be 5f73 2dbe
000003f0: 465b 683c a837 f2bc 8ebf 833d 69db 0fbc
0.11747429 0.03684592 -0.013890105 0.18662566 -0.061428502 0.1462937 -0.17015249 0.14601147
0.097262785 0.13280703 0.11785326 -0.12322237 -0.07468309 0.10954173 -0.08817605 -0.077247195
-0.043104492 0.085775375 -0.020259615 0.0073298276 0.29437485 0.27433905 0.018206121 -0.030957248
-0.07236284 -0.10319839 0.09485592 0.041146018 0.02755585 -0.16619118 0.022455407 -0.023637518
0.108766824 0.024946863 0.08122998 0.103433475 -0.19465935 0.07103555 -0.1277537 -0.09296914
-0.15340638 0.2725569 -0.08830054 0.16551504 -0.11400122 0.0050265803 0.1985882 -0.04456905
0.27063385 0.045389958 -0.14759713 0.031140616 -0.03433625 -0.13621032 -0.0662559 -0.054589283
0.0011923723 -0.06280748 0.040403843 -0.08471303 -0.04451428 -0.3077288 -0.0119188195 0.18747044
0.094961904 0.14512022 -0.08754658 -0.1478277 0.030224985 0.013470904 0.028651796 0.10820046
-0.04257654 -0.14525975 -0.062048025 -0.2786047 0.00541649 0.045655556 0.063883446 -0.18043754
-0.13320164 -0.03552308 0.1456602 -0.040546257 -0.18779197 -0.13742146 0.2693183 0.00077699544
-0.05210366 -0.2084846 -0.06392969 -0.016542526 0.03828362 0.15532018 -0.001994078 -0.006408622
-0.13775277 -0.040007327 0.09225048 0.08277558 -0.19516364 0.06400117 0.12208651 0.24271262
-0.2182133 -0.16171025 -0.04155439 0.24213085 0.03150347 0.21566465 -0.06528555 -0.074316636
-0.13086662 0.016359327 0.11165566 0.09558793 0.003986868 -0.002126932 -0.077975206 -0.12054808
-0.105532594 0.027107147 -0.14244138 0.09012676 -0.030793242 0.19136707 -0.08800423 -0.28254813
-0.12901603 -0.18642704 -0.030522201 0.020700686 0.17170541 -0.025317488 -0.24083185 -0.028645229
-0.10053264 -0.052333873 -0.15622252 0.13532095 0.12332308 -0.11179875 0.13426983 0.06866394
-0.1651263 -0.038514853 0.09529304 -0.14107731 -0.3524459 0.06866238 -0.19718452 0.123197526
-0.049686126 0.021953134 -0.17326675 -0.081142336 0.19970739 0.021645777 -0.05599965 0.050203625
-0.04415733 -0.035586193 -0.424632 0.058771826 -0.029173909 -0.0013733739 0.10921682 -0.03822663
0.1357466 -0.26900867 0.07687382 -0.042411193 0.025887804 0.005329926 0.17118728 0.16705172
-0.2963938 0.08918783 0.01016086 -0.078874275 0.06400614 -0.15852906 0.02271238 -0.18677929
-0.016856778 -0.014741715 -0.07981951 0.07102649 -0.11324585 -0.05398531 -0.11400291 0.0049084546
0.09140235 -0.16714898 -0.17395543 -0.008520129 0.054769363 0.054137584 0.04412376 0.09586995
-0.14241287 -0.06259724 -0.2050884 0.037382867 -0.05430823 -0.08088805 0.069594 -0.04306319
-0.13998982 0.027016921 0.119383864 0.15038434 -0.07464186 0.021954434 -0.044039857 -0.034135286
0.09317292 0.09204042 -0.043816425 -0.02539205 0.20138505 0.018745497 -0.15221065 0.13838618
-0.09013627 0.024874033 0.07850898 0.05642445 0.17629255 -0.26642883 0.22410947 0.15275216
-0.004368175 -0.30797616 0.11281369 0.2977788 -0.11028859 0.1693887 -0.049497113 -0.15439671
0.14084797 0.18140276 0.15793283 0.07825689 -0.08286634 -0.058224943 0.019682186 -0.10222609
-0.08697998 0.16120607 -0.16155525 -0.16938542 0.0141819175 -0.029567555 0.064330205 -0.008780339

conv3x3.bias f4 [24]
00000000: 1392 b5bd d68d 323d e5c3 693d c723 f7bc
00000010: 792d 563a 7fdd a13d 9152 01bd 47e2 c23d
00000020: 9df1 bd3d f89c 293d 857a fdbd ab6c 44bd
00000030: d738 2d3c ce06 853d b646 33bd c781 6f3d
00000040: a595 47bd 1b7a a8bc dd09 34bb f073 c83d
00000050: 02c1 a1bd 26fd b2bc 4ee5 d23c ef3a b93d
-0.08865752 0.043592297 0.057071585 -0.030168427 0.0008170228 0.07903575 -0.031572882 0.09515815
0.092746 0.041409463 -0.12376884 -0.047955196 0.010572634 0.064954385 -0.043768607 0.058473375
-0.048726697 -0.020566037 -0.00274717 0.09787738 -0.078981414 -0.021849226 0.025744107 0.09044444

batch_norm1x1.0.weight f4 [24]
00000000: 7f57 703f cdd7 853f deb0 7a3f 9d4b 913f
00000010: 031b 8c3f dd20 943f 802b 643f 3f93 7e3f
00000020: a5d4 743f 2d7c 853f 7ad0 763f 5433 983f
00000030: 0ea6 8a3f 2e60 873f ac73 873f e0f6 6e3f
00000040: 8961 883f bcfe 8b3f 636b 7d3f 0743 843f
00000050: 8a85 823f 687e 823f e00d 993f 0c1d 713f
0.9388351 1.0456482 0.9792613 1.13512 1.0945743 1.1572529 0.89128876 0.9944343
0.9563697 1.042852 0.9641186 1.1890664 1.0831926 1.0576227 1.0582175 0.9334545
1.0654765 1.0937114 0.98991984 1.0332955 1.0197003 1.0194826 1.1957359 0.94184947

batch_norm1x1.0.bias f4 [24]
00000000: 3d27 d1bd 257d 36be fb87 2cbe e27a dfbd
00000010: d2fd d0bc 46c1 b0bc 42a2 5abe 91f7 783c
00000020: 8875 0cbe 998d debc 07e7 10be 31aa 8cbd
00000030: 5059 0cbd 520f 74bc 56bb f0bd d66f 11be
00000040: 2e48 3f3c d727 07be 8f44 f5bd 3d8e 69bd
00000050: 9b74 8dbd 9be3 81be 1163 b7bd f63a f9bd
-0.10212562 -0.17821176 -0.16848747 -0.1091211 -0.025511656 -0.021576535 -0.21350959 0.015195743
-0.1371671 -0.027167128 -0.1415063 -0.06868399 -0.034264863 -0.014896231 -0.117544815 -0.14202818
0.011674924 -0.13198791 -0.11975967 -0.057020415 -0.06907006 -0.25368962 -0.08954442 -0.12169449

batch_norm1x1.0.running_mean f4 [24]
00000000: 7a9f cabe d6a4 73bd d390 80be 378a 9abd
00000010: 9544 c9bc a2f7 453d 459b 613d 86e8 ad3e
00000020: 06ec 843e 64e5 513e 0854 7c3e 4b16 a2be
00000030: ecf1 b0be f4c6 28be 276d af3e 478e 95be
00000040: 04fa 083e a28d 87be fd77 df3d 8a69 913e
00000050: ab96 38be a13e c63d 9c56 203c f10f ccbc
-0.39574796 -0.05948337 -0.25110492 -0.07545894 -0.024568835 0.048331864 0.055079717 0.33966464
0.25961322 0.20497662 0.2464143 -0.31657633 -0.34559572 -0.16482145 0.34262964 -0.29210111
0.13376623 -0.26475245 0.10911558 0.28400832 -0.18026225 0.09679914 0.009786274 -0.024909945

batch_norm1x1.0.running_var f4 [24]
00000000: 3d34 bb3e 8f88 8c3e 484d 9f3e f217 ab3e
00000010: bf91 b73e 5bb8 9c3e e142 c03e 4fad 8c3e
00000020: 5ecf 143f 0f6c 713e bfee c33e 2eb8 003f
00000030: 33f7 d03e 711c 1c3e c41a 483e aaae af3e
00000040: 5817 993e 5621 8c3e b2f1 a73e c1a5 f93e
00000050: 6ba0 983e 468c 913e 817c c13e 9bbc ac3e
0.36563292 0.27447936 0.31113648 0.33416706 0.35853383 0.30609402 0.37551025 0.27475974
0.5812892 0.23576377 0.38268086 0.50281036 0.40813598 0.15245225 0.1954146 0.34312946
0.29900622 0.27369183 0.32801586 0.48759273 0.2980989 0.28427333 0.377903 0.33737645

batch_norm3x3.0.weight f4 [24]
00000000: c129 723f 1f93 7f3f baef 943f e6cd 6e3f
00000010: bb8d 6c3f 9713 903f b9e6 823f c829 7f3f
00000020: 010c 723f 1fc5 8d3f 5ef0 883f 38c1 713f
00000030: 34b1 863f 0074 8e3f 00ca a43f bce8 a03f
00000040: ef49 933f 7f91 803f 8f56 823f b958 883f
00000050: a615 8c3f fe54 843f 9603 903f 7b82 913f
0.9459496 0.99833864 1.1635659 0.93282926 0.92403764 1.1255978 1.0226661 0.9967313
0.94549567 1.1075782 1.0698354 0.94435453 1.0522828 1.112915 1.2874146 1.2571025
1.1506938 1.0044402 1.0182666 1.0652076 1.0944107 1.0338438 1.1251094 1.1367944

batch_norm3x3.0.bias f4 [24]
00000000: b1b9 48be 99b7 afbd 91d0 5cbe 3ea4 c3bd
00000010: 6862 00be ebc8 353d 9e05 67be 66f6 27bd
00000020: 0abd cbbd b31e 04be 9fbd adbd 9ac7 0ebd
00000030: 5714 cabd 1168 f1bb 7e02 5c3d 873a c1bc
00000040: 7f87 4538 c741 1abd 5c5e febd 2036 f5bd
00000050: 7063 dcbd 4a10 0abe 1be6 e2bd 1083 8dbd
-0.19602086 -0.0857994 -0.21563937 -0.09552811 -0.12537539 0.044381063 -0.22560737 -0.04100647
-0.09948166 -0.12902336 -0.08483433 -0.034858324 -0.09867161 -0.007367142 0.053713314 -0.023587478
4.709465e-05 -0.037660386 -0.12420341 -0.11973214 -0.10761154 -0.13482776 -0.110790454 -0.06909764

batch_norm3x3.0.running_mean f4 [24]
00000000: 4395 69bd 80a6 cb3c a690 4f3e ae53 82bc
00000010: 31ce 023d 1837 97bd 7719 dabc 8fb2 233e
00000020: 0c57 113e 87e0 d23d 65ec bfbd 4771 b8bd
00000030: 585e 5abd 5d6c ba3d 7177 cc3c af89 70bc
00000040: 4516 18be cb77 bd3d ee94 bb3c ef6e 6e3d
00000050: 8d11 27be b5c1 cdbc 213d 57b9 c23a a73d
-0.057027113 0.024859667 0.20270023 -0.015909042 0.03193492 -0.07383555 -0.02662347 0.15986083
0.14193362 0.102967314 -0.093712606 -0.09005981 -0.05331263 0.091027 0.024959298 -0.014681264
-0.14852245 0.09251364 0.022898164 0.058211263 -0.16315289 -0.02511678 -0.0002052677 0.08165504

batch_norm3x3.0.running_var f4 [24]
00000000: 6c54 3e3f 5d60 2b3f ff01 4440 b4bc 943f
00000010: db90 9f3f 8e5d 1940 4b4e 203f 10a2 eb3f
00000020: 3943 df3f 5050 cf3f 7091 123f 9055 3740
00000030: 6b6e 2340 c4d4 d43f ca3b 6240 713d 883f
00000040: b915 ad3f 3989 0040 c244 3a3f b7a0 1040
00000050: c3bb 1440 602e 833f 8f71 0c40 6213 5e3f
0.7434757 0.66943914 3.0626218 1.1620088 1.2466081 2.3963351 0.62619466 1.8408833
1.744239 1.6196384 0.5725317 2.8645973 2.5536144 1.6627431 3.5348992 1.064375
1.3522254 2.0083754 0.72761166 2.2598093 2.32396 1.0248528 2.194431 0.86748326

conv_se.0.weight f4 [7, 24, 1, 1, 1]
00000000: 2be7 fe3d 0278 99bd f57e 66bc 33ab 343d
00000010: bcf9 0c3e 4cc5 81bd 9c89 173e 097f 0c3e
00000020: 5348 163e c1b3 4abe 98ad 363c 0071 ed3d
00000030: a596 953d 99fe 0d3d 03d1 133e 73ca a9bb
00000040: a073 a7bd 3d63 943d d173 83bd 09f7 203e
00000050: 5d12 49be c352 1ebd c288 2ebe 514f 17be
00000060: 9e13 e4bd 344e 00be 74d6 2cba b8e9 0e3e
00000070: f3a9 363e 494e 1cbe f571 b1bd 8960 063e
00000080: 6f46 15be 9e81 90bd 8384 c0bd cb1d cdbd
00000090: 600c 213e e3fb 0c3e c8f9 ed3d b7bd a43d
000000a0: b12b 213e 52c6 083d 0bf2 693d 3b13 22be
000000b0: f96b 31bd 5452 9bba 5295 7fbc 2b91 8bbb
000000c0: 2963 1c3e 3a2e dcbc 2197 29be 02ac 43be
000000d0: 23a2 763d 610a 3f3e 8bf6 e03d f5d8 d63d
000000e0: 7f76 163e 8ada 39be 024e 3fbe d9f4 5c3c
000000f0: 19ee b23d af8c dabd a20d bb3d 517a 4e3e
00000100: 3c4b 1cbe f665 083e b90b ff3d 1611 03be
00000110: ed91 8bbd 553e 0dbc 32b2 8d3c 829a 4f3e
00000120: 027d 0bbe 30b9 793d 4249 92bd bf68 27be
00000130: 9210 423e 6123 4abe f053 023e 1086 53bd
00000140: 5c88 1ebe 22a9 e7bd 280a 9dbc 5a93 4dbe
00000150: b0ac c0bd 40a1 3c3c c066 f8bb 89ec 26be
00000160: c2c8 02be 8b8a e2bd 1f50 f6bd b4da 97bd
00000170: 70b2 f13d d8ea 143d a9d8 cfbd 18fe a43d
00000180: 5c22 053e b091 a83c 8c95 c23d fe91 40be
00000190: b013 0cbe 1cf3 3ebd fa96 48be f02e 19be
000001a0: 68ea 1c3d de28 3cbe f415 0cbd c8fc 923d
000001b0: 8cc2 43bd fae7 3cbe 3029 37bd cdde eebd
000001c0: 2e95 50be 6d56 32be c67e 0cbe 0e4a 293e
000001d0: 6c17 70bd 5a7c adbd ac47 65bd de12 3f3e
000001e0: 696f 183d 6caa 963d cdb0 453d 280d b7bd
000001f0: 07cc c23d 5ac0 3bbe 393c e03d 4f45 d3bd
00000200: 7925 5b3b c73b 10bd e074 d73c b201 3d3e
00000210: db62 953c 7289 53be 4d89 403d e178 ad3c
00000220: 95b8 183d 610d e63d 9f5d d5bd a66c b63d
00000230: 99e5 263e 1435 043d 4eba c83d 0f4b d2bd
00000240: 3e72 f9bd 59c5 e9bc 059f 2fbe 0f3c d1ba
00000250: 98b4 333d e641 dd3d daa1 1abe 98aa 38bd
00000260: cd0f 283d 8fb0 c4bc f193 12be 9529 49be
00000270: 83d3 09be f09a 86bd 1d04 9fba a704 4bbe
00000280: 1ff4 d23d c40c 063e db5c 353e 85d3 4e3e
00000290: 8fe0 4cbe ed9c d4bd d94b 9ebd 705a f03c
0.124464355 -0.07493593 -0.014068355 0.04410858 0.13767141 -0.063364595 0.14798588 0.13720335
0.14676027 -0.19795133 0.011149786 0.11593819 0.07304124 0.03466663 0.144352 -0.0051816045
-0.081763506 0.07245491 -0.064185746 0.15719236 -0.19635911 -0.038653146 -0.17044356 -0.1477635
-0.11136554 -0.12529832 -0.00065932353 0.13956344 0.17838268 -0.15264238 -0.08664314 0.13122763
-0.1457765 -0.070559725 -0.094002746 -0.10015448 0.15727377 0.13767962 0.116199076 0.08043998
0.15739323 0.033392258 0.057115596 -0.15827648 -0.04331586 -0.0011850097 -0.015599566 -0.0042592487
0.15272202 -0.026877511 -0.16561557 -0.19108585 0.06021322 0.18656303 0.10984524 0.104906
0.1469364 -0.18149772 -0.18682101 0.013486111 0.0873682 -0.106713645 0.0913346 0.20163848
-0.15263075 0.13320145 0.12453408 -0.12799487 -0.068149425 -0.008620818 0.017296884 0.20273784
-0.13621905 0.060967624 -0.07142879 -0.16348551 0.18951634 -0.19740058 0.12727332 -0.051641524
-0.15481704 -0.113115564 -0.019169882 -0.20075741 -0.094079375 0.011513054 -0.007580608 -0.16301169
-0.12771896 -0.11061581 -0.12027001 -0.07414761 0.118016124 0.036356777 -0.101487465 0.08056277
0.13001388 0.020577282 0.0950118 -0.18805692 -0.13679385 -0.046618566 -0.19588843 -0.14959311
0.038309485 -0.18374965 -0.034200624 0.071771204 -0.047792956 -0.18447867 -0.044717014 -0.116635896
-0.20369408 -0.17415781 -0.13720235 0.16532156 -0.058616087 -0.08470984 -0.055976555 0.18659541
0.037215624 0.07356724 0.048264313 -0.08938056 0.095115714 -0.18335095 0.109489866 -0.10315954
0.0033439083 -0.035213258 0.026300848 0.18457678 0.018235615 -0.206579 0.04700594 0.021175804
0.037285406 0.112330206 -0.104182474 0.08907442 0.16298522 0.03227718 0.0980116 -0.102682225
-0.12179993 -0.028536486 -0.17150505 -0.0015963333 0.0438734 0.10803585 -0.15100804 -0.045084566
0.041030694 -0.024009971 -0.14314248 -0.19644769 -0.13459592 -0.06572521 -0.0012131963 -0.19825993
0.10300469 0.13090807 0.17711203 0.20197876 -0.20007537 -0.10381494 -0.077293105 0.029339999

conv_se.0.bias f4 [7]
00000000: 0a3c 03be 4e0c 0b3d 410a 113d 48e1 6abd
00000010: 1a56 223e 1aa9 093e 17d1 b23b
-0.12815872 0.03394728 0.03541017 -0.05734375 0.15853158 0.13443413 0.0054570544

conv_ex.weight f4 [24, 7, 1, 1, 1]
00000000: fca3 62ba 9d8a 293c 42fa 803e 3903 a8be
00000010: 7a72 bebe 1859 b9be 1897 c03e 453c 96be
00000020: 8cb2 f83d 5e0f 74bd 4e9e 333e c059 dd3d
00000030: 7c2d 3e3e a579 eebd b8e3 9e3e 04ef 98be
00000040: 23b7 66be aa0c 5e3e 0544 8fbe d92f 0cbe
00000050: 7038 f3bd 690e a2be fd1f 97bb 2e5b 973e
00000060: c512 a33e ebd9 05be 921c b5be c84c 72be
00000070: 00ca b5be e1fd 5fbe f3fb 1c3e 0918 af3e
00000080: 02c1 5e3e 1421 99be 8aec a73e 9f14 8e3c
00000090: 90b5 a53e b849 b2be 7c04 f33d 8463 debd
000000a0: fe79 a43e 9bfc 2e3e 1fb5 e23d dff1 813e
000000b0: d8f9 20be d0b7 2b3d d596 a83e 7869 10be
000000c0: 5932 b83d 129e 6bbe 1033 f1bd fa9a b6be
000000d0: 0427 f63d 5182 bf3e dda1 83be b363 183e
000000e0: 1fb8 783e 7b92 be3e 9a5a 583e 5e2e 80be
000000f0: 2315 833e 925a 043c e8f9 cbbd c09d b3be
00000100: 4520 0d3e a769 2b3e 7a5d 2e3e 4ccd a6bd
00000110: bec7 a0be 50b5 a93e 68fb a3be 25f8 8bbe
00000120: 9c3c 94bc 558a 9abe c09a 23bd 9f5d 92be
00000130: 5160 6e3c 4644 3a3e 4a10 b8bc 8fdc b83e
00000140: fded 87be a0ba 93bd d954 1d3c b182 21be
00000150: 3f8f 46be 2879 bdbc 529f 653d d110 8e3e
00000160: 0954 843e c397 953e 6309 ea3c 7f2e 10be
00000170: 181f 1f3e 32d0 32be 188a 81be 7863 fabd
00000180: f59b 443d 2aaa 313e 9b76 29be 2c6d 813b
00000190: 7338 86be b019 15bd b0ea aabc 1b73 b83d
000001a0: 2263 3c3d 1eff 97be 3632 3b3e 3082 813d
000001b0: f8b7 7d3d 5ae8 7f3e 941f f5bd 51fc 84be
000001c0: 41ea c9bd 991f 4e3e 192a 1e3d e549 a8be
000001d0: 6a71 0f3e 3fc6 78bd 0f97 4d3e 74e3 88bc
000001e0: e6e8 e8bc 4441 debd 49fd 7bbe 89a7 a3be
000001f0: 873f 34bd 6732 e3bd 4007 493e 6593 b33e
00000200: 25c2 26be 8d3f 853e 18bd afbe e234 9c3e
00000210: 615c 353e 3d4a 7f3e a027 a3bd 744d f43c
00000220: e0b9 8dbc c08a a2bc a520 59bd ee01 21be
00000230: cfcf 613e 0d98 f9bd d146 6e3e 396d 76be
00000240: bf13 9d3e 0a18 313e eb4d ac3e dbed 493e
00000250: 3363 613e 02f7 16be e4df 88be aaf9 713e
00000260: 1e44 8a3e a8c3 943e c05d 87be 5c71 b6be
00000270: 990f b4be d322 873e 8db3 b2be 7b84 013e
00000280: fe5a 9dbd 4680 8cbe 5919 2dbe f387 97be
00000290: 61dd 4abe 366b 25be b759 9bbe ecbe c2bc
-0.00086456514 0.010347989 0.25190932 -0.3281496 -0.37196714 -0.36200786 0.37615275 -0.29342857
0.1214343 -0.059584968 0.17540857 0.10808134 0.18572038 -0.116442956 0.3103311 -0.29869854
-0.22530799 0.21684518 -0.27981582 -0.13690127 -0.11875999 -0.3165162 -0.0046119676 0.29561752
0.31850258 -0.1307141 -0.3537336 -0.23662102 -0.35505676 -0.21874191 0.15330486 0.34198025
0.21753314 -0.2990805 0.32797652 0.017343817 0.32365084 -0.34821868 0.1186609 -0.10858825
0.32124323 0.17088549 0.11069702 0.25379845 -0.15720308 0.041923344 0.32927576 -0.14102733
0.08993978 -0.23009518 -0.117773175 -0.35665113 0.120191604 0.3740411 -0.2570943 0.14881782
0.24288987 0.3722113 0.21128312 -0.25035375 0.25602064 0.008078234 -0.09959775 -0.3508129
0.13781841 0.16739522 0.17027846 -0.08144626 -0.3140239 0.33146143 -0.32027745 -0.27337757
-0.018095307 -0.30183664 -0.039942503 -0.28587052 0.014549331 0.18190107 -0.022468705 0.36105773
-0.26548758 -0.0721333 0.009602749 -0.15772511 -0.19390582 -0.02312906 0.056060143 0.27747205
0.25845364 0.29217348 0.028568929 -0.14080237 0.15539205 -0.17462233 -0.2530067 -0.122260034
0.048000295 0.17350069 -0.1654915 0.003949782 -0.26214942 -0.03640145 -0.02086386 0.090063296
0.045992978 -0.29686826 0.18280873 0.063236594 0.061943024 0.24990979 -0.11968914 -0.25973752
-0.098591335 0.20129241 0.038614366 -0.32868877 0.14008108 -0.060735937 0.20077156 -0.01671002
-0.028431367 -0.10852292 -0.2460834 -0.31963757 -0.044005897 -0.11093598 0.19631672 0.3507339
-0.16284998 0.26025048 -0.34323955 0.30509096 0.17711021 0.24930663 -0.07966542 0.029822089
-0.017300546 -0.019841552 -0.053009648 -0.15723392 0.22051929 -0.121872045 0.23269202 -0.24065103
0.30679128 0.17294326 0.33653197 0.19719641 0.22010498 -0.14742664 -0.26733315 0.23630396
0.27005094 0.29055524 -0.26438713 -0.3563336 -0.3516815 0.26393756 -0.3490261 0.12648194
-0.07683371 -0.27441615 -0.169042 -0.2959591 -0.19811012 -0.16154179 -0.30341884 -0.02377268

conv_ex.bias f4 [24]
00000000: e322 88bc fb70 00be c863 9e3d 8317 843e
00000010: cbe3 9c3c b297 55bc 642a 073c b6f8 2fbd
00000020: fb9e af3e 8883 a83e 3f3c 7bbe 7dca 9b3e
00000030: 40c5 2abe b1d9 4b3e c628 88bd 9afa 9e3d
00000040: ed7c 00be 56e9 bd3d 5d6a af3e 893e 893e
00000050: 4545 aa3e 107c 933e af3c 7b3c 8263 8c3d
-0.016618198 -0.12543099 0.077338755 0.25799188 0.019151589 -0.013036655 0.008249853 -0.0429618
0.3430098 0.3291285 -0.24534701 0.30427924 -0.16676807 0.19907261 -0.06648402 0.07762642
-0.12547655 0.09273021 0.34260836 0.26805523 0.33255973 0.2880559 0.015334292 0.06854917

res_net1.conv1.0.weight f4 [24, 24, 1, 1, 7]
00000000: 1efc 1a3b 1cb6 c8bd 47dd 443b dc1c 5dbe
00000010: 8489 0dbe 8b87 2abe b3fc 443e e671 e83d
00000020: 5f22 063d ac36 0ebe a752 323d c845 b0bd
00000030: 36df d8ba 45e2 21be 653b e13c 6ad7 70bd
00000040: 1664 d6bc 9870 fd3d fc22 14bd 8084 bfbb
00000050: 6266 1a3d 223b c5bd b5fd 44bd 440e cfbc
00000060: 4842 ff3c f745 953d d902 a13b 0eee 833d
00000070: ba7b 4fbd 34a4 4bbe 65ca b0bc f0d1 2dbd
00000080: 9a85 40be d3dd 483d 7f4e c53d ff7b 13bd
00000090: 0df3 25bd f430 01be 83bc 293e 05a4 333c
000000a0: 9cff b5be 43f3 41bd c9d1 803d f3c6 32bd
000000b0: 5f87 50be a9e4 adbd 250b ec3c cbdd c43d
000000c0: 7531 8aba fa77 9abc a190 c1bd c5bf b3bd
000000d0: 5fc3 ffbc 901e 223d d190 953d 2911 a9bd
000000e0: 4ac8 30bd e040 113c 107d 9439 b589 9abd
000000f0: bca9 063e 93cc 87bc 8635 22be 7dd0 da3c
00000100: a33e 1abc 1389 c3bd bbfe debc e86b 0bbe
00000110: bc50 0dbe e63f c73d 9638 d53b b592 09bd
00000120: 5ba5 eebd 074c 72bd eb82 afbd eb25 f4bd
00000130: 2bb1 81be fd46 b93c 695a 313b a86c 29be
00000140: 9260 093e 8249 403d 3b24 8dbd f746 37be
00000150: 575a c3bb f5e1 12be 4c0c 9ebd 5c5a 1dbe
00000160: 5d9e 62be ae35 95bd 49cc 0c3e 0a9e 0e3d
00000170: df74 883c 35de 53be 253e 6dbe 2311 bb3d
00000180: 8b4e 573e 8e2e 013d e5c3 2d3d 9088 a93c
00000190: 0f86 5cbd bb3c 94bd e2c6 0dbe 025d 15be
000001a0: 508b d5bc 629a 413c 6fa1 2fbe 4a32 f3bd
000001b0: b06b 0dbc 5708 f0bd 4dc2 85bc 7f05 a2bd
000001c0: 5254 29bd 9742 96bd 3abe bfbd 13df 6e3d
000001d0: 302e aabd 3641 7ebd 3fcc 35be ad2b b0bc
000001e0: 04f9 5dbd ae25 8bbb 1a5f a83d 97bb 29be
000001f0: d1e0 14be 220d 99bd a6d5 153d f99a 003d
00000200: 257a 5ebd 5e26 ad3c efb0 2fbc e330 52bd
00000210: 8e87 f03c 7934 18bd c766 4fbd c1ee d1bc
00000220: 4f45 0cbc 1915 033c 5b57 3abd 2b4a 72bd
00000230: 6878 d83c 58ec ddbd 3056 663b faef a23d
00000240: 9b2f 8e3c 4dc5 413e 8c5a 1f3d f445 aabd
00000250: e74a 9abd c33a 78bb 2067 653d 7a1e bb3d
00000260: e3c4 d3bc b5ac 15be 622d d0bd f668 81bd
00000270: 98d2 84bd 09f1 fe3d 5b0e 95bc 5dc7 9e3d
00000280: d493 153e c85c b0bb 6fb6 883b ec3c 90bc
00000290: 5fc4 fc3c c8ef 67bd 833a 1ebe 10b3 babd
000002a0: 7840 393d 8426 b93d aceb 55be 0dd9 4cbd
000002b0: 05e0 8f3d 0d1f 12bd bf14 fcbb 1611 603c
000002c0: a5cb d8bc e128 af3d d9c2 33be 7d7f 4f3e
000002d0: 0577 9e3d 57d7 a8be f2cf 5e3e 3a2a 263d
000002e0: d4af d0bd e630 d23c a0f0 3f3d a309 c7bd
000002f0: 580c 44be f642 37bd 8097 bebd 4ecd 2bbe
00000300: c783 d73d de78 993d 8d6f 583d 1719 253d
00000310: 3fcc a2bc cd1e b03c e047 c2bc 1f9b a43c
00000320: a1c0 dd3d f621 c7bb 4962 f23d 55a9 1f3e
00000330: 001f 56bd 140a 993d 6c25 14be 7410 033d
00000340: 0ae8 9bbd c092 f1bd ba42 17bd f1f7 74bd
00000350: 1c49 ffbc c915 cebd 5c67 a5bc 81dc 40bd
00000360: b2e7 15be 2498 9abd 8f0c 95bc 412c 1c3c
00000370: 5c49 d63d 0715 a33d 188b 6e3c 6a41 22be
00000380: 2fbe 6b3c e9ae a03d f749 163d f4b4 1f3e
00000390: a55a e3bd d5de 79bd c2b1 02be b718 233d
000003a0: 6466 043d 31a8 083e fb90 9fbc d3ee cb3d
000003b0: 472e 163e fc5a 013d a913 b6bd 5a6d e0bc
000003c0: d7d5 2f3d f0bf 0a3e 5726 d8bd ceeb 09bd
000003d0: 867d 10be 56fb 893c d963 c6bd a4ab fabd
000003e0: bafb 4f3d 945d c3bd 89a1 073c a518 01be
000003f0: f2bb d0bc a7f0 79bd 60b3 d73d bbaf afbd
0.0023648809 -0.098003596 0.0030039118 -0.2159304 -0.1382199 -0.16653268 0.19237022 0.113498494
0.032747623 -0.13888043 0.043535855 -0.0860706 -0.0016546014 -0.15808971 0.027494142 -0.058799185
-0.026170772 0.12374991 -0.036166176 -0.0058446527 0.037695296 -0.09630419 -0.048093516 -0.025275357
0.031159535 0.07288735 0.0049136695 0.0644189 -0.050655104 -0.19886857 -0.021580884 -0.04243654
-0.18800965 0.049039673 0.096341126 -0.036006924 -0.040514994 -0.1261633 0.16575818 0.010964398
-0.35546577 -0.047351133 0.06290013 -0.043646764 -0.2036414 -0.08490879 0.028813908 0.09612616
-0.0010543304 -0.018856037 -0.09451414 -0.087768115 -0.03122109 0.039579928 0.07303012 -0.08255226
-0.04315976 0.008865565 0.0002832194 -0.07545797 0.13150686 -0.01657704 -0.1584073 0.026710743
-0.009414348 -0.09547629 -0.027221074 -0.13615382 -0.13800329 0.097289845 0.0065069897 -0.033587176
-0.11652633 -0.059154537 -0.085698925 -0.11921295 -0.2533048 0.022616858 0.0027061945 -0.16545355
0.13415745 0.046945103 -0.06891676 -0.17898165 -0.005961697 -0.14344008 -0.07717189 -0.153665
-0.22130723 -0.07285629 0.13749804 0.034818687 0.016657291 -0.20690234 -0.23168238 0.09134128
0.21026056 0.03153854 0.042423148 0.020695 -0.053838786 -0.07238146 -0.13845399 -0.14586261
-0.026067406 0.011816593 -0.17151426 -0.11874826 -0.008631632 -0.11720341 -0.016328001 -0.079112045
-0.04134018 -0.0733692 -0.09362455 0.05831821 -0.08309591 -0.06207391 -0.17753695 -0.021505201
-0.054192558 -0.004246435 0.08221264 -0.16575466 -0.14538886 -0.07473208 0.036580704 0.031397793
-0.054315705 0.021136459 -0.010723337 -0.051316153 0.029361513 -0.037159417 -0.050635125 -0.025626542
-0.008561446 0.008000636 -0.045493465 -0.059152763 0.026424602 -0.108360946 0.0035146587 0.07955928
0.017356684 0.1892292 0.03890471 -0.08314124 -0.07533818 -0.0037876822 0.05600655 0.09136672
-0.025850719 -0.14616664 -0.10164906 -0.06318848 -0.0648548 0.124483176 -0.018195322 0.07752869
0.14607173 -0.005382154 0.0041721384 -0.017607175 0.030855356 -0.056625158 -0.15452008 -0.09116185
0.045227498 0.090405494 -0.20890683 -0.050011683 0.0702515 -0.035674144 -0.007692903 0.013675949
-0.026464293 0.08552719 -0.17554797 0.20263477 0.07737545 -0.3297679 0.21759012 0.040567614
-0.101897866 0.025658082 0.046860337 -0.09718635 -0.19145334 -0.044741593 -0.0930624 -0.16777536
0.105231814 0.07493757 0.052840758 0.04030713 -0.019872783 0.021499062 -0.023715913 0.020093499
0.10827757 -0.0060770465 0.11835153 0.15591939 -0.052275658 0.074726254 -0.144674 0.031998113
-0.07612617 -0.117955685 -0.03692887 -0.059806768 -0.031162791 -0.10062749 -0.020190887 -0.04708529
-0.14639166 -0.0754855 -0.018194465 0.009532035 0.10463211 0.07962995 0.01455953 -0.15845266
0.014388605 0.078458615 0.036691632 0.15596372 -0.111012734 -0.061003525 -0.12763122 0.03981849
0.03232421 0.1334541 -0.019478312 0.099576615 0.14666091 0.03158091 -0.088904686 -0.027395893
0.042928543 0.13549781 -0.10554188 -0.033672146 -0.14110383 0.01684348 -0.09687013 -0.12239769
0.050777175 -0.09539333 0.008278259 -0.12607057 -0.025480244 -0.06102052 0.1053226 -0.0857844

res_net1.conv1.0.bias f4 [24]
00000000: 6c8c a8bd 183f bcbd dded b7bd 87ad 98bd
00000010: 1a70 debc b897 22bc b9bb fb3b 2044 083d
00000020: 3670 063d 5657 f1bc 0619 1abb 50dd 6c3d
00000030: fe96 8d3d 423f cf3b 14d2 d6bd d69d 213d
00000040: 7b49 9cbb c243 603d 8cfa 943d 3e89 3c3e
00000050: 7884 9f3c 879b 873c 187c 75bc adb0 bc3b
-0.08229908 -0.09191722 -0.08980916 -0.07454973 -0.027153064 -0.009923868 0.0076822904 0.033268094
0.032821856 -0.02946059 -0.002351345 0.057828248 0.06913565 0.0063246796 -0.10489288 0.039457165
-0.0047695017 0.05475212 0.072743505 0.18411729 0.019472346 0.016553653 -0.0149832 0.005758366

res_net1.conv2.weight f4 [24, 24, 1, 1, 7]
00000000: 1df4 d63c 9ef4 d03d 57f7 39be 38e2 1ebe
00000010: 1304 ad3c a562 143e b7af a73c ead0 793d
00000020: a9a8 f13d 4029 5bbd fd0c 87bd e118 00be
00000030: 396d 4b3d dbf7 883d 8dd2 cf3d e093 fd3d
00000040: 9f31 b43d a99d 083d 4055 4cbc 0388 8abd
00000050: 3847 9d3d ba0e ff3d 401b c93d 0d29 f53c
00000060: 4d60 d2bb c319 79bd 1531 893d 90cf 7f3c
00000070: 5663 80bd 555c 3d3e c8f9 b9bd 8c80 1f3d
00000080: 2982 37bd 5755 343e 8044 263e f2d1 9cbd
00000090: 91ce 363d e9ac 60bd 6400 38bd 745e e5bc
000000a0: c8ba cdbd a774 13bd 6f00 e23c 80ff 6fbc
000000b0: 2f23 e83d 09ff bc3c c2ac 0bbd 73b9 333e
000000c0: d6a5 c53d d2c4 b53d 5b40 2b3d 40ff 58be
000000d0: e0b3 57bd 80ba c73c c9bc 30be a9b4 07be
000000e0: 2b24 2ebc 7bfa e43c 58dd 4bbd fc97 ea3b
000000f0: 8411 c4bd 86cf 44bd b612 e63d 31cb 003d
00000100: 4f7f c0bd 90f9 4cbe 8d9b 053d 10d3 b33d
00000110: 9c79 07be 6745 3ebe 910c b9bb 8e28 ee3b
00000120: 8560 eb3c 8df0 d6bb 1a29 febd 243b 623d
00000130: 0ccc babd 1cb0 a2bd a0a4 51be c8e1 3ebd
00000140: b6a4 4abe f5ae bbbd bc75 ef3c bb4f 213c
00000150: 87fa e83b 2444 58be 02db da3d ecef cebc
00000160: 0a36 e13d e272 0fbd e853 b43d 0e3e 90be
00000170: e333 59be 638b e33d 98a2 a63d af6e 78be
00000180: b3c2 80be 2fe8 923d 921b 803d cb24 dbbd
00000190: b016 743d d204 1b3d f27b f23d e821 b73b
000001a0: 7765 2fbe 6f67 2abd 9f43 943d a20f 21bd
000001b0: 9cfb 26bd 62eb cd3c cd3f f93d c953 103e
000001c0: d4df 42be cf9b aa3d 8f6b f93d 0ed2 4dbb
000001d0: 8ef1 e7bd ca7b 10bd e640 1e3e bf3f 043e
000001e0: bce3 6abd b097 73bc 0420 82bd 50b6 883d
000001f0: 212f 243e d01b 3f3e c0d8 61be 7f2b e4b9
00000200: 5782 743d 7a6a f03b ffb7 e13b 835a 59bd
00000210: 64a1 513c c293 3fbe 4a58 ae3c efb9 c0bd
00000220: a3e4 a63d c2b1 f4bc bf43 84bd 20b4 563e
00000230: 11eb 183c 783d 003e 9fa0 a23d 9935 183d
00000240: ccf7 38bd 6be2 95bd 6253 ab3d 8c43 59be
00000250: 8fba b93c 3c49 f2bd efbb 9ebd 25de 12bd
00000260: 193f 27bd 6791 80bd ab9a 8d3d fe72 e7bc
00000270: ab53 37be cef2 ddbd 65c8 ce3d dd25 473e
00000280: 7928 1b3e 4db5 923e 85b5 213e 72cc 143e
00000290: a477 c73d c7cb 7bbd 7eb4 fa3d 9d24 443e
000002a0: 7cde b93d 2470 bc3c 17f6 29bb f470 a8bd
000002b0: d382 963d d5c9 2b3e 05e0 e83d d4a8 963d
000002c0: 69e9 323d af7e 01bd f75b f33d d021 30bc
000002d0: c785 533d f5fa 353e 9784 043e 36ab 8c3d
000002e0: bdf1 1f3d 4e49 f73c 1c09 b13d 5c54 433e
000002f0: 9933 bb3d abf6 98bd 637d 2e3d 5d61 003e
00000300: 6a13 363e 3204 403e f0c6 c73c bd58 0ebe
00000310: b16a 273c 8e04 773c 6b6a 6d3d e6b3 983d
00000320: 69b5 a73d cd39 373e ed5f 233e dc18 983b
00000330: 23d6 3b3e c053 843e 3722 bd3d db1e 563d
00000340: dd10 433d 6356 1a3e e2f5 0d3e 1f8d 613e
00000350: 1c8c 4a3e f2ce 4cbd 924f 843d a202 e33d
00000360: 51f8 e5ba 40b4 803d 2afb 0e3e 0ce4 063e
00000370: d99e 6e3c 8721 043e 301a 72bc 6b06 03be
00000380: 218e c93d b5ff 473e be12 363e 6a0f 13be
00000390: c11a 803b 6a92 d8bd 89c8 dabb 1a50 9ebc
000003a0: 42cd cbbd b842 c43c e53e b13d df87 1ebe
000003b0: c2a3 663c a834 9f3c 4b35 0f3e 513c 403e
000003c0: bc43 96bc bf4a f8bd aecf db3c 9b73 f9bc
000003d0: eafb c63d 6ce4 9cbd fc8a 83bd d572 2dbd
000003e0: 45e2 bbbc 54c9 66bc 7259 863d 7c8a d33d
000003f0: 9a8b ab3d 8671 ccbd 7deb 103e d256 9f3d
0.02623945 0.10202907 -0.18160759 -0.15515983 0.021120107 0.14490755 0.02046953 0.06099025
0.117997475 -0.053506136 -0.06594274 -0.1250949 0.04966471 0.066879 0.10147581 0.123817205
0.08798527 0.03335348 -0.012471497 -0.067642234 0.076795995 0.12453981 0.09819651 0.029926801
-0.0064201714 -0.060815584 0.06698815 0.015613452 -0.06268947 0.18492253 -0.09080845 0.03894095
-0.044801865 0.1761068 0.16237068 -0.076572314 0.04463059 -0.0548524 -0.044922248 -0.02799914
-0.10045391 -0.03599992 0.027588097 -0.014648318 0.11334836 0.023070829 -0.0341003 0.17551212
0.09650771 0.08875431 0.04180942 -0.2119112 -0.052661777 0.024380922 -0.17259516 -0.1325251
-0.01062874 0.02795147 -0.049771637 0.007159231 -0.09573653 -0.048049472 0.112340376 0.03144378
-0.09399282 -0.20017076 0.032619048 0.08780491 -0.13229984 -0.18581162 -0.00564725 0.007268018
0.028732548 -0.0065594376 -0.12410183 0.055232182 -0.0912095 -0.079437464 -0.20472956 -0.04660204
-0.19789395 -0.0916423 0.029230945 0.009845669 0.0071099433 -0.21119744 0.10686304 -0.025260888
0.10996635 -0.03502167 0.08805066 -0.28172344 -0.212112 0.1111057 0.08136481 -0.24260972
-0.25148544 0.07173192 0.062552586 -0.10700377 0.05959195 0.037846394 0.11840047 0.0055887587
-0.1712855 -0.04160255 0.0723946 -0.03932155 -0.040767297 0.025136653 0.12170372 0.14094462
-0.19030696 0.083304994 0.12178718 -0.003140572 -0.1132537 -0.035274304 0.15454444 0.12914942
-0.05734609 -0.014867708 -0.06353763 0.06675398 0.16033603 0.18662953 -0.2205534 -0.00043519956
0.059694614 0.0073369117 0.006888389 -0.053064834 0.012794826 -0.18708709 0.021282334 -0.09410464
0.08149078 -0.029869918 -0.06458234 0.2096715 0.009333388 0.12523448 0.07940792 0.03716049
-0.045158193 -0.073185764 0.083655134 -0.21217173 0.022671966 -0.118303746 -0.07750689 -0.035856385
-0.04083166 -0.06277733 0.06914266 -0.028253075 -0.1790301 -0.10837327 0.10096816 0.19448037
0.15152158 0.28653947 0.157919 0.14531115 0.097396165 -0.061473634 0.122414574 0.19154592
0.09075639 0.023002692 -0.0025934034 -0.08224669 0.073491715 0.16776212 0.11370853 0.0735642
0.04367963 -0.031614956 0.11882775 -0.010750249 0.051641252 0.17771514 0.12941204 0.068685934
0.0390489 0.030186322 0.086443156 0.1907515 0.09140701 -0.07468923 0.042600047 0.12537141
0.17780843 0.187516 0.024386853 -0.13901038 0.010218308 0.0150767695 0.057962816 0.07456188
0.08188898 0.17893143 0.15954562 0.0046416353 0.18343405 0.25845146 0.092350416 0.05227552
0.047623504 0.15072016 0.13863328 0.2202649 0.1978001 -0.050002046 0.06460489 0.110844865
-0.0017545318 0.0628438 0.13962999 0.1317293 0.014564239 0.12903415 -0.014776751 -0.12795417
0.09841562 0.19531138 0.17780587 -0.14361349 0.0039094393 -0.10574801 -0.0066767377 -0.019325305
-0.09951259 0.023957595 0.08654574 -0.15481518 0.014077129 0.019434288 0.13985173 0.18773009
-0.018342845 -0.12123632 0.026832428 -0.030450633 0.097160175 -0.076607555 -0.064229935 -0.04234584
-0.022935042 -0.014086086 0.06560029 0.10329148 0.08376236 -0.099825904 0.14152332 0.077802315

res_net1.conv2.bias f4 [24]
00000000: 4f56 f33c 9fbd 08bd 56da 143d f96d 0c3c
00000010: 9c5a 3abd 86c4 51bd cb4e 8dbc ebba 963d
00000020: d308 c4bc 4c0a 34bd 0b9d ae3c 3c52 e93c
00000030: 0857 81bd dbbb 363b a395 4c3d 6616 823d
00000040: 460d e4bc bd1a 30bd e1be 99bd cd58 073d
00000050: 014c 2bbd a91f 86bd ccac 19bd 9241 05bd
0.029704241 -0.03338396 0.036341034 0.008571141 -0.045496568 -0.05121281 -0.017249485 0.073598705
-0.023929989 -0.043955132 0.021315118 0.028481595 -0.06315428 0.0027882967 0.049947392 0.063519284
-0.02783836 -0.04299425 -0.075071104 0.03304367 -0.04182053 -0.065490074 -0.037518308 -0.032533236

res_net1.bn1.weight f4 [24]
00000000: 05b2 5f3f fe5c 763f 3c12 7e3f bf86 653f
00000010: 91f1 903f 00e0 893f da1a 693f 2137 803f
00000020: 0394 803f 82cb 6e3f 142e 863f 37f8 813f
00000030: eb89 8d3f 966b 953f 30d5 883f 748c 863f
00000040: 3b76 7e3f 92c8 9a3f f9d1 7a3f bcae 823f
00000050: 30a4 7c3f 0b4e 673f 0015 723f 420a 653f
0.8738101 0.96235645 0.99246573 0.8965873 1.132372 1.0771484 0.910566 1.0016824
1.004517 0.9327928 1.0482812 1.0153874 1.1057714 1.1673458 1.069006 1.0511613
0.99399155 1.2092459 0.9797664 1.0209575 0.9868803 0.9035346 0.94563293 0.8946878

res_net1.bn1.bias f4 [24]
00000000: 1fe7 31be d12e b0bd 2e1b a6bd fcc9 53be
00000010: c684 813d 3ef3 deba 05db 94bd 9d39 723c
00000020: 5dd2 49bb 53a4 92bd 3cf8 8c3d a426 0b3d
00000030: 1a68 ef3c d885 1d3d 5562 65bd 6465 1b3d
00000040: 7023 2bbd ca88 eb3c 546f 193c 84fb cb3d
00000050: a880 b1bc 27cc bcbc 4baa 66bd 309b 72bd
-0.17373322 -0.086026795 -0.08110653 -0.2068252 0.06324153 -0.0017009748 -0.07268337 0.014784244
-0.0030795552 -0.071602486 0.068832844 0.033972397 0.029224444 0.03845772 -0.05600198 0.03793849
-0.041781843 0.02875175 0.009364922 0.09960082 -0.021667793 -0.023046566 -0.056314748 -0.05923003

res_net1.bn1.running_mean f4 [24]
00000000: 6272 fd3b 8f63 f53d d034 5d3c b98d ba3f
00000010: 19d0 8d3d a8d5 223d 79c1 743e aa7a df3d
00000020: 8709 d63e edb0 553e d735 733e 334d 913d
00000030: 61bf d33d 16ee 6a3d 2a6a f53c 9747 d03e
00000040: 8b08 3a3d a2b3 7d3d dcc6 a43c a0dc 4d3e
00000050: 94ea a43d ed6b 823d f291 c43e 4b64 1e3f
0.0077345828 0.1198188 0.013501361 1.45745 0.06924457 0.03975454 0.23901929 0.10912068
0.41804144 0.20868273 0.23751007 0.07094803 0.10339237 0.057355963 0.02995785 0.4067962
0.045418303 0.06193889 0.020114355 0.20103693 0.08052555 0.063682415 0.38392597 0.61871785

res_net1.bn1.running_var f4 [24]
00000000: 61d3 803b 3506 a63d 0962 bd3b 4164 9e3f
00000010: 0229 4e3d 420e c33c 8fab 273e a1c3 af3d
00000020: 9622 943e ad3d 3d3e ea82 303e d69e 2d3d
00000030: f45c 9f3d 1031 0b3d 9d9a 813c 975b 9b3e
00000040: 5212 b63c f360 123d 525e 333c ed64 043e
00000050: fa01 883d f00c 253d 50a0 953e b110 db3e
0.0039314483 0.08106653 0.005779509 1.2374345 0.050332077 0.02381051 0.16374038 0.08582235
0.28932637 0.18480559 0.1723744 0.042387806 0.07781401 0.033982337 0.015820796 0.30343315
0.022225533 0.03573699 0.010947781 0.12929125 0.06641002 0.04029554 0.2922387 0.42786172

res_net1.bn2.weight f4 [24]
00000000: cee4 5e3f 9a09 663f 8076 3f3f f597 733f
00000010: 2540 583f 54d9 2d3f dad1 583f ee38 663f
00000020: 2538 6f3f f775 733f 5b02 663f b81f 5e3f
00000030: 35f4 833f b9e1 613f 2bfb 533f f6b7 6f3f
00000040: 57be 413f 9272 723f 89d3 703f 806d 773f
00000050: aca4 543f 7390 6a3f 18b7 483f 0076 6f3f
0.8706788 0.898584 0.7479019 0.95153743 0.84472877 0.6790974 0.8469521 0.8993062
0.93445045 0.95101875 0.89847344 0.8676715 1.0308901 0.8823505 0.82805127 0.9364008
0.7568106 0.9470607 0.9407278 0.9665146 0.8306377 0.9162666 0.7840438 0.9353943

res_net1.bn2.bias f4 [24]
00000000: fb08 1bbe 13a5 b8be 4e26 6bbd a97a 5ebe
00000010: bb80 76be a373 61be 553d 96be 6d87 06be
00000020: 6bb8 0bbe 8336 1ebe 054b 5fbe cc1e e1bd
00000030: 2520 f1bd 821a 53be 1755 3dbd 1786 98be
00000040: 5e81 37be ef2f 3fbe 8461 dfbd 61d3 1fbe
00000050: 8d48 90be 119d a5be e02f 94be 1aff 3ebd
-0.15140145 -0.36063442 -0.057409577 -0.21726479 -0.24072544 -0.22016768 -0.29343668 -0.13137598
-0.13644569 -0.15450482 -0.21805961 -0.10992202 -0.11773709 -0.2061558 -0.046223726 -0.29789802
-0.17920443 -0.18670629 -0.109072715 -0.15607978 -0.28180352 -0.32346395 -0.28942776 -0.046630003

res_net1.bn2.running_mean f4 [24]
00000000: 13a5 b9bd 6529 bf3f 3c5c 8cbf f020 e13f
00000010: ea94 f4be cdcb 28bd 5d2d 35bf 0821 083d
00000020: 5426 edbd 0a1a 6abf 9830 e53e 73fd 91bf
00000030: 9e58 0f3e 9f35 24bf a52f 2fbf 6fda e5be
00000040: a4cf d2bf b73c bdbe 389f a0bf 11d7 a73e
00000050: 5900 a1bf 8bc7 97bf 5c34 c2bf 70e3 44bf
-0.090646885 1.4934508 -1.0965648 1.7588177 -0.47769862 -0.041209985 -0.70772344 0.033234626
-0.11579576 -0.9144598 0.44763637 -1.1405472 0.13998649 -0.6414432 -0.68432075 -0.44893214
-1.6469617 -0.36960384 -1.254859 0.3278127 -1.2578231 -1.1857771 -1.5172229 -0.7690954

res_net1.bn2.running_var f4 [24]
00000000: 6a2a a93f d115 1140 808a 2240 3fe0 0a40
00000010: 0625 b33f da03 2440 b054 0440 37d9 0f40
00000020: bb3e cb3f ccb0 f13f 4251 f23f 7aa3 0940
00000030: e106 ae3f 142b a83f ee6f 0140 d00b db3f
00000040: a3fb 6b40 ee01 c33f 8fd5 ea3f 2099 ba3f
00000050: ced7 0340 9f49 0240 ca3c 1840 f8c1 d53f
1.3216069 2.2669566 2.5397034 2.169937 1.3995674 2.562735 2.067669 2.2476327
1.5878519 1.8882079 1.8931048 2.1506028 1.3595849 1.3138146 2.0224566 1.711298
3.6872337 1.5234964 1.8346423 1.457798 2.0600467 2.0357435 2.3787103 1.669982

res_net1.ecalayer.conv.weight f4 [1, 1, 3, 3]
00000000: 3214 0d3e 0014 943d baef 253e e4d5 5d3f
00000010: 6bce 8b3e cac7 033f 69d1 923e 1a1c a8be
00000020: b86a 683d
0.13777235 0.07230377 0.1620473 0.86654496 0.27305922 0.5147673 0.28675392 -0.3283394
0.0567424

res_net2.conv1.0.weight f4 [24, 24, 1, 1, 7]
00000000: df75 21be 1c60 73bc 91c6 5bbd c3a0 1ebd
00000010: 1f46 823b bf26 053e c676 19be 1608 85bd
00000020: 6351 173d 3d96 9ebe aa69 00be 96a5 9fbd
00000030: 4e4f 3cbe be55 553e a12f c33d d246 5d3b
00000040: 457c b3bd 35e3 b93d 1f31 b0bc 0bd8 29be
00000050: 23a2 b0bd 98b7 9fbc 114f 41be 7268 e3bd
00000060: ae34 8bbe 7a0a eebd bc93 363d c697 623c
00000070: 56e5 f3bd 7678 0dbe 0f0a 823d 9c98 e6bc
00000080: 587f 29be db2b f5bc 86a7 9ebc 6cef 8fbd
00000090: 6026 28bd a6e9 15be b732 bf3c c261 8fbd
000000a0: c6af cabd 1c50 603e ab7a 02be 3009 09bd
000000b0: a28c 12bd 9206 7dbe dbc4 123e 598f b0bd
000000c0: ed7d 0e3d b001 a13d e168 8e3c e939 903c
000000d0: da6d 1dbe fb29 d7be ab03 d13d fb3a 19be
000000e0: 6ada a1bc 6c63 f4bd 2268 c2bc 530a 38be
000000f0: d09c 52be e782 89bd 7df7 1cbe c78d 45bd
00000100: 1b34 bbbd 626b 4abe 08eb 92bc 1a29 d0bc
00000110: 1268 613c 09bc bebc 7915 cebc 1f26 ccbc
00000120: f6f9 fdbd c1e7 b4be 5352 033c 5d8e 3d3e
00000130: 5c68 a63c fe3c 2b3e 01b7 6cbc 2834 47be
00000140: 54a6 2ebd c797 883c a388 d43d 2a2a 68bd
00000150: 9ae0 12be 9de3 29be 0a76 6ebe fb3e 1ebe
00000160: bc50 b3bd aa51 78be b00f 5dbe 039c 253b
00000170: 505f a63d 4b60 c73c 7b8a 993d 2194 31be
00000180: 7c09 3fbe 6783 d5bd 061d c13d 5714 ed3d
00000190: dda8 1fbd b19c d8bd e5e7 b6be 6553 0c3e
000001a0: bdff afbe 4f9c 553d 40cd 8ebd 6e66 2b3d
000001b0: 7450 633c d04f 09be d8f8 11bd a75c cd3d
000001c0: 7732 e9bd f747 01bd f725 09be 7576 1d3e
000001d0: eab5 be3d e70e 10be fce8 2a3e 108f 723d
000001e0: 59f3 9f3d f598 ae3c efa0 f93b 1ebb 963c
000001f0: 278e 18be 2148 9a3d 446c 8d3d a32f 283c
00000200: dcb6 923d 958b 593d b26b 4a3e 03df 77bd
00000210: 7bd9 1abe f47f 11be ff04 f9bd a4c5 b6bc
00000220: 0553 23bd b36f 10be a177 adbe 0ee5 9b3d
00000230: 27b2 0cbd a590 3b3b 4b29 c6bd f27b be3d
00000240: ef3f 56bd 0f67 d43c 67e2 5dbb a657 c43d
00000250: 1c46 36bd f964 b4bb 64ca 773c 7dc8 e4be
00000260: 6c3e f63d d23b 37bd 8ff7 9abd b8c6 4ebd
00000270: c442 083c 8759 153c 5eb5 7e3d f6c0 b3bd
00000280: 82c9 7fbd 7ada e03d a3de ba3c 5653 68bd
00000290: 76d8 27be 200f b5bb 9e45 7d3e 8bb9 e13b
000002a0: d9f2 d4bd bb02 f7bd 04ee 4f3d 7b96 7cbe
000002b0: 4c95 ab3d 89a7 343e 68ba a03d 6290 22bc
000002c0: dc90 25be f15f 34bd 6884 3c3e 608c 483d
000002d0: 1923 42be 28d3 2b3d fb76 143e e4d2 573e
000002e0: 14c9 2bbe 6f1d a7bc e2e5 003e 8ef3 243d
000002f0: 9959 86be c750 063b 57d2 503d eb37 8fbd
00000300: 66b9 c1bd a60b 92bc bf4e e13d 8f75 07be
00000310: 63e7 fcbd 1799 8e3a d2d1 e43d 4073 e7bd
00000320: 1f59 5dbe 3631 00be c987 503e 7ed6 cd3c
00000330: 6b67 3ebe 490d bebb 7464 cc3d 13bf 183c
00000340: 9f14 bb3d 32ae 4cbd c0bf 34bd eaf9 033d
00000350: de59 a2bd 76de 11bd 7cd8 a33c 18a0 863d
00000360: 3407 523e 7a34 33be 606a 6cbd eaea 45bc
00000370: f7d2 13be d772 3dbe 3a89 6d3c cd64 c63d
00000380: 2a76 46bd d4eb 34bc a0ef 1f3d 5fea db3c
00000390: 1795 37be f318 4abd 2ec4 e3bd 4a77 3b3c
000003a0: a66d 5f3d dff2 fb3c d2c7 ba3c 2f99 a03b
000003b0: 7ed3 d43d 1502 403e 4879 d43d afaf d13c
000003c0: 3ee1 58bd 47fd 91bd 86e8 e83d 22ca c1bc
000003d0: c6ae a8bc e443 aa3b fc89 3e3e e34b 9bbc
000003e0: d91b a5ba da1c aabc 833d 5ebe e40f 283d
000003f0: 24a4 393e bb84 99bd 3e50 ca3c b1a9 b03d
-0.1576762 -0.014854457 -0.053656165 -0.038727533 0.0039756442 0.13003062 -0.14986715 -0.06495683
0.03694285 -0.30973998 -0.12540308 -0.07795255 -0.18389627 0.2083349 0.09530569 0.0033764136
-0.08763937 0.090765394 -0.021507798 -0.1658632 -0.08624675 -0.019496724 -0.18877818 -0.11103906
-0.2718863 -0.11623092 0.044574484 0.013830131 -0.11908977 -0.13815483 0.06349575 -0.028148942
-0.16552484 -0.029928138 -0.01936699 -0.07028088 -0.041052222 -0.14639911 0.023339612 -0.07001068
-0.098968074 0.2190556 -0.12742107 -0.033456028 -0.03577865 -0.24709538 0.14332907 -0.086210914
0.03478806 0.0786165 0.017383995 0.017605739 -0.15373936 -0.42024216 0.10205778 -0.14963906
-0.019757468 -0.11933026 -0.023731295 -0.17972688 -0.20567632 -0.06714421 -0.15328784 -0.048230913
-0.09140798 -0.19767526 -0.017934337 -0.025410224 0.013757722 -0.023283022 -0.025156723 -0.024920521
-0.12401192 -0.35333064 0.008015233 0.18511339 0.020313434 0.16722485 -0.014447928 -0.1945349
-0.04263909 0.016673936 0.10377624 -0.056680836 -0.14343491 -0.16590734 -0.23287216 -0.15453713
-0.08755633 -0.24249902 -0.21588016 0.0025269992 0.08123648 0.024337908 0.07497116 -0.17341663
-0.18655962 -0.10425454 0.09429364 0.11576145 -0.0389794 -0.105767615 -0.35723796 0.13703687
-0.343748 0.05215102 -0.06972742 0.04184573 0.013874162 -0.13409352 -0.035637707 0.10027438
-0.113865785 -0.03156277 -0.13393389 0.15377219 0.09312041 -0.14068185 0.16690439 0.059218466
0.07810087 0.02131317 0.0076180617 0.018399771 -0.14897977 0.07533289 0.06905416 0.010265264
0.07163784 0.05311163 0.19767645 -0.060515415 -0.15122025 -0.14208966 -0.12159156 -0.02231104
-0.039874095 -0.1410511 -0.33880332 0.07612048 -0.034349587 0.002862015 -0.09675845 0.093009844
-0.052307066 0.025928048 -0.003385687 0.0958703 -0.044500455 -0.005505201 0.015123937 -0.4468421
0.12023625 -0.044734783 -0.07566749 -0.05048248 0.008316699 0.009115583 0.062184684 -0.08777039
-0.062448032 0.10979171 0.02281124 -0.0567201 -0.16391167 -0.0055254847 0.24733588 0.0068885735
-0.10397882 -0.12061068 0.0507641 -0.24666779 0.083780855 0.17642035 0.07848054 -0.009922119
-0.1616854 -0.04403681 0.18409884 0.048961997 -0.18958701 0.04194942 0.14498512 0.21076542
-0.16775924 -0.020399777 0.12587693 0.040271334 -0.26240233 0.0020494924 0.050981846 -0.069930874
-0.0945919 -0.01782782 0.11001348 -0.13228439 -0.12348821 0.0010879365 0.111728325 -0.11301279
-0.21616028 -0.12518772 0.20364298 0.025126692 -0.18594138 -0.0057999236 0.099800974 0.009322899
0.091347925 -0.049970813 -0.04412818 0.03222076 -0.07927297 -0.035612546 0.020000689 0.06573504
0.2051056 -0.17500487 -0.057718635 -0.012079934 -0.14435945 -0.18500839 0.014498049 0.09687195
-0.048452534 -0.011042554 0.039046884 0.026845155 -0.17927967 -0.0493402 -0.11121403 0.011442015
0.05454793 0.030755458 0.02280036 0.0049010734 0.103919014 0.18750794 0.10374695 0.025596468
-0.052949183 -0.07128387 0.11372475 -0.023655955 -0.020591151 0.0051960815 0.18607324 -0.018957084
-0.00125968 -0.02076571 -0.21703152 0.04103078 0.18129021 -0.074960195 0.024696466 0.08626116
